data/Clair/clair_meta.pt (torch, 338353 bytes, 7 tensors)

weight_ih_l0 f4 [512, 24]
0.048472926 -0.06140631 -0.066976935 -0.049566064 -0.045488156 0.0748812 0.043703336 -0.01981557
-0.008172306 -0.040286418 -0.048697982 -0.021383174 -0.04597784 -0.05701965 0.008724372 0.04198715
-0.031051774 -0.044261314 0.007164539 0.07602695 -0.052361555 0.052281376 -0.009693366 -0.053996783
0.034524214 -0.09507318 0.0055511026 -0.09426255 -0.0705929 0.016842362 0.017051166 0.008463798
0.022582574 0.017134182 0.00655298 0.06877295 0.04617268 0.06035542 -0.055259652 0.0077616572
0.013834264 -0.026960086 -0.005355744 0.026382146 -0.07733557 0.0591315 -0.0069052107 -0.09490277
0.0018654964 -0.084858775 -0.020823523 0.06379313 0.05403234 0.0011934122 -0.04831256 0.06894809
-0.060467206 -0.010135295 -0.07089876 0.06779116 -0.07334344 -0.027899442 0.059817538 -0.07833746
0.0016565239 0.07924541 0.059423298 0.017891107 0.05658341 -0.029986203 -0.053556945 0.052602332
-0.016101351 -0.026609832 0.03618571 0.027948169 0.050827436 -0.024510045 -0.017822247 0.013203537
-0.051423583 -0.02759334 0.003776984 -0.061139546 0.066585526 -0.03160362 -0.088970296 0.018449673
0.04497144 0.034238823 -0.063990355 0.0324473 -0.018531997 -0.07804488 0.056268606 0.07579608
0.08025063 0.024845405 -0.005703978 0.049312696 0.055469368 -0.042056005 -0.0038696215 0.05130415
-0.06532755 -0.012691362 0.031242652 0.041213572 0.024912111 0.016133197 -0.058833063 0.050688792
-0.043779835 0.022256572 -0.043639354 0.006989565 0.014376062 -0.061677758 0.053521514 0.0009846125
0.087178275 -0.021606863 0.029484935 0.073263906 0.05226774 0.06669782 -0.05022928 -0.028196888
-0.044017613 -0.04845956 0.070508406 0.050095122 0.0052786716 -0.006958174 0.00078272587 0.0466729
0.03607191 0.030967778 0.023199182 0.01368587 0.032395516 -0.050907847 0.0868272 0.00030168888
-0.07206486 0.026030703 0.009936456 0.045377105 -0.021302912 -0.06502459 0.028793793 -0.030843476
0.054597866 0.014911487 0.066272505 0.07772533 0.09268414 -0.055356916 0.06086451 -0.07783605
0.093609795 0.075800374 -0.06628205 0.0667918 0.05896759 0.033409405 -0.01201104 0.09223302
0.025932958 -0.06265685 -0.019508215 -0.06558582 0.02578606 -0.07582679 0.0407659 -0.03001603
-0.07521146 0.08031545 -0.0659844 -0.01772886 -0.08273285 0.059282668 -0.045637373 -0.06094726
-0.05111537 -0.043288723 0.077796206 0.025449086 -0.08193986 0.076232664 0.032349598 -0.020405563
0.054562703 -0.023959469 -0.015083358 0.07198787 0.0032208618 -0.08417424 -0.0868087 0.07099954
0.01859009 -0.07542228 0.049395766 -0.070102766 -0.04492736 0.05374366 -0.03379094 -0.04538256
-0.01509673 0.04602643 0.003756172 -0.07975122 0.058270235 0.0013475367 -0.065121464 0.012701483
0.037842758 -0.004214843 -0.072511114 0.005302508 -0.023448193 -0.07869267 -0.04024959 -0.06614957
-0.08783603 -0.08515939 0.054752972 -0.081965744 0.06021513 -0.068594396 0.01926655 -0.035365075
0.039287534 0.023417052 -0.0144348955 0.015806673 -0.049802057 0.011318203 -0.018127518 0.014140001
0.028450163 -0.03152031 0.003464538 -4.7501515e-05 -0.02314272 -0.021733973 0.038062643 0.030512074
-0.07702126 -0.011896017 0.01978016 0.079170965 0.02512726 -0.044623297 -0.047574032 0.024765745
00000000: 8c8b 463d 2f85 7bbd 342b 89bd c905 4bbd
00000010: ca51 3abd 515b 993d 4502 333d 4354 a2bc
00000020: 23e5 05bc 5f03 25bd 8977 47bd c42b afbc
00000030: 4253 3cbd 708d 69bd abf0 0e3c b8fa 2b3d
00000040: 4a60 febc 5a4b 35bd 82c4 ea3b 04b4 9b3d
00000050: 1279 56bd ff24 563d ecd0 1ebc bb2b 5dbd
00000060: 4369 0d3d bab5 c2bd 06e6 b53b b90c c1bd
00000070: 0393 90bd fef8 893c e3ae 8b3c beab 0a3c
00000080: 17ff b83c fc5c 8c3c 61ba d63b d5d8 8c3d
00000090: 901f 3d3d 3f37 773d f257 62bd 8055 fe3b
000000a0: 1ca9 623c 66db dcbc 3d7f afbb 5f1f d83c
000000b0: 1c62 9ebd df33 723d 1b45 e2bb 625c c2bd
000000c0: ac83 f43a 70ca adbd 1896 aabc f9a5 823d
000000d0: 0451 5d3d 456c 9c3a 64e3 45bd a834 8d3d
000000e0: 76ac 77bd 820e 26bc 5e33 91bd 17d6 8a3d
000000f0: 1635 96bd 5f8d e4bc 3c03 753d 646f a0bd
00000100: b81f d93a 6b4b a23d d865 733d 5f90 923c
00000110: 01c4 673d a0a5 f5bc 875e 5bbd 8b75 573d
00000120: fbe6 83bc ddfc d9bc 7837 143d 8ff3 e43c
00000130: 6e30 503d 4ac9 c8bc f6ff 91bc a653 583c
00000140: 89a1 52bd 6e0b e2bc 4787 773b 766d 7abd
00000150: fe5d 883d cc72 01bd 0f36 b6bd c523 973c
00000160: f933 383d 023e 0c3d 600d 83bd 76e7 043d
00000170: 6ad0 97bc fed5 9fbd e979 663d fa3a 9b3d
00000180: 715a a43d 9788 cb3c 6fe8 babb 1cfc 493d
00000190: d933 633d eb42 2cbd 7a99 7dbb 4d24 523d
000001a0: 73ca 85bd 6eef 4fbc 97f0 ff3c 90cf 283d
000001b0: 7c14 cc3c c429 843c f0fa 70bd 0d9f 4f3d
000001c0: 7c52 33bd 6a53 b63c 2ebf 32bd b908 e53b
000001d0: 9389 6b3c d1a1 7cbd 6039 5b3d 1d0e 813a
000001e0: 868a b23d e000 b1bc 648a f13c 630b 963d
000001f0: b316 563d de98 883d 38bd 4dbd 29fd e6bc
00000200: d04b 34bd 887d 46bd b666 903d 8b30 4d3d
00000210: b5f8 ac3b 6501 e4bb d82f 4d3a 152c 3f3d
00000220: 24c0 133d 23b0 fd3c 360c be3c b33a 603c
00000230: 29b1 043d bf84 50bd 76d2 b13d ff2b 9e39
00000240: be96 93bd 573e d53c 84cc 223c 58dd 393d
00000250: 7283 aebc 9d2b 85bd f6e0 eb3c 75ab fcbc
00000260: 03a2 5f3d 4f4f 743c e1b9 873d 752e 9f3d
00000270: 2fd1 bd3d efbd 62bd 104d 793d 8268 9fbd
00000280: 7eb6 bf3d 3a3d 9b3d e2be 87bd 24ca 883d
00000290: 0088 713d 4dd8 083d f4c9 44bc aae4 bc3d
000002a0: 5b71 d43c 3c52 80bd b1cf 9fbc dc51 86bd
000002b0: 4a3d d33c 134b 9bbd 25fa 263d 2de4 f5bc
000002c0: 7708 9abd 6d7c a43d d422 87bd 1d3c 91bc
000002d0: d76f a9bd 62d2 723d 41ee 3abd d6a3 79bd
000002e0: 5a5e 51bd 844f 31bd 9e53 9f3d 9a7a d03c
000002f0: 16d0 a7bd df1f 9c3d 0381 043d 9129 a7bc
00000300: 247d 5f3d a646 c4bc 3020 77bc 606e 933d
00000310: 1815 533b 8b63 acbd c2c8 b1bd 3568 913d
00000320: 3f4a 983c ff76 9abd 3753 4a3d 0a92 8fbd
00000330: c005 38bd 5022 5c3d 5e68 0abd 10e3 39bd
00000340: 4658 77bc 3686 3c3d 1c2a 763b 9c54 a3bd
00000350: c5ac 6e3d d49f b03a 675e 85bd e219 503c
00000360: 0201 1b3d aa1c 8abb b580 94bd a9c0 ad3b
00000370: 6d16 c0bc 9f29 a1bd c1dc 24bd 6d79 87bd
00000380: 60e3 b3bd 0c68 aebd a744 603d a8dd a7bd
00000390: 24a4 763d 387b 8cbd e2d4 9d3c f8da 10bd
000003a0: f7eb 203d 1ed5 bf3c 5780 6cbc ff7c 813c
000003b0: 3efd 4bbd fc6f 393c 2980 94bc 76ab 673c
000003c0: 5110 e93c 711b 01bd 4d0d 633b 5d3c 47b8
000003d0: cd95 bdbc 720b b2bc 93e7 1b3d 75f4 f93c
000003e0: 53bd 9dbd 83e7 42bc 010a a23c 6324 a23d
000003f0: afd7 cd3c ebc6 36bd fddc 42bd 88e1 ca3c

weight_hh_l0 f4 [512, 128]
0.023662249 -0.07516624 0.05873618 -0.050364736 0.04461761 -0.045502454 -0.0044188104 0.028845984
-0.02932419 -0.00062589237 -0.10488371 0.019364765 0.019160558 0.12304956 0.08321755 0.08818492
-0.052734245 -0.113174856 -0.040084906 0.04724101 -0.06856892 0.07012745 -0.1090744 0.12975386
-0.054342173 -0.005045073 0.06281144 0.028964655 -0.037917186 0.109307796 0.006360837 0.009629117
0.02051437 -0.07817052 -0.032325786 -0.030150674 0.08179713 -0.047723442 0.004247237 -0.08912251
0.108713746 -0.032631624 -0.074089676 -0.012832629 -0.023468578 0.089142404 0.077041514 -0.02167691
0.053129554 0.011363089 0.056909926 0.019386282 -0.036742307 -0.07049729 -0.030455045 0.047712427
0.07677211 -0.06547253 0.0155712515 -0.085328 -0.042818923 0.049363993 -0.095665604 0.121807516
0.0024636239 -0.006354825 0.021740353 -0.033329047 0.030835278 0.056417983 0.058666382 -0.049814325
-0.054397654 0.1328913 -0.0963982 -0.053452697 0.104873374 0.030818144 -0.110517144 0.058596935
-0.052196335 -0.012603002 -0.0074277744 -0.06533937 -0.033134922 0.04571985 0.0673104 0.10008293
0.014659686 0.05579302 0.07148123 -0.046329193 -0.026911328 -0.08250418 0.13560213 0.075966924
-0.034960493 -0.017713023 0.023437837 0.107684374 0.02185748 -0.036206517 0.027522873 0.123143405
0.08688211 -0.08280315 -0.06553174 -0.11434276 -0.020327643 -0.047523007 0.051152628 0.0143761225
-0.03450713 0.07336714 0.1007357 -0.009548445 0.016069796 0.11435928 0.04678289 -0.0593637
-0.0492704 -0.09071151 0.0200337 0.009916228 -0.10448898 -0.04669245 -0.04964248 -0.05764822
0.058715068 0.08737328 0.06966743 0.023190467 -0.06443266 0.0782869 0.003798368 -0.051415533
0.0487013 0.092698775 0.026734145 0.06924243 -0.039267838 -0.07442373 0.05401616 0.029105196
0.009007587 0.029674454 -0.04016442 -0.09203186 -0.009390967 0.012898435 0.040899333 -0.079040125
0.09196433 0.016602831 0.07123724 -0.01746178 -0.020438064 0.008448106 -0.008748872 0.07429733
0.026064137 -0.028612 0.082053736 -0.045941804 0.018300343 -0.055948492 -0.086033605 0.045078952
-0.020625116 0.008410295 0.06326775 0.00908931 -0.03090417 -0.009265535 -0.040352114 0.018559348
-0.01078715 0.012607991 0.057062853 -0.048785064 0.079055525 0.08388798 -0.028981492 -0.0014218678
-0.086380035 0.01854336 -0.08890325 -0.010837116 -0.0421834 0.007759969 -0.068688676 -0.03252521
-0.008492209 -0.015347693 0.025738358 0.041909423 0.06670665 0.08045983 -0.019442065 -0.022267703
0.015125024 0.035573956 -0.03324199 -0.082454205 -0.072709166 0.039766468 0.03417768 -0.003344562
-0.04082315 -0.023003038 -0.04717349 0.061468184 -0.025985781 -0.037080433 -0.0022647374 -0.089824066
0.06784336 0.07189425 -0.017672295 -0.03505704 0.012544025 -0.018774047 -0.057447013 0.042694837
-0.035306737 -0.07524223 0.0460544 -0.0031336087 0.040474292 -0.07538865 0.02239243 -0.06414409
-0.029866224 -0.06160604 0.0012474192 -0.017026085 -0.00903958 -0.073556714 -0.0208041 -0.041624203
-0.053914137 -0.06841784 0.0741673 -0.04791293 0.06899363 -0.07481723 0.00081441435 -0.09327196
0.07311927 -0.012890734 -0.080164194 -0.06851099 -0.01798826 0.046130087 -0.07618762 0.008662268
00000000: 55d7 c13c c2f0 99bd 5995 703d 414b 4ebd
00000010: f4c0 363d c860 3abd abcb 90bb 6a4e ec3c
00000020: 4939 f0bc ed12 24ba 45cd d6bd dba2 9e3c
00000030: 9af6 9c3c 6801 fc3d f66d aa3d 4c9a b43d
00000040: ddff 57bd 38c8 e7bd 1230 24bd ca7f 413d
00000050: dd6d 8cbd fb9e 8f3d 6662 dfbd 32de 043e
00000060: e695 5ebd 2451 a5bb 49a3 803d 4947 ed3c
00000070: 0d4f 1bbd c4dc df3d 916e d03b 72c3 1d3c
00000080: c10d a83c de17 a0bd 0b68 04bd 8cfe f6bc
00000090: 4185 a73d a879 43bd 682c 8b3b dd85 b6bd
000000a0: 50a5 de3d bda8 05bd 54bc 97bd f23f 52bc
000000b0: 2d41 c0bc 4b90 b63d f1c7 9d3d c693 b1bc
000000c0: 609e 593d 402c 3a3c 621a 693d fbcf 9e3c
000000d0: 1a7f 16bd e260 90bd dc7c f9bc 1b6e 433d
000000e0: b23a 9d3d 7616 86bd 901e 7f3c 72c0 aebd
000000f0: e562 2fbd e631 4a3d 54ec c3bd 3876 f93d
00000100: c074 213b 233c d0bb d318 b23c 0a84 08bd
00000110: 449a fc3c 8b16 673d 294c 703d 1b0a 4cbd
00000120: 13d0 5ebd a814 083e 6b6c c5bd 37f1 5abd
00000130: dac7 d63d 5576 fc3c d056 e2bd 5703 703d
00000140: d3cb 55bd d27c 4ebc b064 f3bb a6d0 85bd
00000150: 7cb8 07bd bd44 3b3d 09da 893d 47f8 cc3d
00000160: 2e2f 703c 3987 643d c064 923d aec3 3dbd
00000170: 2575 dcbc f4f7 a8bd 49db 0a3e 8c94 9b3d
00000180: bc32 0fbd e71a 91bc b500 c03c a089 dc3d
00000190: 750e b33c 494d 14bd a677 e13c 9c32 fc3d
000001a0: 3fef b13d b394 a9bd 8135 86bd 892c eabd
000001b0: 2886 a6bc 7ca7 42bd 6b85 513d d489 6b3c
000001c0: 5957 0dbd 8341 963d 854e ce3d 1571 1cbc
000001d0: cea4 833c 3335 ea3d 6a9f 3f3d 5a27 73bd
000001e0: c2cf 49bd f5c6 b9bd b71d a43c ad77 223c
000001f0: 51fe d5bd 9540 3fbd ea55 4bbd 8a20 6cbd
00000200: 367f 703d c3f0 b23d ccad 8e3d eff9 bd3c
00000210: 45f5 83bd e254 a03d 0aee 783b 1899 52bd
00000220: 047b 473d dbd8 bd3d 9101 db3c face 8d3d
00000230: 50d7 20bd 786b 98bd 0d40 5d3d 056e ee3c
00000240: 8f94 133c d717 f33c 7283 24bd 337b bcbd
00000250: 92dc 19bc f553 533c 0f86 273d cadf a1bd
00000260: cb57 bc3d a902 883c d5e4 913d 020c 8fbc
00000270: ba6d a7bc ed69 0a3c 6e57 0fbc 3329 983d
00000280: 7584 d53c b763 eabc ca0b a83d 792d 3cbd
00000290: 9aea 953c 3f2a 65bd 6332 b0bd b5a4 383d
000002a0: 01f6 a8bc 55cb 093c 8692 813d 54eb 143c
000002b0: be2a fdbc 78ce 17bc 4248 25bd c609 983c
000002c0: 96bc 30bc bf91 4e3c bdba 693d d9d2 47bd
000002d0: dde7 a13d 76cd ab3d 986a edbc f75d baba
000002e0: 04e8 b0bd 3fe8 973c e812 b6bd 298e 31bc
000002f0: 80c8 2cbd 5747 fe3b a6ac 8cbd 2839 05bd
00000300: e822 0bbc e474 7bbc 40d9 d23c 37a9 2b3d
00000310: 7f9d 883d 20c8 a43d f744 9fbc c26a b6bc
00000320: f3ce 773c ffb5 113d c128 08bd c0dd a8bd
00000330: 8be8 94bd 2ae2 223d e5fd 0b3d 7030 5bbb
00000340: 2d36 27bd de70 bcbc fd38 41bd 10c6 7b3d
00000350: 22e0 d4bc a7e1 17bd fd6b 14bb aef5 b7bd
00000360: 76f1 8a3d 4b3d 933d 7dc5 90bc f997 0fbd
00000370: 7485 4d3c 08cc 99bc 8f4d 6bbd c8e0 2e3d
00000380: cc9d 10bd 9918 9abd 8aa3 3c3d 3b5d 4dbb
00000390: 5fc8 253d 5d65 9abd 5470 b73c fa5d 83bd
000003a0: 03aa f4bc 9d56 7cbd 7180 a33a 4a7a 8bbc
000003b0: bf1a 14bc e7a4 96bd 5c6d aabc 247e 2abd
000003c0: 12d5 5cbd a71e 8cbd 06e5 973d 5940 44bd
000003d0: 884c 8d3d c739 99bd 6c7e 553a 5f05 bfbd
000003e0: 8ebf 953d a833 53bc 202d a4bd 7d4f 8cbd
000003f0: 1e5c 93bc e7f2 3c3d 4108 9cbd 2fec 0d3c

bias_ih_l0 f4 [512]
0.10845317 0.0096037695 0.01952228 0.08621234 -0.03828693 0.0014541255 -0.06929525 0.011527158
0.005843871 -0.07090595 0.06924827 0.019915616 0.057897016 -0.023974963 0.021934824 0.09490558
0.004356625 -0.07252646 -0.01530623 -0.05507516 -0.057573553 0.020466454 -0.019383414 0.024408534
0.08001975 -0.05568959 0.040975414 0.04835481 -0.0046110144 -0.07516418 -0.046380103 0.0047552907
-0.03628028 -0.015192987 0.03179328 -0.03103544 -0.015334777 -0.03993615 -0.0052296794 -0.011561262
0.06790504 -0.06872517 0.0885116 -0.07193194 0.053373713 0.061385967 0.035114978 -0.012877671
0.02481224 0.044250797 -0.08128525 0.06772657 0.012342293 -0.07182852 0.08756659 0.032884616
-0.030698191 0.065106474 -0.028994652 0.05165378 0.005953658 -0.0029998918 0.019495979 0.045644213
-0.028038317 0.009491802 -0.012161324 0.048878223 0.031094093 0.043418325 -0.027958494 -0.02700323
0.03178739 0.06145777 0.062125247 -0.04347327 -0.012102915 -0.022961639 0.06584667 0.018005311
-0.01199917 -0.03983094 0.049276758 0.078191176 0.079182275 -0.017534452 -0.075678736 -0.07397677
-0.041733142 -0.022539165 0.018108899 -0.061156906 -0.06746343 -0.030603519 -0.080043726 0.06350025
0.04516665 -0.038235385 -0.03550009 -0.03727727 -0.085878946 -0.0073768944 -0.054522052 -0.0013325554
-0.07596807 0.036320623 -0.06566545 0.09325044 0.039130043 0.055673577 -0.008658948 0.06568224
-0.015877256 -0.013319019 -0.040874895 -0.013974495 -0.006120566 0.05145317 -0.060813434 0.028222358
-0.019393075 -0.0673311 0.013667113 -0.031943694 -0.021330604 0.005850627 0.09223493 0.06758982
0.04209712 0.011756829 0.007851664 -0.027958982 -0.056756902 -0.04406274 -0.065770924 -0.0046780375
0.041323468 -0.0061952034 0.06612434 -0.084240995 -0.004230741 -0.051250126 -0.0046777804 -0.015155797
-0.11209516 -0.07184462 -0.06345909 0.031041618 -0.115932584 -0.10116472 -0.105629556 -0.030712813
-0.04946703 -0.10514562 -0.08387112 0.043811936 0.023306882 0.03255929 -0.056870528 -0.07129781
0.033565205 -0.03107785 -0.008447768 -0.066524185 -0.07716039 0.06314726 -0.032549743 -0.10248769
0.046258055 -0.04023705 0.007905019 0.047148634 0.043091457 -0.099729925 0.042861983 -0.09930635
0.011780527 0.028379513 0.018333068 0.07434009 -0.0122350985 0.04588602 0.005255861 -0.10335356
-0.08332352 0.024775347 0.040525593 -0.049342506 -2.878573e-05 0.065406665 -0.019306196 0.047587063
-0.061317097 -0.054846216 -0.08986986 0.0023833625 0.044028293 -0.023638563 -0.09950916 -0.07284922
0.023316605 0.061957993 0.02378575 -0.007531616 0.03927516 0.027177127 -0.04312768 -0.0049721524
-0.05599283 0.0059371376 -0.10895895 -0.024346177 -0.11474985 0.016678687 0.06321231 0.010927865
-0.0036012267 -0.07218314 0.02836326 0.04335854 0.021899035 0.039405998 0.0045123557 -0.10485977
-0.044795856 0.04950954 0.036664966 0.03957619 -0.07629005 0.05001838 -0.06465731 -0.09897482
0.027707806 -0.03315755 -0.039675 -0.009124965 -0.069358945 0.02998172 -0.10663096 -0.09286213
0.020070426 0.020769473 -0.10246686 -0.03786393 0.015591761 -0.0055501563 -0.061676513 0.054824013
-0.023894072 -0.11423641 0.011331426 -0.015464778 0.017409857 -0.0854212 -0.0848632 -0.04022886
00000000: b21c de3d 2159 1d3c 30ed 9f3c 1890 b03d
00000010: c2d2 1cbd 5b98 be3a abea 8dbd 68dc 3c3c
00000020: f17d bf3b 2437 91bd 09d2 8d3d 1326 a33c
00000030: 6c25 6d3d 2467 c4bc a9b0 b33c db5d c23d
00000040: 05c2 8e3b c188 94bd fbc6 7abc 7e96 61bd
00000050: 3fd2 6bbd 44a9 a73c f7c9 9ebc 68f4 c73c
00000060: 65e1 a33d c41a 64bd d6d5 273d b10f 463d
00000070: fe17 97bb adef 99bd 10f9 3dbd 45d2 9b3b
00000080: a29a 14bd 02ec 78bc ac39 023d 093e febc
00000090: b73e 7bbc 1794 23bd bb5d abbb 736b 3dbc
000000a0: cc11 8b3d c8bf 8cbd 9245 b53d 0e51 93bd
000000b0: 659e 5a3d da6f 7b3d b9d4 0f3d defc 52bc
000000c0: 0a43 cb3c 5340 353d e278 a6bd 3ab4 8a3d
000000d0: 5437 4a3c d51a 93bd 1d56 b33d 05b2 063d
000000e0: c67a fbbc 8b56 853d 3186 edbc ea92 533d
000000f0: e716 c33b d599 44bb 08b6 9f3c 6df5 3a3d
00000100: 9db0 e5bc 8183 1b3c 4a40 47bc 8834 483d
00000110: 0ab9 fe3c 6ad7 313d 3609 e5bc e135 ddbc
00000120: 7f33 023d 25bb 7b3d 0b77 7e3d 0711 32bd
00000130: 4e4b 46bc 0c1a bcbc 9eda 863d e07f 933c
00000140: 2b98 44bc c525 23bd 6dd6 493d b222 a03d
00000150: 512a a23d 69a4 8fbc 74fd 9abd 2281 97bd
00000160: 5ff0 2abd 0ea4 b8bc 1d59 943c aa7f 7abd
00000170: 442a 8abd 3bb4 fabc f7ed a3bd 6b0c 823d
00000180: aa00 393d b59c 1cbd 8b68 11bd 0db0 18bd
00000190: 4de1 afbd e0b9 f1bb 8452 5fbd 24a9 aeba
000001a0: 2695 9bbd efc4 143d 9c7b 86bd 16fa be3d
000001b0: d346 203d fa09 643d 43de 0dbc 6984 863d
000001c0: 0511 82bc 0438 5abc 6f6c 27bd 48f5 64bc
000001d0: 078f c8bb 8fc0 523d 8217 79bd 9332 e73c
000001e0: 3ade 9ebc e3e4 89bd 07ec 5f3c 64d7 02bd
000001f0: 85bd aebc 9eb6 bf3b abe5 bc3d 886c 8a3d
00000200: 086e 2c3d b79f 403c 44a4 003c 3c0a e5bc
00000210: ed79 68bd 227b 34bd e8b2 86bd 394a 99bb
00000220: cc42 293d 2201 cbbb 336c 873d 8b86 acbd
00000230: 07a2 8abb a7eb 51bd 1148 99bb 0550 78bc
00000240: 2692 e5bd 4623 93bd d7f6 81bd fe4a fe3c
00000250: 106e edbd 732f cfbd 4f54 d8bd 7099 fbbc
00000260: f19d 4abd 9656 d7bd 9fc4 abbd 2574 333d
00000270: 13ee be3c e45c 053d 12f1 68bd 9604 92bd
00000280: ab7b 093d fa96 febc 8268 0abc d53d 88bd
00000290: 4406 9ebd 5a53 813d e152 05bd 11e5 d1bd
000002a0: 1679 3d3d 9bcf 24bd 0e84 013c ed1e 413d
000002b0: ab80 303d 343f ccbd 0c90 2f3d 2161 cbbd
000002c0: 1d03 413c 277c e83c 3b2f 963c 9e3f 983d
000002d0: b975 48bc fbf2 3b3d 5c39 ac3b 08ab d3bd
000002e0: 86a5 aabd abf5 ca3c 2afe 253d 5e1b 4abd
000002f0: e278 f1b7 eef3 853d 0728 9ebc a7ea 423d
00000300: a327 7bbd 6da6 60bd b00d b8bd 3032 1c3b
00000310: 0357 343d a9a5 c1bc 75cb cbbd f931 95bd
00000320: 7702 bf3c aac7 7d3d 55da c23c c6cb f6bb
00000330: fdde 203d 91a2 de3c a6a6 30bd 70ed a2bb
00000340: bd58 65bd 528c c23b df25 dfbd a271 c7bc
00000350: f801 ebbd bea1 883c 7575 813d ca0a 333c
00000360: 8f02 6cbb c1d4 93bd 115a e83c b998 313d
00000370: 9b65 b33c 2f68 213d 62dc 933b b8c0 d6bd
00000380: dc7b 37bd 84ca 4a3d 012e 163d a51a 223d
00000390: f53d 9cbd 13e0 4c3d 0d6b 84bd 4fb3 cabd
000003a0: 7bfb e23c 36d0 07bd 4182 22bd e180 15bc
000003b0: 100c 8ebd 399c f53c 5561 dabd 802e bebd
000003c0: bc6a a43c be24 aa3c 25da d1bd 3517 1bbd
000003d0: 9674 7f3c 16de b5bb 83a0 7cbd 258f 603d
000003e0: 80bd c3bc c7f4 e9bd 72a7 393c fb5f 7dbc
000003f0: 1e9f 8e3c 4ff1 aebd c2cc adbd 04c7 24bd

bias_hh_l0 f4 [512]
0.0002065128 -0.006171114 0.07877576 -0.076756164 -0.06784189 0.028561903 0.069993824 0.02941962
-0.024753613 -0.049497247 -0.057371803 0.042209312 0.011067279 -0.024756692 0.020740857 -0.05686583
0.0630745 -0.05497692 0.060746368 0.0734792 0.031143505 -0.027987631 0.09011759 -0.010519888
-0.049642164 0.009892414 0.0626162 -0.0063286144 -0.018326242 0.034762003 0.05892259 -0.0023256512
0.06287195 0.08267448 -0.052405264 0.031079693 0.110306226 0.023731152 -0.076884024 -0.09367662
-0.06664442 0.049635246 0.05302981 -0.019615969 -0.04778456 0.006659213 -0.07173825 -0.0063550444
-0.056096736 0.08403665 -0.012924489 -0.023927648 0.031553466 -0.01761599 -0.01919549 -0.100858554
0.049086902 0.019539213 -0.019247804 -0.013288088 0.017874358 0.030292239 0.09281646 0.08157226
-0.025704691 -0.05746083 -0.0550411 0.06650659 0.07366928 -0.023272382 -0.007770336 -0.024922563
-0.027894253 0.047125228 0.0712129 0.0050263004 0.046874322 0.032177754 -0.05068324 -0.04947369
0.01946417 -0.06704721 0.08918706 -0.029266573 0.046081644 0.073206656 0.07358926 0.046307255
0.06886495 -0.025405003 0.03214977 -0.061767187 0.063050985 -0.024420904 0.0159245 0.0024506815
0.086340845 -0.028451174 -0.07062313 0.01998373 0.031989336 -0.044134736 -0.05375063 -0.09166777
0.041791294 0.053498626 -0.039167643 -0.037810452 0.016257921 -0.02375222 -0.007823907 -0.01880863
-0.05066508 -0.021878079 0.020599587 -0.015114926 -0.011070053 -0.019784734 -0.010836244 0.02563761
0.036166206 0.000651389 -0.042896155 0.014711334 0.0074599343 0.079558976 0.0049108425 -0.051972598
0.009082726 -0.07509267 -0.005029888 0.041692704 -0.058127664 0.03412257 -0.05208612 -0.055693693
-0.01629628 -0.03562448 -0.054154858 -0.07211882 -0.04683076 0.02253678 -0.08173871 -0.0111333
0.03432586 -0.0068145283 0.031278007 0.02990584 -0.015298268 -0.1079973 -0.07573002 -0.06951006
0.033937577 -0.08633775 0.023155514 0.0038192437 -0.047518626 -0.113836974 -0.06424794 0.030816497
-0.0037691374 0.046644527 -0.1017889 -0.03830349 0.051951643 -0.07851725 -0.052492183 -0.07518198
0.02455414 -0.06019311 0.069537334 0.03411502 -0.020213364 0.015199925 -0.056828063 -0.011787764
0.04596514 -0.048174743 -0.0069467416 0.055333883 -0.027677758 0.0048878174 -0.09159049 0.0661523
0.026532553 -0.045559272 -0.113009326 0.03669814 -0.077533856 0.019725733 0.02585118 -0.053138886
0.02621329 -0.015272837 -0.06404489 -0.09962686 0.06355853 -0.021218218 -0.11057214 0.02352997
0.080579914 -0.10676056 0.058885902 -0.028347455 0.0014178662 0.03717393 -0.085730664 -0.058289062
-0.015052676 -0.0046359077 -0.088274516 -0.097003624 0.040319618 -0.036893025 -0.056760497 -0.0044667386
-0.09673824 -0.08924623 -0.096649155 0.02059053 -0.022406667 0.08355417 -0.088269114 -0.039911926
-0.026821192 -0.023452083 -0.071506225 0.045457274 0.05807699 0.057688035 -0.052934617 0.07096133
0.0034508943 -0.11617332 0.016792035 -0.035975266 -0.0110408915 -0.029196352 -0.08641005 -0.03710957
-0.12637344 -0.012380977 0.010924363 0.04911339 0.019030036 -0.0784932 0.03985092 0.009142042
-0.08920518 -0.04559211 -0.08506007 -0.041873183 0.05515792 -0.06477967 -0.046241086 -0.09170059
00000000: 5c8b 5839 0e37 cabb 3055 a13d 5632 9dbd
00000010: b0f0 8abd a7fa e93c ec58 8f3d 6a01 f13c
00000020: 17c8 cabc a0bd 4abd b2fe 6abd ace3 2c3d
00000030: 8853 353c 8cce cabc bbe8 a93c 25ec 68bd
00000040: 342d 813d 7b2f 61bd 2fd1 783d 437c 963d
00000050: aa20 ff3c 5146 e5bc 928f b83d 9c5b 2cbc
00000060: 9555 4bbd cb13 223c ec3c 803d 4460 cfbb
00000070: ea20 96bc 9a62 0e3d d058 713d f469 18bb
00000080: 02c3 803d 3d51 a93d e7a6 56bd d79a fe3c
00000090: 3be8 e13d d567 c23c 5f75 9dbd 87d9 bfbd
000000a0: df7c 88bd 544e 4b3d c935 593d abb1 a0bc
000000b0: beb9 43bd 8735 da3b 81eb 92bd fa3d d0bb
000000c0: b1c5 65bd 681b ac3d 3cc1 53bc ea03 c4bc
000000d0: 353e 013d 694f 90bc dc3f 9dbc ee8e cebd
000000e0: 590f 493d b310 a03c 92ad 9dbc 48b6 59bc
000000f0: 3f6d 923c 6e27 f83c 8e16 be3d 5b0f a73d
00000100: a592 d2bc 0c5c 6bbd c772 61bd 9b34 883d
00000110: ebdf 963d b9a5 bebc 4d9e febb 672a ccbc
00000120: 7d82 e4bc 6206 413d 12d8 913d aab3 a43b
00000130: 4aff 3f3d d2cc 033d 3b99 4fbd eda4 4abd
00000140: 5373 9f3c 0c50 89bd b5a7 b63d 74c0 efbc
00000150: 1bc0 3c3d 5fed 953d f7b5 963d adac 3d3d
00000160: 1109 8d3d 271e d0bc 7aaf 033d 97ff 7cbd
00000170: e020 813d 590e c8bc 1974 823c 9d9b 203b
00000180: 78d3 b03d 7012 e9bc dca2 90bd ebb4 a33c
00000190: 4007 033d a0c6 34bd 9f29 5cbd 50bc bbbd
000001a0: 592d 2b3d 6021 5b3d 406e 20bd 22df 1abd
000001b0: 552f 853c 0494 c2bc d82f 00bc 8e14 9abc
000001c0: 3086 4fbd a839 b3bc 77c0 a83c 98a4 77bc
000001d0: 2b5f 35bc 9813 a2bc 808a 31bc f705 d23c
000001e0: 0423 143d fac1 2a3a e1b3 2fbd cf07 713c
000001f0: 7772 f43b d1ef a23d 22eb a03b 38e1 54bd
00000200: b7cf 143c 30ca 99bd c2d1 a4bb f8c5 2a3d
00000210: 4617 6ebd 1cc4 0b3d 4158 55bd 121f 64bd
00000220: c77f 85bc faea 11bd 7cd1 5dbd 08b3 93bd
00000230: 9cd1 3fbd 0e9f b83c a066 a7bd 7268 36bc
00000240: 4699 0c3d 684c dfbb 5e1d 003d 18fd f43c
00000250: 96a5 7abc b02d ddbd 5718 9bbd 4a5b 8ebd
00000260: 2102 0b3d d9d1 b0bd a2b0 bd3c 474c 7a3b
00000270: e4a2 42bd 5c23 e9bd 6d94 83bd e172 fc3c
00000280: a203 77bb 550e 3f3d b376 d0bd 1fe4 1cbd
00000290: 3fcb 543d a7cd a0bd 0b02 57bd 03f9 99bd
000002a0: c425 c93c 0d8d 76bd 9769 8e3d 31bc 0b3d
000002b0: 7f96 a5bc 1b09 793c 8bc4 68bd 7721 41bc
000002c0: f145 3c3d e152 45bd 7ea1 e3bb c8a5 623d
000002d0: 77bc e2bc fc29 a03b cb93 bbbd db7a 873d
000002e0: cc5a d93c 5c9c 3abd 6f71 e7bd ca50 163d
000002f0: 12ca 9ebd dc97 a13c dbc5 d33c 29a8 59bd
00000300: 41bd d63c ec3a 7abc f829 83bd 2b09 ccbd
00000310: f92a 823d d4d1 adbc a573 e2bd ecc1 c03c
00000320: 1507 a53d 48a5 dabd 5832 713d ec38 e8bc
00000330: b2d7 b93a b143 183d 8f93 afbd 83c0 6ebd
00000340: 809f 76bc d0e8 97bb 45c9 b4bd d6a9 c6bd
00000350: 2f26 253d 241d 17bd b27d 68bd b85d 92bb
00000360: b31e c6bd bac6 b6bd feef c5bd 79ad a83c
00000370: 308e b7bc 731e ab3d 70c6 b4bd b07a 23bd
00000380: 1eb8 dbbc 951e c0bc db71 92bd 6831 3a3d
00000390: 23e2 6d3d 4a4a 6c3d f8d1 58bd 2c54 913d
000003a0: 6628 623b 47ec edbd 738f 893c cd5a 13bd
000003b0: dbe4 34bc 302d efbc c1f7 b0bd 3400 18bd
000003c0: 0a68 01be 95d9 4abc 19fc 323c 1f2b 493d
000003d0: e1e4 9b3c 0bc1 a0bd b83a 233d 81c8 153c
000003e0: 35b1 b6bd cbbe 3abd f933 aebd 3783 2bbd
000003f0: 45ed 613d 34ab 84bd 4b67 3dbd 85cd bbbd

weight f4 [32, 128]
-0.021672959 0.093905434 0.057228122 -0.061196677 -0.06024179 -0.020188797 0.026085988 -0.04409217
0.07839578 -0.096122 0.049057264 -0.03652709 -0.012084096 0.1005044 -0.014877847 -0.045951888
0.07209622 -0.071836755 -0.043917853 -0.041113183 -0.015210057 0.06792796 -0.10415067 0.03386174
0.06961659 0.093477435 -0.006379844 -0.06427182 0.048656154 0.023829503 -0.031760424 0.054384243
-0.03739432 -0.027985979 0.08812269 -0.03112257 -0.1318069 -0.015250725 0.055954553 -0.074482374
-0.041479476 -0.050761905 -0.06394486 -0.05739437 0.037237998 0.009087772 -0.03359551 0.015363828
0.060292408 0.052546926 -0.027637111 0.11016584 -0.0494754 -0.10389031 -0.111587666 -0.06326964
0.037160896 0.12992075 0.021469355 -0.10918228 -0.07215969 0.050212476 -0.021194832 0.077954374
-0.091710165 0.03334111 -0.09072682 -0.01868157 -0.06862691 -0.026036114 -0.10458271 0.041584145
-0.012050787 -0.011129622 0.02898321 0.06665904 0.0037971782 0.051012177 -0.08079149 0.028195241
0.016824981 -0.0412765 0.054834258 0.051023237 0.07339075 0.031731572 -0.03659194 -0.06354608
0.119930595 -0.09887462 0.057097957 -0.0186128 -0.10000094 0.012326463 0.036463812 0.05315776
-0.107232444 -0.024501147 -0.112385854 -0.019635137 -0.050456997 -0.02229779 -0.04620328 -0.008040097
0.066736124 0.06140059 -0.062745154 0.08860867 -0.08329043 0.06374549 0.101977944 -0.018376075
0.10742705 0.07213735 -0.06356967 0.027219702 0.063341066 0.046975244 0.03096512 -0.035242446
0.05353951 0.09044905 0.10416376 -0.060753155 -0.013554387 0.042699095 -0.092221916 -0.010042017
-0.033689037 0.036275014 -0.017201068 -0.0012193288 -0.108261526 0.022991143 -0.011829132 -0.044563815
-0.033115394 -0.032584738 -0.08657189 0.026130192 0.049766533 -0.016888995 -0.04195687 -0.01798308
0.02961474 -0.04266342 -0.032685705 -0.08529417 -0.046305697 0.0035638218 0.04915518 0.066156276
-0.06627415 0.05802859 0.0064550107 -0.015492404 0.009502067 0.05153436 0.07767982 0.061328165
-0.033015233 0.018300926 -0.0059794076 0.031631075 -0.05418929 0.027819172 0.01158794 -0.060392678
-0.019412493 -0.08975013 0.044070385 0.09476581 0.10093911 -0.017970737 0.0618467 0.049305085
-0.08397669 -0.050740276 0.041919827 0.09337365 -0.0030737147 0.021456387 -0.03660713 -0.05178789
0.06553895 0.0024556853 0.038803894 -0.06812031 -0.04065676 -0.08330652 -0.040415667 -0.051793046
-0.07784933 -0.042179827 -0.07084303 0.030316003 -0.08686016 0.0071737063 0.043509796 -0.060321808
0.026354695 0.020823358 -0.029161066 -0.027515372 0.07226677 -0.10110232 -0.012875406 0.04472355
0.0059230807 -0.02553131 0.023973376 -0.030031767 0.05401988 0.05180869 0.03632699 0.051519442
-0.015401214 0.060738146 0.030972226 0.091754705 0.005651008 0.008044749 -0.056153145 0.040910903
0.030234953 0.052436803 -0.008294346 0.05249846 -0.07622284 0.043144546 -0.07930718 0.08807173
0.00847894 0.0782414 0.04549655 -0.024423476 -0.047892977 0.094486915 0.026421458 -0.03257807
0.006851269 0.010859963 0.05764172 0.00023617236 0.0105483625 0.03234561 0.048409518 0.07576032
0.029834213 0.049969867 -0.049024273 0.04573647 -0.07261207 0.017648865 0.021395387 0.003931435
00000000: 7d8b b1bc 7e51 c03d 0968 6a3d 5ea9 7abd
00000010: 18c0 76bd fa62 a5bc 48b2 d53c fe99 34bd
00000020: f78d a03d 9cdb c4bd 45f0 483d 6e9d 15bd
00000030: 5ffc 45bc 40d5 cd3d 37c2 73bc 0c38 3cbd
00000040: 2fa7 933d 261f 93bd 35e3 33bd 4c66 28bd
00000050: 9a33 79bc d01d 8b3d f24c d5bd 9cb2 0a3d
00000060: 2593 8e3d 1971 bf3d 030e d1bb f2a0 83bd
00000070: ad4b 473d 1736 c33c 3817 02bd 03c2 5e3d
00000080: c92a 19bd da42 e5bc ab79 b43d c3f4 febc
00000090: 63f8 06be 2dde 79bc 9a30 653d 378a 98bd
000000a0: 62e6 29bd b7eb 4fbd 86f5 82bd 5c16 6bbd
000000b0: df86 183d e1e4 143c 729b 09bd 91b8 7b3c
000000c0: 2cf5 763d 723b 573d 3967 e2bc a19e e13d
000000d0: b8a6 4abd 71c4 d4bd 1388 e4bd 8393 81bd
000000e0: 0636 183d f209 053e 80e0 af3c f69a dfbd
000000f0: 76c8 93bd 99ab 4d3d c9a0 adbc 8ba6 9f3d
00000100: 8ad2 bbbd b090 083d fcce b9bd 180a 99bc
00000110: 448c 8cbd b049 d5bc 762f d6bd 2354 2a3d
00000120: aa70 45bc 0559 36bc 326e ed3c 8984 883d
00000130: 14da 783b 25f2 503d 0276 a5bd b5f9 e63c
00000140: 8bd4 893c 8c11 29bd e399 603d befd 503d
00000150: e44d 963d f7f8 013d 6ee1 15bd 7224 82bd
00000160: 2c9e f53d c77e cabd 8cdf 693d df79 98bc
00000170: 4bcd ccbd eff4 493c 145b 153d f4bb 593d
00000180: af9c dbbd a1b6 c8bc 8e2a e6bd ded9 a0bc
00000190: ffab 4ebd dba9 b6bc a73f 3dbd 9cba 03bc
000001a0: f3ac 883d 2f7f 7b3d 8880 80bd 7678 b53d
000001b0: 2c94 aabd ff8c 823d d0d9 d03d 6c89 96bc
000001c0: b702 dc3d bfbc 933d d130 82bd dafb de3c
000001d0: f6b8 813d 1d69 403d 90aa fd3c 625a 10bd
000001e0: 3f4c 5b3d 5a3d b93d cf53 d53d 4dd8 78bd
000001f0: 3813 5ebc 3fe5 2e3d d8de bcbd 4687 24bc
00000200: 84fd 09bd 1c95 143d 41e9 8cbc e3d1 9fba
00000210: 38b8 ddbd ec57 bc3c face 41bc 8c88 36bd
00000220: 02a4 07bd 9377 05bd 9a4c b1bd fc0e d63c
00000230: fed7 4b3d ca5a 8abc f8da 2bbd 4151 93bc
00000240: 9c9a f23c d7bf 2ebd 72e1 05bd b6ae aebd
00000250: 0bab 3dbd 028f 693b f156 493d f17c 873d
00000260: beba 87bd 63af 6d3d 8e84 d33b dad3 7dbc
00000270: 8fae 1b3c b115 533d 9916 9f3d 3e33 7b3d
00000280: fb3a 07bd d3eb 953c e8ee c3bb 968f 013d
00000290: 97f5 5dbd 08e5 e33c 58db 3d3c 505e 77bd
000002a0: f306 9fbc ebce b7bd 2683 343d 9414 c23d
000002b0: 2ab9 ce3d 5e37 93bc f752 7d3d 21f4 493d
000002c0: f9fb abbd 09d5 4fbd 20b4 2b3d af3a bf3d
000002d0: 6070 49bb 4ec5 af3c 5cf1 15bd 8a1f 54bd
000002e0: 4939 863d 90ef 203b d5f0 1e3d a982 8bbd
000002f0: b487 26bd 9c9c aabd e68a 25bd f224 54bd
00000300: 786f 9fbd c1c4 2cbd 2716 91bd 4459 f83c
00000310: bde3 b1bd 6911 eb3b 5437 323d 0014 77bd
00000320: cde5 d73c bf95 aa3c 30e3 eebc eb67 e1bc
00000330: 9a00 943d bc0e cfbd 5ef3 52bc 0b30 373d
00000340: 6716 c23b 0a27 d1bc d063 c43c 2e05 f6bc
00000350: f343 5d3d 5935 543d 9ccb 143d 0d06 533d
00000360: 6055 7cbc 90c8 783d 77b9 fd3c e4e9 bb3d
00000370: 172c b93b 1fce 033c d700 66bd 3192 273d
00000380: 4baf f73c f9c7 563d 02e5 07bc a008 573d
00000390: b81a 9cbd 56b8 303d ce6b a2bd f45e b43d
000003a0: 41eb 0a3c 073d a03d 975a 3a3d be13 c8bc
000003b0: 6d2b 44bd 5b82 c13d d071 d83c 9570 05bd
000003c0: 9c80 e03b fced 313c b919 6c3d 09a5 7739
000003d0: 0ad3 2c3c d57c 043d 0f49 463d 3a28 9b3d
000003e0: e166 f43c 34ad 4c3d adcd 48bd 2a56 3b3d
000003f0: a3b5 94bd 5a94 903c 6145 af3c 44d3 803b

bias f4 [32]
0.07833333 -0.016036095 0.016011609 0.032166846 0.020965863 0.04270935 -0.08116935 0.014347986
0.030888868 0.015509846 0.005277072 -0.004566726 -0.022091163 -0.04270316 0.098235 -0.00047945924
-0.23642325 0.034845755 -0.0030771906 0.02701904 0.052337144 0.092029236 0.029917171 0.0013595378
0.029459296 0.006492043 -0.043988235 0.017100528 0.0059572016 0.07654947 0.01612104 -0.059736345
00000000: 3a6d a03d 215e 83bc c72a 833c 62c1 033d
00000010: 9ac0 ab3c 00f0 2e3d 1e3c a6bd d113 6b3c
00000020: a70a fd3c 021d 7e3c 4aeb ac3b 79a4 95bb
00000030: 87f8 b4bc 82e9 2ebd 6f2f c93d ee5f fbb9
00000040: f018 72be 6cba 0e3d b1aa 49bb 0957 dd3c
00000050: 795f 563d d379 bc3d db14 f53c 8532 b23a
00000060: 9f54 f13c 34bb d43b 022d 34bd 6816 8c3c
00000070: a134 c33b f8c5 9c3d 4510 843c 19ae 74bd

weight f4 [1, 32]
-0.014974954 -0.04142477 0.012236047 -0.09421339 -0.042149775 0.028695118 -0.024181945 -0.02800308
-0.020093193 0.08714961 -0.04876822 0.085522436 0.06106821 0.0477902 -0.012781435 0.037313197
0.09807725 -0.079916924 -0.019771839 0.08084096 -0.0386183 0.010723543 -0.07869806 -0.08140492
-0.03561567 -0.022131544 -0.021767309 0.023704223 -0.038350392 0.009693178 -0.09293471 0.030877553
00000000: 8259 75bc 05ad 29bd b379 483c f3f2 c0bd
00000010: 3ea5 2cbd 0612 eb3c 3719 c6bc b766 e5bc
00000020: 7b9a a4bc 7f7b b23d 2fc1 47bd 6326 af3d
00000030: a922 7a3d a8bf 433d 3969 51bc b9d5 183d
00000040: badc c83d 7cab a3bd 8df8 a1bc f28f a53d
00000050: 392e 1ebd cdb1 2f3c 732c a1bd 9fb7 a6bd
00000060: bde1 11bd 364d b5bc 5b51 b2bc 5c2f c23c
00000070: 4d15 1dbd 23d0 1e3c 8e54 bebd ecf2 fc3c
