data/Clair/clair_lstm.pt (torch, 338417 bytes, 7 tensors)

weight_ih_l0 f4 [512, 24]
0.03558324 -0.005167371 -0.046566863 -0.049959604 0.021407977 -0.07033559 -0.027252117 0.068903565
0.051334355 -4.9610717e-06 -0.046419907 0.02913732 0.06591916 0.014442062 0.04645393 -0.059274267
-0.05798545 -0.010931251 0.06232864 -0.03620812 0.047522653 0.049678825 0.00014758045 -0.074043795
-0.05810171 -0.048314113 -0.057327095 -0.05720651 -0.01326841 -0.055192363 0.09649116 0.012555129
-0.05360839 0.08652873 0.07011859 -0.05300431 0.0692152 -0.043752022 -0.044309754 -0.0020256874
0.019345775 -0.07014497 0.02234782 0.0072610867 -0.049007874 -0.016526733 0.036987513 -0.022464273
0.052159443 -0.008718926 -0.0132117905 -0.070636176 -0.06269182 -0.040284052 0.017838947 -0.078008115
-0.009317086 0.02017008 -0.04478731 -0.0061702104 0.027491622 0.029228507 0.029156337 0.052688044
0.05939542 0.062474094 -0.0823041 -0.07700195 -0.04273596 0.047319803 0.022059636 -0.022078179
-0.037012894 -0.008193184 -0.02566224 0.045392275 -0.0177908 -0.040591132 0.059596892 -0.007780433
-0.07374958 0.027164767 -0.053146068 -0.016344741 0.06826452 -0.06375202 0.009684495 -0.009727055
-0.03634541 -0.04967514 0.028130148 -0.020365525 0.08486448 0.008738508 0.012981755 0.065417066
-0.03873634 0.057850994 -0.03309144 -0.03323135 -0.06810768 -0.067711845 -0.07832066 0.056184527
0.008161849 0.07759279 -0.022386424 0.053519573 -0.012282176 -0.007976041 -0.023493536 -0.06086244
-0.06260262 -0.041636042 0.020638494 -0.059490554 0.0498999 -0.034566212 -0.013372509 -0.02826483
-0.06887475 0.019615827 0.0541237 -0.024506276 -0.0052186744 -0.04541032 -0.045139737 -0.006558614
-0.053904355 0.06839758 0.005765356 0.03662993 -0.058003288 0.007771128 0.01738685 0.00951739
-0.06957401 0.025163854 0.013012488 0.045454085 0.032537565 -0.03351806 -0.07943394 -0.026917914
0.09271639 -0.06975043 0.013137531 -0.06966773 0.0827147 -0.023933733 0.07068035 -0.019299863
-0.056896247 0.0014815305 0.0859439 -0.0539151 0.025551343 -0.039805565 -0.02948784 -0.0022978236
0.097232535 -0.020448118 -0.026659591 -0.011184329 0.031524256 -0.036229555 0.08649704 0.01442944
-0.07100231 0.035497434 -0.04790771 0.033317648 -0.046100575 -0.04466631 0.062065836 0.082054034
0.023204077 0.0009407214 -0.07725521 -0.074326746 0.006608801 0.08340896 -0.075068586 0.020076688
-0.069800004 -0.0057917335 0.0762748 -0.024872433 -0.011080364 -0.04096876 -0.08371146 0.02152083
-0.06794101 -0.060999602 -0.07094174 -0.062768176 -0.033314966 0.033826105 -0.058149602 -0.037496958
-0.039876457 0.00043979206 -0.016337086 -0.06806607 0.016177341 0.022283755 0.021048307 0.0764188
-0.068636075 -0.04692364 0.017557506 0.072789595 0.07680538 0.06907332 -0.01825572 0.002275306
0.042904418 0.03834715 -0.08550559 0.055604935 0.06281506 -0.06152661 0.010139167 -0.037146874
-0.039775897 -0.030997682 0.06545637 0.03219835 0.039712828 -0.07309024 0.054514855 -0.039609987
-0.05905012 -0.0848152 -1.3011283e-05 -0.07356864 -0.05491042 -0.03807641 0.028187422 -0.022890126
-0.08715113 -0.045507472 0.062267922 -0.0084944265 -0.052702453 -0.035729002 -0.03466405 -0.036882915
-0.07268593 0.012838518 -0.030626105 0.06904458 -0.082911186 -0.08465381 0.0706603 0.018746322
00000000: bbbf 113d 0d53 a9bb e5bc 3ebd 71a2 4cbd
00000010: c85f af3c 1b0c 90bd d53f dfbc 501d 8d3d
00000020: f943 523d 4877 a6b6 cd22 3ebd 64b1 ee3c
00000030: a000 873d 669e 6c3c 7a46 3e3d 93c9 72bd
00000040: 2782 6dbd fd18 33bc 514c 7f3d f74e 14bd
00000050: 1da7 423d 067c 4b3d d3bf 1a39 46a4 97bd
00000060: 0ffc 6dbd 05e5 45bd d1cf 6abd 6051 6abd
00000070: bf63 59bc 6311 62bd 289d c53d 07b4 4d3c
00000080: 7994 5bbd fa35 b13d 569a 8f3d 0c1b 59bd
00000090: b3c0 8d3d 5235 33bd 257e 35bd 65c1 04bb
000000a0: 087b 9e3c 2ba8 8fbd c712 b73c 69ee ed3b
000000b0: 7bbc 48bd 1263 87bc 3880 173d ff06 b8bc
000000c0: 24a5 553d d4d9 0ebc 4476 58bc b3a9 90bd
000000d0: 9264 80bd e400 25bd fc22 923c b8c2 9fbd
000000e0: b1a6 18bc b93b a53c e672 37bd 7a2f cabb
000000f0: 1c36 e13c 9f70 ef3c 45d9 ee3c 6bcf 573d
00000100: 9d48 733d d6e4 7f3d 0d8f a8bd 33b3 9dbd
00000110: e70b 2fbd 69d2 413d 69b6 b43c 4cdd b4bc
00000120: d59a 17bd b43c 06bc 9e39 d2bc 40ed 393d
00000130: 03be 91bc e342 26bd df1b 743d 01f3 febb
00000140: 050a 97bd a588 de3c b1af 59bd 68e5 85bc
00000150: 45ce 8b3d 6b90 82bd b7ab 1e3c 3a5e 1fbc
00000160: edde 14bd 2978 4bbd 3271 e63c 9ad5 a6bc
00000170: 6ecd ad3d f62b 0f3c 6db1 543c 62f9 853d
00000180: ffa9 1ebd 2af5 6c3d e48a 07bd 991d 08bd
00000190: 0a7c 8bbd 82ac 8abd 9566 a0bd bf21 663d
000001a0: 47b9 053c f8e8 9e3d bc63 b7bc 5737 5b3d
000001b0: 2e3b 49bc f1ad 02bc 8475 c0bc e54a 79bd
000001c0: cd35 80bd 8e8a 2abd 0f12 a93c 5eac 73bd
000001d0: d663 4c3d 4d95 0dbd 5e18 5bbc a58b e7bc
000001e0: 340e 8dbd 5fb1 a03c d0b0 5d3d 63c1 c8bc
000001f0: 6a01 abbb 2c00 3abd 72e4 38bd a4e9 d6bb
00000200: d0ca 5cbd 0814 8c3d 50eb bc3b 4409 163d
00000210: db94 6dbd f2a4 fe3b de6e 8e3c d4ee 1b3c
00000220: d27c 8ebd 6d24 ce3c 5532 553c 102e 3a3d
00000230: 1c46 053d 3c4a 09bd 43ae a2bd f582 dcbc
00000240: 17e2 bd3d 50d9 8ebd cc3e 573c f4ad 8ebd
00000250: 5366 a93d ad10 c4bc dcc0 903d bf1a 9ebc
00000260: 0a0c 69bd ea2f c23a 5b03 b03d 14d6 5cbd
00000270: 0d51 d13c 290b 23bd 7c90 f1bc 1597 16bb
00000280: da21 c73d d082 a7bc 3765 dabc 7a3e 37bc
00000290: 941f 013d 7165 14bd 5c25 b13d 7569 6c3c
000002a0: a969 91bd c265 113d e03a 44bd 1678 083d
000002b0: f5d3 3cbd 05f4 36bd bf38 7e3d f20b a83d
000002c0: 7a16 be3c bf9a 763a fb37 9ebd 9f38 98bd
000002d0: a48e d83b 51d2 aa3d 8fbd 99bd de77 a43c
000002e0: 4ef3 8ebd 95c8 bdbb f635 9c3d 46c1 cbbc
000002f0: 6a8a 35bc dcce 27bd ea70 abbd 744c b03c
00000300: a824 8bbd b8da 79bd e749 91bd 9a8c 80bd
00000310: 4675 08bd 3e8d 0a3d 472e 6ebd 6996 19bd
00000320: 7f55 23bd e493 e639 5ad5 85bc 3966 8bbd
00000330: 5886 843c 6c8c b63c 806d ac3c 7681 9c3d
00000340: 1291 8cbd 0133 40bd c2d4 8f3c b612 953d
00000350: 244c 9d3d 5076 8d3d 058d 95bc 4d1d 153b
00000360: 8bbc 2f3d e711 1d3d 8e1d afbd 00c2 633d
00000370: 2fa5 803d 5403 7cbd c01e 263c 5227 18bd
00000380: 0dec 22bd daee fdbc fd0d 863d 6be2 033d
00000390: eba9 223d 56b0 95bd f84a 5f3d 153e 22bd
000003a0: 8ade 71bd 97b3 adbd 094b 5ab7 28ab 96bd
000003b0: c0e9 60bd 02f6 1bbd 4fe9 e63c 1384 bbbc
000003c0: 4b7c b2bd 0b66 3abd a60c 7f3d 352c 0bbc
000003d0: 87de 57bd 9358 12bd e4fb 0dbd 8a12 17bd
000003e0: 5cdc 94bd a658 523c 99e3 fabc 3f67 8d3d
000003f0: 57cd a9bd fa5e adbd 59b6 903d e391 993c

weight_hh_l0 f4 [512, 128]
0.0059203524 0.09458903 -0.044394586 -0.06640969 -0.0048007956 0.02966244 -0.080712646 0.029837824
0.007038841 -0.014785048 -0.008211551 -0.06029183 0.027585236 0.066324055 -0.069548324 0.011167248
-0.055341274 -0.06601338 -0.069577895 0.046026353 0.086185515 0.031072285 -0.060567297 0.052588042
-0.010245121 -0.047093637 -0.053889297 0.022450576 -0.041626167 0.045549475 0.064601146 0.034520745
0.033474207 -0.009273652 0.023481755 0.024240898 0.04122784 -0.070982255 0.08151868 0.03585997
0.024441242 0.04483056 0.037335478 -0.08973086 -0.031004515 -0.09619616 -0.046738308 -0.06526171
-0.046870187 -0.03737955 0.010388095 0.051807895 -0.09752026 0.029381908 0.068911865 0.07509626
-0.05585109 0.03250044 -0.10477666 -0.035045635 0.056919884 0.05527793 0.03840432 0.03212218
0.059993293 0.05948997 0.02317546 -0.0067264372 0.039535254 0.047052685 -0.044663433 -0.010824904
0.07410947 -0.08288449 0.06299507 -0.017397773 -0.0059592486 0.050924357 0.028679082 0.03678625
-0.07699363 -0.049787756 0.05773297 0.032301947 -0.07839827 0.070337616 -0.06170108 -0.013553674
0.008202262 -0.026815841 -0.06335694 -0.030255957 -0.07890669 -0.103417955 -0.06819369 0.054758616
-0.019283846 0.08743303 0.039077282 0.061638106 -0.02416926 0.0067824833 -0.03819338 0.05467783
-0.078639254 0.09248498 -0.015742298 -0.008144695 0.014180632 -0.06951551 -0.0021157095 0.1057153
-0.023226216 -0.010968991 0.06784474 -0.08318854 0.0859659 0.06209751 0.042217135 -0.018164657
-0.028783366 0.050351962 0.014522047 0.0075247968 0.036295857 0.0779009 0.0113746375 -0.061954495
0.06869574 0.021317359 -0.056267753 -0.07295501 0.05298389 -0.0131687205 0.04005867 -0.019936705
0.053321082 -0.01021969 -0.04593771 -0.021886334 -0.05976904 -0.063819684 -0.05448085 -0.011353431
0.07875538 0.008919321 0.066802114 0.04388188 0.04566496 -0.08101737 -0.0042613717 0.059606623
0.06026975 0.08460143 0.04116649 -0.02786679 0.033598874 0.084861785 0.05895978 -0.047074854
0.102157615 -0.07559811 0.051572166 -0.050058663 -0.014584446 0.056559935 -0.05550381 -0.03138778
0.087149784 0.04886368 0.06216191 0.083946384 -0.1005654 -0.07288138 0.036619753 0.032049667
-0.0021658805 -0.036266014 -0.02826718 -0.06312549 0.061454568 0.008010441 0.070495896 -0.052045066
-0.06789146 0.0786588 0.08610824 0.04146373 -0.058079306 0.012078894 -0.04535466 -0.024931883
-0.025124516 -0.07650656 -0.026918832 -0.08313642 0.0142111 -0.018742172 0.029435594 0.023741726
0.036740698 0.09175256 0.08942611 -0.0674847 -0.028103286 0.09913989 -0.016349334 0.06817853
0.090129696 0.075619064 -0.0015476212 0.043696824 0.015678063 -0.06730286 -0.025761288 0.026025297
-0.03270356 0.02838883 -0.025643254 -0.06683229 0.012018931 -0.063304305 -0.010290169 0.03521974
-0.028854245 -0.08497247 0.03707177 0.012278959 0.019658722 -0.020413805 0.061309095 -0.014310775
-0.049253542 -0.085387945 0.033529148 -0.05798737 0.06912451 0.04920804 -0.03554676 -0.053690936
0.030660821 -0.03710084 0.018534193 0.087629035 -0.035455663 -0.09480832 -0.013667964 -0.0012893793
-0.009222987 -0.03768751 -0.08840185 -0.071734115 -0.02582395 0.07608248 -0.021272268 -0.09223089
00000000: 84ff c13b e5b7 c13d 19d7 35bd ce01 88bd
00000010: fe4f 9dbb a5fe f23c ac4c a5bd 746e f43c
00000020: 14a6 e63b fc3c 72bc be89 06bc 91f4 76bd
00000030: 6ffa e13c e8d4 873d 5a6f 8ebd d5f6 363c
00000040: 88ad 62bd 0632 87bd db7e 8ebd 2186 3c3d
00000050: 0882 b03d 4e8b fe3c 6a15 78bd 8f66 573d
00000060: 27db 27bc 42e5 40bd 06bb 5cbd 45ea b73c
00000070: 3380 2abd 1692 3a3d 9b4d 843d a065 0d3d
00000080: 401c 093d 84f0 17bc cf5c c03c d994 c63c
00000090: 86de 283d 255f 91bd 44f3 a63d e7e1 123d
000000a0: 0039 c83c 40a0 373d 16ed 183d d0c4 b7bd
000000b0: 2efd fdbc 7e02 c5bd ab70 3fbd eea7 85bd
000000c0: f4fa 3fbd 4d1b 19bd d432 2a3c 8434 543d
000000d0: b4b8 c7bd 54b2 f03c aa21 8d3d 11cc 993d
000000e0: 1dc4 64bd 2e1f 053d 2595 d6bd 038c 0fbd
000000f0: d324 693d 1c6b 623d d94d 1d3d 8c92 033d
00000100: 87bb 753d c1ab 733d 76da bd3c 7269 dcbb
00000110: b8ef 213d 51ba 403d 01f1 36bd f05a 31bc
00000120: b5c6 973d 58bf a9bd 8f03 813d c685 8ebc
00000130: cd45 c3bb 0f96 503d 65f0 ea3c 2ead 163d
00000140: d6ae 9dbd 3fee 4bbd 6879 6c3d 0c4f 043d
00000150: 468f a0bd 2b0d 903d 46ba 7cbd 3b10 5ebc
00000160: c862 063c e5ac dbbc 49c1 81bd 57db f7bc
00000170: d599 a1bd cbcc d3bd 22a9 8bbd 924a 603d
00000180: 28f9 9dbc 1710 b33d 800f 203d 3d78 7c3d
00000190: 9dfe c5bc 983f de3b a970 1cbd dcf5 5f3d
000001a0: 9e0d a1bd c468 bd3d fef5 80bc 5471 05bc
000001b0: e255 683c 265e 8ebd b7a7 0abb 4381 d83d
000001c0: e844 bebc 48b7 33bc 2ff2 8a3d c15e aabd
000001d0: e40e b03d f559 7e3d e0eb 2c3d 0cce 94bc
000001e0: 18cb ebbc dc3d 4e3d e1ed 6d3c 9292 f63b
000001f0: f7aa 143d 828a 9f3d b05c 3a3c ffc3 7dbd
00000200: 5ab0 8c3d bea1 ae3c 0479 66bd 7069 95bd
00000210: a305 593d 9ec1 57bc 8f14 243d 4d52 a3bc
00000220: 3567 5a3d 7d70 27bc 2e29 3cbd f84a b3bc
00000230: 62d0 74bd e5b3 82bd 5027 5fbd be03 3abc
00000240: 804a a13d 5822 123c 8ccf 883d 7cbd 333d
00000250: 2e0b 3b3d 6fec a5bd faa2 8bbb 1326 743d
00000260: 6add 763d 8443 ad3d 329e 283d e548 e4bc
00000270: f99e 093d 04cc ad3d cf7f 713d 90d1 40bd
00000280: 0338 d13d 2fd3 9abd 563d 533d 500a 4dbd
00000290: 9af3 6ebc 64ab 673d f757 63bd 7990 00bd
000002a0: 967b b23d 4825 483d 7d9d 7e3d 15ec ab3d
000002b0: 3cf5 cdbd d542 95bd 98fe 153d 8346 033d
000002c0: 72f1 0dbb ac8b 14bd 9390 e7bc f047 81bd
000002d0: c9b7 7b3d 3a3e 033c 2760 903d 352d 55bd
000002e0: ae0a 8bbd dd17 a13d 8459 b03d dfd5 293d
000002f0: 91e4 6dbd 8ee6 453c cfc5 39bd f33d ccbc
00000300: eed1 cdbc 79af 9cbd e284 dcbc 6d43 aabd
00000310: acd5 683c 2f89 99bc ea22 f13c 027e c23c
00000320: 6a7d 163d c4e8 bb3d 0925 b73d 6b35 8abd
00000330: dd38 e6bc db09 cb3d 0aef 85bc 2fa1 8b3d
00000340: eb95 b83d 2bde 9a3d 8dd9 caba 71fb 323d
00000350: 486f 803c 15d6 89bd 5609 d3bc 0133 d53c
00000360: 2bf4 05bd b18f e83c cd11 d2bc 5edf 88bd
00000370: 0deb 443c b0a5 81bd 1998 28bc 9342 103d
00000380: bd5f ecbc 0c06 aebd 91d8 173d b02d 493c
00000390: 540b a13c da3a a7bc 3f1f 7b3d be77 6abc
000003a0: 15be 49bd e0df aebd dc55 093d 2a84 6dbd
000003b0: 2791 8d3d 5f8e 493d 7b99 11bd 07eb 5bbd
000003c0: 672c fb3c 0df7 17bd 05d5 973c da76 b33d
000003d0: f539 11bd dd2a c2bd 99ef 5fbc 6400 a9ba
000003e0: 031c 17bc 385e 1abd 070c b5bd 56e9 92bd
000003f0: c08c d3bc 22d1 9b3d 2e43 aebc 8de3 bcbd

bias_ih_l0 f4 [512]
0.07893072 -0.009723065 -0.08099534 -0.05097163 0.007839416 0.023609132 0.006690024 0.08135368
-0.0010800317 -0.008001659 0.015865544 0.11954759 -0.039623484 0.057181336 -0.04883004 0.068829335
0.046709005 0.07472907 -0.017260505 0.002739363 0.027510017 0.08012007 -0.0031989561 0.0280557
0.0023373943 -0.04698342 0.040938564 -0.06756454 0.024783568 -0.0880387 0.03342272 0.018744376
0.057557646 -0.079947114 0.055400237 -0.036439355 -0.051416148 0.06760305 -0.055983346 0.025015384
0.07555303 -0.0077138534 -0.009140607 -0.06683826 -0.009217316 -0.06369165 -0.03910352 0.067293055
-0.048411336 0.033923093 0.109006576 -0.03030388 0.054169275 -0.05062714 0.0035315196 -0.038806222
-0.035678994 0.03517047 -0.03267429 -0.027798599 0.07032581 0.08099118 0.033265755 0.08367753
0.0021999925 0.012792148 0.019878482 -0.031129487 -0.017018812 0.0054786447 0.040490136 -0.033396605
-0.02142361 -0.06526895 0.04647117 -0.041447356 0.011331819 0.073098354 -0.058870256 -0.038386792
0.013991605 0.09475967 0.039276045 0.11202034 -0.064160556 0.06624041 0.05881063 0.056932624
-0.000620496 0.028857026 -0.06600599 -0.000114793955 0.082441874 0.0722274 0.08958933 -0.07655233
0.00023541364 0.08954177 -0.041959327 -0.005815086 0.050865892 -0.05822568 -0.023394462 0.060665984
-0.066629805 0.061317343 0.06762893 -0.009309234 0.0195223 -0.047632407 -0.06149031 0.018705575
0.09091693 0.11046428 -0.04889406 -0.022451686 -0.061996438 -0.07609068 0.101153 0.016318008
-0.07146432 -0.032048386 -0.05532259 -0.03766864 -0.006395197 -0.029170884 -0.05594362 -0.0031321864
-0.057970732 -0.07294279 0.02422159 -0.0045258948 0.027493937 0.0035211951 0.028038247 0.01686665
-0.01868566 -0.053612377 0.029843144 -0.088742964 -0.071500674 0.0372517 -0.09563262 -0.024377653
0.031368844 -0.0051101213 -0.040330123 -0.0671539 0.0591628 -0.061452672 -0.083873436 0.0031280823
0.07341791 0.05621451 0.05157964 -0.009010367 0.08734609 -0.014690913 0.015719665 0.054513343
0.003087523 -0.0735831 0.06338091 0.06106739 -0.058277708 0.023132889 0.014301513 -0.02346806
-0.00058751117 -0.061144337 -0.047187895 0.014424865 -0.08315439 0.03641415 0.07212527 -0.0068769176
0.014716675 -0.06984869 -0.08329128 -0.090581596 -0.08151597 -0.08943128 0.06762499 0.060621504
0.053988628 0.01793242 0.07074703 0.032385413 -0.033312555 -0.027025836 -0.007053598 -0.012240832
-0.047058817 -0.10385163 -0.048172727 0.038924154 -0.09446842 -0.012253459 -0.07431936 0.013407291
0.035707705 0.05197694 0.004633395 0.014680041 -0.009017978 -0.0962038 0.06761295 -0.0043779495
-0.104351826 0.03062681 -0.055162873 -0.03644514 0.03806801 -0.021004805 0.041570507 -0.032136858
-0.07893772 0.06642214 0.059037026 -0.08584462 -0.001479254 0.022691304 0.07142603 -0.08860667
-0.041098174 -0.03853916 0.022260016 -0.04586143 0.016054874 0.017989645 -0.103432395 -0.016893398
-0.04787368 -0.020880587 -0.10247259 0.050423365 0.038740445 -0.024748378 0.02047036 0.04481109
0.02537618 0.01511382 -0.0012105724 0.02021246 0.006985429 0.07240958 -0.059649877 -0.09530593
0.05020922 -0.09212412 -0.015245557 -0.099895075 0.02490799 0.021973727 -0.013481059 0.04899622
00000000: 6ea6 a13d 7e4d 1fbc e3e0 a5bd a1c7 50bd
00000010: e570 003c f067 c13c fd37 db3b c29c a63d
00000020: da8f 8dba 6419 03bc 75f8 813c 5ed5 f43d
00000030: 3c4c 22bd fa36 6a3d 0202 48bd 65f6 8c3d
00000040: f151 3f3d 8e0b 993d e765 8dbc e286 333b
00000050: b05c e13c fe15 a43d 94a5 51bb 11d5 e53c
00000060: f82e 193b b071 40bd 32af 273d 475f 8abd
00000070: e906 cb3c a24d b4bd 43e6 083d ce8d 993c
00000080: 91c1 6b3d 50bb a3bd 5ceb 623d 6f41 15bd
00000090: bd99 52bd 7873 8a3d cb4e 65bd 10ed cc3c
000000a0: 8cbb 9a3d 7ec4 fcbb 7cc2 15bc 7fe2 88bd
000000b0: 3a04 17bc c570 82bd 032b 20bd f1d0 893d
000000c0: f74a 46bd f1f2 0a3d d73e df3d d83f f8bc
000000d0: 9ae0 5d3d 675e 4fbd 1171 673b 46f3 1ebd
000000e0: 2324 12bd e90e 103d 7ad5 05bd e3b9 e3bc
000000f0: fa06 903d b4de a53d ac41 083d 205f ab3d
00000100: c02d 103b 2896 513c 33d8 a23c 4403 ffbc
00000110: 096b 8bbc 3486 b33b fcd8 253d e1ca 08bd
00000120: 9180 afbc baab 85bd 8e58 3e3d b4c4 29bd
00000130: 18a9 393c 97b4 953d f021 71bd 783b 1dbd
00000140: 0b3d 653c 5c11 c23d ebdf 203d ec6a e53d
00000150: 9c66 83bd 0da9 873d 6ae3 703d 2f32 693d
00000160: c8a8 22ba 9265 ec3c 262e 87bd 89bd f0b8
00000170: 49d7 a83d f6eb 933d 9c7a b73d 78c7 9cbd
00000180: 5ed9 7639 ad61 b73d 8bdd 2bbd 7a8c bebb
00000190: c158 503d 0d7e 6ebd bea5 bfbc e57c 783d
000001a0: 3575 88bd e527 7b3d 0981 8a3d c285 18bc
000001b0: 3bed 9f3c 331a 43bd 43dd 7bbd 6f3c 993c
000001c0: a832 ba3d 193b e23d 2345 48bd 99ec b7bc
000001d0: faef 7dbd 6ed5 9bbd 4e29 cf3d 58ad 853c
000001e0: e35b 92bd 2b45 03bd f199 62bd 6f4a 1abd
000001f0: cd8e d1bb c7f7 eebc 2325 65bd 5e45 4dbb
00000200: b872 6dbd 0863 95bd 5b6c c63c f54d 94bb
00000210: f73a e13c dac3 663b 77b0 e53c ee2b 8a3c
00000220: ab12 99bc a798 5bbd 9c79 f43c dfbe b5bd
00000230: f26e 92bd 3d95 183d 09db c3bd a5b3 c7bc
00000240: 9e7c 003d ce72 a7bb 3331 25bd fc87 89bd
00000250: b154 723d ccb5 7bbd d6c5 abbd 8300 4d3b
00000260: 215c 963d 3041 663d 2c45 533d 38a0 13bc
00000270: 82e2 b23d 28b2 70bc 87c6 803c 6249 5f3d
00000280: 0a58 4a3b bdb2 96bd dacd 813d cd21 7a3d
00000290: 9bb4 6ebd 2f81 bd3c e550 6a3c 1740 c0bc
000002a0: 3503 1aba 7c72 7abd 1848 41bd 4556 6c3c
000002b0: d94c aabd 0127 153d 6ab6 933d c457 e1bb
000002c0: 351e 713c d40c 8fbd 9e94 aabd d882 b9bd
000002d0: d8f1 a6bd bf27 b7bd f97e 8a3d 414e 783d
000002e0: 2e23 5d3d 03e7 923c d2e3 903d 91a6 043d
000002f0: bf72 08bd 4965 ddbc de21 e7bb c58d 48bc
00000300: bfc0 40bd 2ab0 d4bd c450 45bd ef6e 1f3d
00000310: a978 c1bd bbc2 48bc c034 98bd 41aa 5b3c
00000320: 3e42 123d c6e5 543d bcd3 973b 8e84 703c
00000330: 24c0 13bc 7f06 c5bd a978 8a3d e774 8fbb
00000340: 69b6 d5bd 13e5 fa3c 77f2 61bd 8047 15bd
00000350: 34ed 1b3d 4512 acbc d645 2a3d f0a1 03bd
00000360: 19aa a1bd 5508 883d cfd0 713d 4ecf afbd
00000370: 87e3 c1ba 1de3 b93c cf47 923d 6a77 b5bd
00000380: 8f56 28bd 3ddb 1dbd a35a b63c 32d9 3bbd
00000390: 8385 833c 055f 933c 5dd4 d3bd 0664 8abc
000003a0: 3117 44bd c40d abbc 26dd d1bd bb88 4e3d
000003b0: 4dae 1e3d 1cbd cabc 75b1 a73c d58b 373d
000003c0: b5e1 cf3c f59f 773c 12ac 9eba 9a94 a53c
000003d0: 07e6 e43b 794b 943d 6e53 74bd c12f c3bd
000003e0: 2fa8 4d3d 92ab bcbd 80c8 79bc ca95 ccbd
000003f0: d70b cc3c 3f02 b43c a9df 5cbc 43b0 483d

bias_hh_l0 f4 [512]
0.011745976 -0.017348392 -0.08618637 0.08393336 0.07221587 -0.011758742 0.018585576 0.02844272
-0.061182782 0.049466122 -0.06790044 0.048359342 -0.01915684 0.110529035 0.017307786 -0.0348751
0.09406368 0.030180868 -0.011755303 -0.03375732 0.100343555 -0.07848471 0.0883925 0.05553464
-0.03803518 0.116547145 -0.058479868 -0.076025605 0.034023285 0.07022626 -0.028973017 0.009232718
-0.016531616 -0.007180191 0.06698033 0.033925436 -0.06178285 -0.009823259 -0.04876445 0.07568774
0.09160962 0.049965806 -0.0071994103 0.08597235 0.058698975 -0.053356238 -0.06809965 -0.061668858
0.014249445 0.055789713 0.036395404 0.09273317 0.107622966 -0.05939898 0.051100675 -0.014079506
0.025579762 -0.06702759 0.054213453 0.0744607 -0.03658356 -0.059418414 0.03640126 0.111996934
0.1277546 -0.06829557 -0.027702324 0.055748466 0.014636289 -0.027825087 -0.064533375 0.028530823
-0.0029166888 0.06699154 0.024632681 0.035279952 0.021878196 0.09089757 -0.0018756916 -0.02932677
-0.059237745 -0.01602236 0.043027546 0.09689254 -0.05835404 0.08155648 0.051011737 0.0715143
0.08155963 0.05536182 0.05467559 0.07759469 0.067569934 0.066517875 0.04038629 0.020976664
-0.011011107 0.06629378 0.060078952 0.009583794 -0.0105749 -0.0401226 -0.0016740387 -0.06571391
-0.0016521993 0.077773206 0.08602466 0.00691 0.07178731 -0.07765462 -0.013621043 -0.054619096
0.046072077 0.004148841 -0.0109914625 0.06181134 -0.021649363 -0.03841424 -0.027105168 0.06577148
0.058174886 0.045726717 -0.081904575 -0.032310065 0.010856721 0.057028268 -0.07633449 -0.032659423
0.023312153 0.052643113 -0.02673906 -0.09097192 -0.012165493 -0.061615165 -0.08511282 -0.009747239
-0.049661558 0.06747952 -0.024362594 -0.12620394 0.024416003 0.00089094613 -0.045296803 0.030918507
0.015325304 0.06508125 -0.00027702996 0.0019525185 -0.060798388 -0.09613171 -0.05215995 0.068970904
-0.07077841 0.008710152 0.09152203 0.06665158 0.033290673 -0.08897671 0.055197693 -0.01788473
-0.060638934 -0.0010834958 -0.023188436 0.063396454 0.015707294 0.04779557 -0.06235003 0.036311265
0.048021447 0.020332485 0.022730552 0.033907987 -0.017259778 0.05558817 -0.06362376 -0.020224158
0.0764491 -0.0051117796 -0.023221608 -0.10825546 -0.030047124 0.02632683 -0.04687325 -0.013884476
0.064192675 0.026065536 -0.09400141 0.024230177 -0.041919738 -0.07585381 0.036621444 -0.002528941
-0.028154718 0.018209418 -0.04771902 0.07434113 -0.035900116 -0.09546448 0.017484939 -0.08273115
-0.017380357 0.011003285 -0.031691898 -0.101921596 -0.039640583 -0.0013862343 0.04066382 -0.006431409
-0.006878734 -0.030222204 0.036814485 0.013575491 0.064266995 0.05030592 -0.029715318 0.021146303
-0.06400543 0.009138964 -0.027631 0.019543428 -0.007831754 -0.07626995 0.010331093 0.02432214
0.015166529 -0.03273784 0.018374214 -0.06503734 -0.07487686 -0.041030537 -0.010930744 0.0761197
-0.07636343 0.05056241 0.032575075 0.05234486 0.04958498 -0.066479705 0.033750728 0.06904346
-0.07281641 -0.005983561 -0.08203233 -0.07545485 0.019248756 -0.061497618 -0.09413501 -0.017820409
0.007753947 -0.05599304 0.043715563 0.0033236642 -0.06483973 0.08460961 -0.08921498 -0.0019759384
00000000: 3272 403c 371e 8ebc 7b82 b0bd 41e5 ab3d
00000010: eae5 933d bda7 40bc c740 983c b500 e93c
00000020: cc9a 7abd fd9c 4a3d 630f 8bbd 7214 463d
00000030: ceee 9cbc 0c5d e23d 0fc9 8d3c 31d9 0ebd
00000040: 75a4 c03d de3d f73c 5099 40bc 1e45 0abd
00000050: ec80 cd3d 97bc a0bd 2107 b53d 4a78 633d
00000060: c7ca 1bbd 45b0 ee3d 9688 6fbd 50b3 9bbd
00000070: 005c 0b3d c9d2 8f3d d258 edbc d344 173c
00000080: 506d 87bc cf47 ebbb fc2c 893d 66f5 0a3d
00000090: 0410 7dbd bcf1 20bc 3bbd 47bd 2d02 9b3d
000000a0: d39d bb3d f2a8 4c3d 08e9 ebbb 4512 b03d
000000b0: 566e 703d 128c 5abd d477 8bbd 7c98 7cbd
000000c0: 8176 693c c183 643d 5913 153d e3ea bd3d
000000d0: 6e69 dc3d 584c 73bd f14e 513d baad 66bc
000000e0: a68c d13c c345 89bd ed0e 5e3d da7e 983d
000000f0: a5d8 15bd b960 73bd 7d19 153d a65e e53d
00000100: 1ad2 023e 8cde 8bbd fcef e2bc 8158 643d
00000110: 0ccd 6f3c 70f1 e3bc 132a 84bd 79b9 e93c
00000120: eb25 3fbb dc32 893d 7aca c93c b681 103d
00000130: e739 b33c 8128 ba3d c4d9 f5ba b23e f0bc
00000140: 47a3 72bd 5341 83bc a73d 303d 996f c63d
00000150: a504 6fbd 1507 a73d aff1 503d 1776 923d
00000160: bc08 a73d 13c3 623d 83f3 5f3d f7e9 9e3d
00000170: 1b62 8a3d 863a 883d 186c 253d 41d7 ab3c
00000180: ee67 34bc 09c5 873d 5915 763d 5805 1d3c
00000190: 5842 2dbc 9857 24bd 6b6b dbba 0495 86bd
000001a0: 9c8e d8ba 8f47 9f3d b22d b03d 486d e23b
000001b0: 3a05 933d 6309 9fbd cc2a 5fbc 46b8 5fbd
000001c0: 13b6 3c3d 00f3 873b 8915 34bc e32d 7d3d
000001d0: 015a b1bc 4058 1dbd a80b debc 33b3 863d
000001e0: ca48 6e3d f04b 3b3d 96bd a7bd 8f57 04bd
000001f0: 63e0 313c 7996 693d 4255 9cbd e3c5 05bd
00000200: 21f9 be3c 4ea0 573d e00b dbbc 7c4f babd
00000210: c751 47bc 2f60 7cbd a14f aebd e2b2 1fbc
00000220: eb69 4bbd b432 8a3d 1094 c7bc 9b3b 01be
00000230: 1204 c83c 628e 693a 2489 39bd cf48 fd3c
00000240: fc16 7b3c 5249 853d 553e 91b9 a6eb ff3a
00000250: bb07 79bd b4e0 c4bd aca5 55bd 9e40 8d3d
00000260: 45f4 90bd 06b5 0e3c e76f bb3d a080 883d
00000270: cd5b 083d 6c39 b6bd fa16 623d ff82 92bc
00000280: 8860 78bd 1604 8eba adf5 bdbc 00d6 813d
00000290: 95ac 803c 4ac5 433d bf62 7fbd 1fbb 143d
000002a0: 23b2 443d 5090 a63c 6c35 ba3c 1ae3 0a3d
000002b0: 6164 8dbc 6cb0 633d 2d4d 82bd 22ad a5bc
000002c0: 5991 9c3d b780 a7bb 3e3b bebc 0ab5 ddbd
000002d0: 6325 f6bc 5dab d73c 2afe 3fbd b77b 63bc
000002e0: 7377 833d 6487 d53c d083 c0bd 5d7e c63c
000002f0: 08b4 2bbd 3e59 9bbd 5e00 163d 97bc 25bb
00000300: b9a4 e6bc eb2b 953c 0575 43bd 2a40 983d
00000310: 000c 13bd e282 c3bd 933c 8f3c f36e a9bd
00000320: 4061 8ebc 1f47 343c 5dcf 01bd 45bc d0bd
00000330: 2a5e 22bd 4eb2 b5ba 1b8f 263d 92be d2bb
00000340: 0167 e1bb 8e94 f7bc c9ca 163d bc6b 5e3c
00000350: 6a9e 833d 950d 4e3d 8a6d f3bc 033b ad3c
00000360: 4715 83bd 98bb 153c 685a e2bc 8a19 a03c
00000370: c250 00bc 6b33 9cbd bf43 293c 393f c73c
00000380: 097d 783c 1d18 06bd 8585 963c 4c32 85bd
00000390: 0a59 99bd a30f 28bd dd16 33bc a5e4 9b3d
000003a0: 6e64 9cbd 881a 4f3d 716d 053d 9067 563d
000003b0: 9f19 4b3d 8326 88bd 343e 0a3d a866 8d3d
000003c0: c520 95bd bf11 c4bb 9100 a8bd 1388 9abd
000003d0: 91af 9d3c ede4 7bbd dbc9 c0bd 1bfc 91bc
000003e0: d214 fe3b f558 65bd 170f 333d d5d1 593b
000003f0: b1ca 84bd ce47 ad3d 58b6 b6bd bf7e 01bb

weight f4 [32, 128]
0.029557733 -0.056876488 -0.08161484 0.008769367 -0.0022259862 -0.08388646 0.04608971 0.014192892
0.0807998 0.03658124 0.07000783 -0.041365653 0.0142319 -0.011858693 0.01602825 -0.037846114
0.072706856 0.030557934 -0.03226616 -0.032147538 -0.10527765 0.06840216 -0.047149964 0.04462525
-0.029320585 0.06088978 0.033954583 -0.070733584 -0.0045849797 -0.026969098 0.0054242276 0.03411712
0.04994733 0.07234442 0.050953627 0.028721038 -0.04593901 -0.0014942059 -0.070392154 -0.042132683
0.02279247 -0.06119661 -0.04116411 -0.041307412 -0.024414558 -0.029621718 0.017061442 0.007844783
-0.033402845 0.0046186363 0.0069376854 0.046048984 0.07631994 -0.053172894 0.071022965 -0.04165443
-0.071596935 0.060007628 -0.08440135 -0.04542806 0.07322972 0.06063129 -0.030676557 -0.015358646
0.035527125 0.027248094 0.08916452 -0.024405574 -0.03714844 -0.0798285 -0.07888283 0.0775959
-0.0040825782 0.0380257 -0.0065633547 0.062343504 0.09079292 0.041504655 0.016958922 0.10002078
-0.002023987 -0.06587599 -0.08412217 0.09973087 -0.032002095 -0.0016832511 -0.07628806 -0.050589006
0.04717162 0.06508153 0.013704079 0.037701886 0.05934752 0.02266728 -0.00247222 -0.027375927
-0.101336256 0.018110115 0.0013263383 0.041991934 -0.007979004 0.03867219 0.048343036 0.0363682
-0.03989184 0.01747522 0.07459943 0.102867395 0.0253832 0.0024663361 0.05559033 -0.06570931
-0.010786103 -0.059956394 0.022492947 0.014062832 -0.07724404 0.06518364 0.0116635 -0.013315201
-0.050317176 0.09786873 -0.003200213 0.074716516 0.06073471 0.06856586 0.03271234 -0.043930415
-0.015774624 -0.00028646327 0.02837183 -0.022688944 -0.029831389 -0.07004509 0.04135436 -0.00030753016
-0.061228707 0.018452324 -0.011159478 0.09486823 -0.05643795 0.0134082 0.05932112 0.023212945
-0.03631336 0.037282567 -0.051829375 -0.0020877044 -0.0147168925 -0.03828434 0.061264366 -0.00080297986
-0.00316642 -0.033547394 -0.0035693706 0.104185075 0.027727766 0.06591766 0.040148832 -0.06524898
0.0076258 -0.039335314 -0.0688534 0.038169667 0.03002718 -0.014381015 -0.029323313 0.023645902
-0.031042458 0.02346394 0.023401542 0.033406816 -0.026106242 0.040791437 0.078754626 -0.021161709
0.001194086 0.059816513 -0.0031963857 0.018330757 0.024657445 -0.012717295 -0.0068782642 -0.0055177975
0.016610226 0.061448153 -0.038905688 0.0056528263 -0.06508673 0.06257099 0.085489236 -0.043347035
0.059163567 -0.0021311436 0.0056590172 -0.060029034 -0.023941739 0.0021485044 0.03084387 0.062310442
-0.08553091 0.053077165 0.05749862 -0.06504639 -0.04708478 0.04373942 -0.028438836 0.03676469
-0.05999325 -0.07181488 0.025827024 -0.08444472 0.020377968 -0.021983039 -0.027764022 0.044240713
0.0441054 0.05700614 -0.03551834 0.09352692 -0.049602456 0.009863069 -0.0065526604 -0.0044416287
0.07750308 -0.03034907 0.040478665 0.02243369 0.044073578 0.02745648 -0.059874903 0.014035884
0.059786655 0.0018670425 -0.00428061 0.01932434 -0.011751212 0.048579868 0.015812578 0.058167532
0.0036963287 -0.0256613 0.0024935077 0.035160784 -0.04438196 0.04524284 -0.06508394 0.012218459
-0.041577324 -0.03144413 -0.020121716 -0.08038521 0.0504951 0.008481817 -0.044296272 -0.07878995
00000000: 0f23 f23c 52f7 68bd ae25 a7bd 64ad 0f3c
00000010: dae1 11bb aacc abbd 90c8 3c3d 4e89 683c
00000020: 5e7a a53d 36d6 153d 4460 8f3d 086f 29bd
00000030: ea2c 693c f74a 42bc ad4d 833c 8704 1bbd
00000040: 55e7 943d a254 fa3c 8529 04bd 23ad 03bd
00000050: cf9b d7bd 6f16 8c3d 5220 41bd f7c8 363d
00000060: b931 f0bc 9067 793d f613 0b3d c5dc 90bd
00000070: 993d 96bb 4cee dcbc b8bd b13b 65be 0b3d
00000080: 9295 4c3d 5029 943d c0b4 503d 6248 eb3c
00000090: 8b2a 3cbd 3bd9 c3ba c329 90bd 5293 2cbd
000000a0: 46b7 ba3c 4ca9 7abd b39b 28bd f631 29bd
000000b0: 0a01 c8bc 3fa9 f2bc 70c4 8b3c 6887 003c
000000c0: 6cd1 08bd ee57 973b 8655 e33b dc9d 3c3d
000000d0: a14d 9c3d d2cb 59bd 7d74 913d d69d 2abd
000000e0: 6aa1 92bd 8fca 753d 9dda acbd c612 3abd
000000f0: 77f9 953d 8458 783d 674d fbbc d5a2 7bbc
00000100: e484 113d 6537 df3c e39b b63d 33ee c7bc
00000110: f628 18bd 207d a3bd 528d a1bd 99ea 9e3d
00000120: 26c7 85bb d6c0 1b3d 6911 d7bb e75b 7f3d
00000130: a3f1 b93d c900 2a3d 70ed 8a3c b2d7 cc3d
00000140: dea4 04bb fee9 86bd 3f48 acbd b33f cc3d
00000150: a114 03bd 89a0 dcba ea3c 9cbd 6b36 4fbd
00000160: 0737 413d 7749 853d 1387 603c 4b6d 1a3d
00000170: 6316 733d bbb0 b93c f804 22bb 7b43 e0bc
00000180: 6289 cfbd aa5b 943c 87d8 ad3a bcff 2b3d
00000190: 5eba 02bc bb66 1e3d 5903 463d d2f6 143d
000001a0: a065 23bd 3128 8f3c 96c7 983d 24ac d23d
000001b0: 6ef0 cf3c 41a2 213b b0b2 633d 9a92 86bd
000001c0: 32b8 30bc d694 75bd 2143 b83c cb67 663c
000001d0: 2032 9ebd 007f 853d 4418 3f3c 0028 5abc
000001e0: 6219 4ebd 676f c83d aaba 51bb f904 993d
000001f0: f6c4 783d 426c 8c3d 60fd 053d 61f0 33bd
00000200: c939 81bc 7330 96b9 0a6c e83c 2ade b9bc
00000210: f560 f4bc cd73 8fbd 3063 293d 003c a1b9
00000220: f4ca 7abd 5429 973c 3ed6 36bc 464a c23d
00000230: 7b2b 67bd 11ae 5b3c b4fa 723d 1329 be3c
00000240: 51bd 14bd 9bb5 183d 0a4b 54bd ded1 08bb
00000250: 1f1f 71bc 0ad0 1cbd 58f0 7a3d 117f 52ba
00000260: b683 4fbb fe68 09bd 1aec 69bb fc5e d53d
00000270: 5725 e33c d7ff 863d 1a73 243d 42a1 85bd
00000280: d9e1 f93b 111e 21bd 0303 8dbd cc57 1c3d
00000290: 90fb f53c 599e 6bbc 7237 f0bc 0db5 c13c
000002a0: c14c febc 7337 c03c 97b4 bf3c 96d5 083d
000002b0: c2dc d5bc ec14 273d 1b4a a13d 525b adbc
000002c0: e182 9c3a 2902 753d 747a 51bb 622a 963c
000002d0: 69fe c93c 345c 50bc 1063 e1bb a4ce b4bb
000002e0: 2b12 883c 0fb1 7b3d 925b 1fbd 583b b93b
000002f0: 314c 85bd 3825 803d fb14 af3d a98c 31bd
00000300: 7f55 723d a8aa 0bbb 476f b93b 01e1 75bd
00000310: 7721 c4bc eccd 0c3b 49ac fc3c 3c39 7f3d
00000320: d42a afbd 7167 593d ac83 6b3d 0b37 85bd
00000330: f8db 40bd 1b28 333d 90f8 e8bc 9296 163d
00000340: 7bbb 75bd ae13 93bd 3293 d33c 5af1 acbd
00000350: b2ef a63c c615 b4bc 6071 e3bc c035 353d
00000360: dda7 343d 457f 693d ae7b 11bd 0b8b bf3d
00000370: f22b 4bbd b698 213c b3b7 d6bb 158b 91bb
00000380: efb9 9e3d 9d9e f8bc f5cc 253d dcc6 b73c
00000390: 7f86 343d 69ec e03c 633f 75bd c4f6 653c
000003a0: dae2 743d 8db7 f43a 5c44 8cbb 144e 9e3c
000003b0: 2888 40bc affb 463d 6189 813c 1441 6e3d
000003c0: 1b3e 723b a637 d2bc 1e6a 233b c104 103d
000003d0: dcc9 35bd 8e50 393d bb4a 85bd ee2f 483c
000003e0: fc4c 2abd 8fcb 00bd 4cd6 a4bc 00a1 a4bd
000003f0: f3d3 4e3d 52f7 0a3c 0270 35bd a05c a1bd

bias f4 [32]
-0.025994288 0.01505972 -0.036884192 0.0015037976 -0.12630229 0.01043867 -0.0076727886 0.012696533
0.016366953 0.012803451 -0.049460124 0.05794898 -0.016402977 0.021419333 -0.15014455 0.048176184
0.0026643788 0.003749063 0.03850749 -0.007663339 0.06631277 0.044845838 0.027808355 0.029285127
0.10575686 -0.02603786 -0.014337778 0.061318424 0.010877037 -0.13781787 -0.046423227 -0.0038901442
00000000: f9f1 d4bc 0bbd 763c e113 17bd 131b c53a
00000010: 6355 01be f506 2b3c 046c fbbb 1f05 503c
00000020: fd13 863c 91c5 513c b396 4abd e95b 6d3d
00000030: 895f 86bc 9977 af3c 7ebf 19be 6454 453d
00000040: dc9c 2e3b d7b2 753b 08ba 1d3d bf1c fbbb
00000050: fdce 873d 45b0 373d 59ce e33c 5de7 ef3c
00000060: 0d97 d83d 5a4d d5bc 00e9 6abc 0729 7b3d
00000070: 9a35 323c 2120 0dbe 4826 3ebd caf1 7ebb

weight f4 [1, 32]
-0.09068345 0.08325195 0.13542782 -0.12268784 -0.1420521 0.1063901 0.050526552 -0.05269218
-0.13793509 0.067629315 -0.059214193 0.027980672 0.021920562 0.011737221 0.059953813 0.10980308
0.014876191 -0.089258276 0.0063255844 -0.09366807 -0.011710683 0.10500595 -0.079799294 0.043577593
0.010707735 -0.11172716 0.017992018 -0.07958778 -0.046782 -0.164757 0.06375436 -0.06825357
00000000: 3fb8 b9bd 0080 aa3d 97ad 0a3e c343 fbbd
00000010: 1b76 11be 0ee3 d93d eef4 4e3d c1d3 57bd
00000020: db3e 0dbe 3d81 8a3d 958a 72bd b937 e53c
00000030: c092 b33c 794d 403c 2192 753d 70e0 e03d
00000040: 44bb 733c 0bcd b6bd d946 cf3b 0cd5 bfbd
00000050: 2ade 3fbc 5c0d d73d d06d a3bd 6b7e 323d
00000060: 7f6f 2f3c 36d1 e4bd ff63 933c ebfe a2bd
00000070: 7c9e 3fbd 0fb6 28be a591 823d 87c8 8bbd
