data/Clair/sens_clair.pt (torch, 338353 bytes, 7 tensors)

weight_ih_l0 f4 [512, 24]
000000 11 d0 cb 3d f3 a8 52 bd e8 5e ab bc c6 9f 4d bc
       0.09951795 -0.051430654 -0.020919278 -0.0125503
000010 44 a1 3c 3c f7 61 26 bd f6 0f ba bc ba 2f bc 3b
       0.011513058 -0.04062077 -0.022712689 0.005742994
000020 ed ca 5f 3d 9d cc 0a bc 5d 2e 52 bc 3a 01 93 3d
       0.054636884 -0.008471635 -0.012828437 0.07177968
000030 46 5e ab 3d 09 5d a4 3d a8 aa 1f bd 1f 91 56 bd
       0.083675906 0.080255575 -0.03898111 -0.052384492
000040 e7 d2 92 bd b1 53 88 3c 63 c5 07 3c a1 84 6f bd
       -0.07169133 0.01664147 0.008286807 -0.058476094
000050 3c cb 08 bd 9c f4 d1 3b 8d bc 50 3d 70 e0 c9 bc
       -0.033396944 0.0064073335 0.050961066 -0.024643153
000060 b3 27 40 bd 82 ff 45 3b 88 92 81 3d 26 5a 64 bc
       -0.04691286 0.003021211 0.06326777 -0.013937509
000070 5b 2a bc 3d 2b 79 ce bc 10 bb 66 bc 26 f1 36 bd
       0.09187766 -0.025204262 -0.014082685 -0.04466357
000080 80 82 9a 3d 48 da 36 3d 82 3d cd 3d ce 6f 8e 3a
       0.07544422 0.044641763 0.10021497 0.0010867061
000090 56 cc 16 3d 5d 14 c6 3d 42 d2 64 bd 7d 19 d9 3c
       0.036815964 0.09671853 -0.05586458 0.026501412
0000a0 97 bb b0 3d 9e 91 0e bd 4d ff 4b 3d ed b3 c4 ba
       0.0862953 -0.03480684 0.04980402 -0.0015007235
0000b0 ee fd 47 bd 3e 92 6d 3d 33 9b 91 bb e9 80 7f 3d
       -0.04882615 0.058000796 -0.00444355 0.062378798
0000c0 e5 9b 49 bd 7b 2e 07 3d 32 ae 40 3d 9b 73 95 3c
       -0.04922094 0.03300331 0.047041126 0.018243602
0000d0 5c 69 ab 3a b7 dd 12 3d 5a 78 78 3d e2 74 07 3d
       0.0013077664 0.035855975 0.06066165 0.033070453
0000e0 96 79 e7 b8 4e 3e d7 3c 58 3e 98 bc f7 43 57 3d
       -0.000110375855 0.026274826 -0.018584415 0.05255505
0000f0 9b d3 8b 3d 3d 52 0d 3d ba 83 46 bc 38 8a dd bc
       0.0682747 0.034502257 -0.012116367 -0.027043447
000100 f0 05 1d bc 01 0f ad bd 50 b9 50 3d 15 08 b1 bd
       -0.009583935 -0.084501274 0.050957978 -0.0864412
000110 a3 9f a5 bb 72 e0 4b bc c2 41 c9 3c 72 4c 7a 3d
       -0.0050544306 -0.012443649 0.024567489 0.06110806
000120 a6 33 cf 3b ec c1 84 3d fb 66 d6 bd ce 7c 0d bd
       0.0063232956 0.064823 -0.10468861 -0.03454285
000130 23 5d 6e 3d 3b 46 05 3c a1 5b 7e bd 74 0e 35 3d
       0.05819429 0.00813442 -0.062099103 0.044203237
000140 d1 fd 7e bd 1b 1b c0 bc 9a b3 95 bd 9b 73 c4 bd
       -0.062253777 -0.023450425 -0.07309647 -0.095923625
000150 8e 4b 5d 3c 67 86 c3 bc b5 37 9c 3c 8c 3c da bd
       0.013506783 -0.023867799 0.019069532 -0.1065608
000160 24 82 dd bd 59 ae eb bc dc 23 bb 3b 42 cc 61 bd
       -0.10815838 -0.028769659 0.005711062 -0.055126436
000170 ce 7c 9e bd 07 55 72 3c 14 92 95 bd 5d 6e 9d bb
       -0.07738648 0.01479078 -0.07303253 -0.004804416
000180 e5 fd 84 bd fb 7e 5b 3d 07 df a9 3c 7a 40 17 3b
       -0.06493739 0.053587895 0.02073623 0.0023079203
000190 18 7a 8d 3d 11 f9 3a 3b 32 01 34 3d ab 55 d6 bc
       0.06908053 0.0028529803 0.043946452 -0.026163897
0001a0 9b 40 68 3d 93 b1 3b 3d 1a b0 8b 3d f0 16 8e 3d
       0.056702238 0.045823645 0.06820698 0.06937969
0001b0 f2 7d 5a 3d 14 0c 4c bb b8 b7 c3 3c 56 97 e6 bc
       0.053342767 -0.0031135129 0.023891315 -0.028148334
0001c0 d5 0e 97 bd 91 cb 96 bd 8c 71 ab bd df cd 18 bd
       -0.07375876 -0.07363046 -0.08371267 -0.03730571
0001d0 41 34 4d 3d 13 30 c6 bc ef c6 18 bc 8d db 3b 3d
       0.05009866 -0.024192845 -0.009324773 0.045863677
0001e0 6c d7 18 bd 0a 48 39 bd 9a 1a ac bd 5b 61 4e bd
       -0.037314817 -0.045234717 -0.08403511 -0.050385814
0001f0 b6 46 a2 bd 2c e8 88 3d 8c ef b7 bc 01 ff a8 3d
       -0.07923643 0.06684908 -0.022453092 0.08251763
000200 d7 d5 32 3c a7 50 04 3d 6c 27 a1 bd cd d7 4a bc
       0.010915241 0.03230348 -0.07868847 -0.0123805525
000210 fc 66 32 3d 1e b3 58 3d 1f 3a ca 3c 2a 2f f5 3c
       0.043555245 0.052905194 0.024685917 0.029929716
000220 63 3b 0b bd 6a 84 02 3c b0 cc 6a b7 29 7a 97 bd
       -0.033992182 0.00796614 -1.3995144e-05 -0.07396347
000230 71 e3 08 bd ee 15 73 bd 9d 99 b3 3d f6 bb 94 3c
       -0.03342003 -0.059347086 0.08769534 0.018156033
000240 59 3d ba 3c 4a 43 46 3b b3 2a 79 3c 17 5e 58 bd
       0.022734331 0.003025251 0.015207934 -0.052824106
000250 52 fa 16 bd ed 6e 6b 3d 8d bc 6c 3d fd e1 4b 3d
       -0.036859818 0.057478834 0.057797004 0.049776066
000260 1f c1 8c bd c6 c1 9b bd c6 80 b2 3d c3 27 0b 3d
       -0.068727724 -0.07605319 0.08715968 0.033973467
000270 d2 f7 aa bd 10 d7 6b bd f3 3b 22 bd ef 8d 7c 3a
       -0.08348049 -0.057578146 -0.039607953 0.0009634187
000280 f3 a3 8d bd de 8b d7 bb b1 d9 81 3c 98 f3 1a 3d
       -0.069160365 -0.0065779528 0.015850874 0.037829965
000290 83 5c dd 3c 08 e5 2e 3d cd bb 5d 3d 5c 79 aa bd
       0.027021652 0.04269889 0.05413418 -0.08323929
0002a0 bd a8 bf 3c 45 01 67 bd ef 38 a6 bd 72 3b a8 bd
       0.02339589 -0.056397695 -0.08116328 -0.08214463
0002b0 d4 e8 6f bd 09 cd 1e bc 6b 5e bd 3c a6 14 5c 3d
       -0.05857165 -0.009692439 0.023116311 0.05373063
0002c0 39 e9 a3 bc 4a 18 b8 bd 89 3a ca bd 06 3b 9b 3d
       -0.02000867 -0.08989008 -0.09874446 0.07579617
0002d0 c5 9b b5 bd 86 7d aa bd 54 10 84 bd 7c 60 c5 bd
       -0.08867601 -0.08324723 -0.06448427 -0.096375436
0002e0 69 55 57 3c 2d 4c b9 bc 6d 73 77 3d 1c 6a 36 bd
       0.013142922 -0.022619331 0.060412813 -0.044534788
0002f0 cc 01 8d bd d8 ff b5 bc b9 bc bf 3a 4a 34 44 3d
       -0.06885108 -0.022216722 0.0014628387 0.04790143
000300 9a c5 73 bd 05 73 98 3d ef d1 e3 bc a3 41 a2 bd
       -0.05951462 0.07443813 -0.027810065 -0.079226755
000310 48 fa 15 3c 67 c0 08 3d 2d 9e 5d bc 67 d6 2c bc
       0.00915391 0.033386614 -0.013526482 -0.010549164
000320 4d 94 c8 bd 76 79 77 3d 64 83 24 bd 09 b2 4e bd
       -0.09793911 0.06041857 -0.040164366 -0.050462756
000330 d1 66 7e 3d 7c da b7 bd 06 7b 96 3d fe 55 bd bd
       0.062109772 -0.089772195 0.073476836 -0.09244917
000340 0f 89 cf bc 45 2c 05 bd 7b 22 10 3d 21 9c 82 bc
       -0.02533391 -0.03251292 0.035189133 -0.015943589
000350 c7 d1 fc bc bf ec 8f 3d ed 93 09 3d a8 eb 77 3d
       -0.030861748 0.070275776 0.03358834 0.060527474
000360 bf 25 fb 3c 10 63 09 bb 91 ce 72 bd 31 5b f2 bb
       0.030657647 -0.0020963587 -0.05927903 -0.007396125
000370 11 7e 6b 3d 12 91 98 bd 52 c2 3c 3c db 47 ef 3c
       0.057493273 -0.07449545 0.011520939 0.029209068
000380 d0 b1 b3 bc 71 d1 2f bc 2c c0 19 3d 70 03 be bd
       -0.021935374 -0.010731087 0.037536785 -0.092779994
000390 22 ea f4 3c f9 23 09 3d 7a 41 08 bb c3 cb 90 3d
       0.0298968 0.03348157 -0.002079098 0.070701145
0003a0 fd fc 8e 3d 1c a4 6d bd e4 51 a4 bd 97 a8 80 3c
       0.069818474 -0.058017835 -0.08023432 0.01570539
0003b0 b6 38 95 3d f1 d1 56 3d 9e 81 99 bd e2 c1 31 bd
       0.072862074 0.05244631 -0.07495426 -0.04339779
0003c0 5f d9 66 3d fe 5b 4e 3d 48 56 a0 bd b6 c0 b3 bd
       0.056359645 0.0503807 -0.07828957 -0.08776991
0003d0 89 c7 7d bb b1 20 8b 3d 34 0d 35 3c 9b 69 61 3c
       -0.0038723669 0.06793345 0.011050511 0.013758088
0003e0 55 80 2d 3d 5d 42 3a 3d ea 67 a4 3c c2 34 47 bd
       0.042358715 0.045473445 0.020069081 -0.0486343
0003f0 70 34 b1 bc 22 7f 6e 3d 10 66 86 bc d4 67 d2 bd
       -0.02163145 0.058226712 -0.016406089 -0.1027371

weight_hh_l0 f4 [512, 128]
000000 74 1f 9b 3c f6 26 9a bd 18 e2 94 b6 30 1b e2 bc
       0.018935896 -0.075269625 -4.4370645e-06 -0.027600855
000010 1d 6f d1 bd 41 c5 a8 3d e2 f9 91 bc 0e fb cf 3d
       -0.10226271 0.08240748 -0.017819349 0.10155307
000020 d9 23 b8 3c be c4 1c bd 2f 5c a5 3d 5a da a6 3c
       0.022478031 -0.038273565 0.08074223 0.02036779
000030 e1 6c e9 3d 90 06 24 bd 25 3e d9 3c 9a 1b cb bd
       0.1139772 -0.04004532 0.02651889 -0.09917374
000040 7f 93 6d 3d 71 0a a4 3d 85 fc 1b bd f6 4f 51 3d
       0.05800199 0.08009804 -0.03808262 0.051101647
000050 b4 ea a5 bb cf af 37 bd b3 72 81 3d f9 c9 c2 3d
       -0.005063379 -0.0448454 0.06320705 0.095111795
000060 4d 3a 39 bd e4 4f 3e bd 80 1f 44 bd e0 8b 87 bc
       -0.045221616 -0.04646291 -0.047881603 -0.01654619
000070 0a f4 cf 3c f7 d1 3b bd c6 d5 80 3c 65 d2 53 bd
       0.025384922 -0.045854535 0.015726935 -0.05171432
000080 14 3a 7f bc 02 67 f3 ba a0 37 be 3c b8 77 a5 bd
       -0.015577812 -0.0018570127 0.023219883 -0.08079475
000090 78 de 0e be 8b d4 88 3d b3 56 08 be 9c 0b 0a 3e
       -0.13952053 0.06681164 -0.13314323 0.13480991
0000a0 7e e4 4d bd fb ee 40 bc 1f 88 33 bd 1e a2 9b bc
       -0.050266735 -0.011775727 -0.043830987 -0.018998202
0000b0 c2 bd c3 bd 4a 20 23 3d e8 8c b2 bd f1 01 1c bd
       -0.09557678 0.039825715 -0.08718282 -0.03808779
0000c0 22 95 67 3b f6 cf 86 3d 01 d8 4e 3b 64 5e ca 3b
       0.0035336693 0.06582634 0.0031561854 0.006175803
0000d0 6a df 92 bc cc 3a 85 bd 47 40 18 3d 0b ee e2 bc
       -0.017928798 -0.06505355 0.037170675 -0.027701398
0000e0 2b 32 a0 3d a3 6e 7f bd f5 ef 8d bd 32 c0 82 bd
       0.07822069 -0.06236137 -0.06930534 -0.063843146
0000f0 b2 0e 8b bc 81 30 98 3c 72 74 2e 39 dc b8 43 3c
       -0.01697478 0.018577816 0.00016637312 0.011945929
000100 fc fa d6 bc 6e d0 ef 3d d0 0f 2f bd 4a 3a 10 bd
       -0.026242726 0.11709677 -0.04273969 -0.03521184
000110 10 37 1c 3d 7d 80 06 3c 58 1d 7e 3b f7 e7 54 bc
       0.03813845 0.008209345 0.0038774814 -0.012994758
000120 8a 9a e7 3c cf 3b 62 bd 4d 21 be bd fd 42 b3 bd
       0.028271932 -0.05523282 -0.09283695 -0.087530114
000130 79 68 49 bd ad 43 df bc 11 04 bb 3d f6 71 cc bd
       -0.0491719 -0.02725395 0.09131635 -0.09982674
000140 4b 15 b4 bc df 08 11 bd 26 cc 61 bd 4d 52 96 bd
       -0.02198281 -0.03540885 -0.05512633 -0.073399164
000150 c5 04 2f bb 46 69 6b 3a fe 3c 54 3c f1 d9 47 bd
       -0.0026705724 0.00089802255 0.012953995 -0.04879183
000160 0c 2c 5a 3d 9e 74 9b bc 97 5c 48 bc e8 df b9 bd
       0.053264663 -0.018976506 -0.012229106 -0.0907591
000170 ee 5a 9f 3c 5b d1 a1 bc 8a b1 b3 3d 81 18 6b bc
       0.019452538 -0.019753149 0.08774097 -0.014349104
000180 d4 90 e9 3c bf 62 cb bd 45 21 85 3d 50 4e fa bc
       0.028511442 -0.09930944 0.06500486 -0.03055492
000190 80 48 2d 3d 51 3d b4 3d 3f e7 23 bb 7b 4d 4a bc
       0.04230547 0.08800758 -0.002500966 -0.012347574
0001a0 89 b0 ec 3b 33 b6 e6 bd d0 e5 b2 3d 44 b3 9b 3d
       0.007223193 -0.112652205 0.087352395 0.076025516
0001b0 21 1e c2 3b a7 45 39 3c ad ca da 3d 1c 79 50 3d
       0.005924002 0.01130811 0.106831886 0.05089675
0001c0 0c 3b 2d bd 2b 84 65 bd c1 43 28 bd 67 f0 15 bd
       -0.04229264 -0.05603425 -0.04108024 -0.03660622
0001d0 9e 61 25 3d e6 87 01 be 4b 48 83 38 c4 15 85 bc
       0.040376298 -0.12649497 6.2600324e-05 -0.01624573
0001e0 6a 4a 56 39 06 7f 57 bc fb 6e 04 3c 4f 58 7f bc
       0.00020436352 -0.013152843 0.0080831 -0.015585019
0001f0 ad 5b 16 3d d9 5c f9 bd 33 d0 ec bc eb 06 6f bd
       0.036708523 -0.121759124 -0.02890787 -0.058356207
000200 20 c9 bc 3c b0 08 c3 bd 84 3f d7 3c a2 80 b3 bd
       0.023045123 -0.095231414 0.026275404 -0.08764769
000210 85 43 12 3d d0 0d 4d 3d 9d 77 0f 3a 80 ff 86 3d
       0.035708923 0.050062 0.0005472841 0.065917015
000220 c2 17 9d bc 33 79 81 bc 64 93 27 bd ef c8 98 bd
       -0.019176368 -0.015804863 -0.040912047 -0.074602
000230 a3 1e a7 3c 26 4a 3c bd ca 96 ae bb 6f c5 a4 bd
       0.02040035 -0.04596915 -0.005328034 -0.0804547
000240 24 22 ca 3c bc dc b7 3c f1 00 ca bc 7b 98 99 bc
       0.024674483 0.022444122 -0.024658652 -0.018749466
000250 34 29 92 bd 34 e9 d5 bc e9 db 98 bc 99 84 8e bd
       -0.07136765 -0.026112176 -0.018659549 -0.06958885
000260 35 ad ec bc e3 df 59 3d 4a 77 85 3d af f6 1f bb
       -0.028891185 0.05319203 0.06516893 -0.002440851
000270 b8 97 69 bd a2 cb 4f bd 6b af 2d bd d7 e4 3b 3c
       -0.057029456 -0.05073131 -0.04240362 0.011468134
000280 13 75 cf 3d 6b 2b 81 3b 8d b3 87 3d e2 f0 c7 3c
       0.10129752 0.0039419434 0.066260435 0.024406854
000290 26 29 b2 bc aa a5 08 3d 27 91 be bc bd 69 88 3d
       -0.021748137 0.033361115 -0.023262573 0.06660793
0002a0 40 a6 9b bc 37 b9 7a bd 23 bc 6c 3c 60 7f 6c 3c
       -0.019000173 -0.06121179 0.014449152 0.014434665
0002b0 fd 48 f5 bc e2 5d 48 bd 15 24 cd bd f9 9e 7e bd
       -0.02994203 -0.04891766 -0.10016648 -0.062163327
0002c0 5c 86 26 3d 41 51 6a bd 89 ec 7c bc 7b d7 aa 3c
       0.04065548 -0.057206396 -0.015437254 0.020854702
0002d0 52 8b 12 bd 9c 35 28 bd 5e 50 7a 3c b2 f7 fc 3c
       -0.035777397 -0.04106675 0.01527795 0.03087983
0002e0 73 d5 8d 3d eb 6c 81 3d c1 dc 4a 3d 84 bc bc bc
       0.06925478 0.063196026 0.049526934 -0.02303911
0002f0 17 22 48 bd 75 94 1f bd bd fe b4 3d 43 ec 29 bd
       -0.048860636 -0.03895994 0.0883765 -0.041485082
000300 63 75 80 bd 07 e6 5e 3c 21 24 a7 bc 39 aa 7c bc
       -0.0627239 0.0136046475 -0.02040297 -0.015421444
000310 2e 7c e6 bd ae af 37 3d bf 9d ca 3d d9 8f 81 bd
       -0.11254154 0.044845276 0.09893369 -0.06326265
000320 f4 44 72 3c f9 3e b2 bc 90 ee 56 3d 08 70 42 3d
       0.0147869475 -0.021758543 0.052473605 0.047470123
000330 cc 85 4e 3d 71 0b cc bd ca 14 72 3d 0a e2 89 bd
       0.050420567 -0.0996312 0.059101857 -0.06732567
000340 9d 66 17 bd eb f6 3f bd 3d 97 96 3d b0 f3 48 bd
       -0.036963094 -0.04686634 0.07353065 -0.049060524
000350 96 c2 ff bc e1 1c 0b 3d 9e d4 33 3c d7 5f ed 3d
       -0.031220715 0.033963088 0.010975985 0.115905456
000360 bb 09 82 bd c2 44 e3 3b 93 ac b7 3d 07 50 8e bd
       -0.06349512 0.006935687 0.08968463 -0.06948858
000370 d0 48 b7 3d ae 24 00 bb 17 0d a6 bd 72 9f 13 3d
       0.08949435 -0.0019553113 -0.081079654 0.03604073
000380 1c 9b 27 3c cb 41 b0 bd df 2e c6 bd 80 9e 83 bc
       0.010229852 -0.08606299 -0.09676909 -0.01606679
000390 f5 97 34 3c a1 8f b0 3d f1 2f 03 bd 4f 52 d3 bd
       0.0110225575 0.08621145 -0.032028142 -0.103184335
0003a0 b3 2e a3 3c 85 b4 83 bd de b1 bd 3c 37 d4 0c bd
       0.019919729 -0.06430916 0.023156103 -0.03438207
0003b0 c3 c2 04 3e 67 7b 0b bd 51 84 64 3d f9 6c 82 bb
       0.1296492 -0.034053233 0.05579025 -0.0039802757
0003c0 56 72 c9 3a 98 49 e5 bd d2 be f5 3c 1c ca d5 bc
       0.0015369158 -0.111956775 0.029998217 -0.02609735
0003d0 6d 8a e9 bb 1c 88 a4 3c 63 ba 96 bc c4 22 6c 3d
       -0.0071270973 0.020084433 -0.018399423 0.057650343
0003e0 5c 4c 05 bd 49 c0 01 3d 2b 53 10 bd c1 4a 87 bc
       -0.032543525 0.031677518 -0.035235565 -0.016515138
0003f0 be 6e 5d 3b 7e 60 48 3d 8a ca 54 3d de 86 a4 bd
       0.0033787931 0.048920147 0.05195097 -0.080335364

bias_ih_l0 f4 [512]
000000 5f 64 94 3d 10 8f 87 3d d7 0e 83 3c 1a 14 cf 3d
       0.07245707 0.06619084 0.015998287 0.10111256
000010 2f a2 95 bd 82 a7 a3 3d e3 75 b0 bd 75 51 38 3d
       -0.07306325 0.07990934 -0.08616235 0.04499956
000020 07 52 f9 bc 3b 13 03 bc 4c 6c 2c 3d 9c 6b 38 bd
       -0.030434621 -0.00800019 0.042095467 -0.0450245
000030 97 f6 ce 3d 7d 9c 7c 3d 46 2e 70 3c 15 18 dd bd
       0.10105627 0.061672676 0.01465947 -0.10795609
000040 2e 8a af bd b8 8f 23 3d ad 71 61 bd f7 ba 8d bd
       -0.085712776 0.039931983 -0.05504005 -0.06920426
000050 c5 4f 48 3b 80 37 55 3d fb 55 ec 3d 9a 2f 80 3d
       0.0030565124 0.052054882 0.11539837 0.06259079
000060 e6 c0 47 3d 72 87 de 3d 5d fb c7 3b 23 ac 82 bc
       0.048767947 0.10865678 0.006102963 -0.015951222
000070 76 84 7c 3d 58 61 e0 bc 58 68 d4 3c bf 29 7d 3d
       0.061649762 -0.027390167 0.025928661 0.06180739
000080 3f ef 85 3c 74 78 6c 3c 92 3c ea 3d 9e 14 78 3d
       0.016349433 0.014433015 0.11437334 0.060566537
000090 c1 74 ff 3c e8 58 7b bd 6f 58 e2 3d f6 1f af 3d
       0.031183602 -0.061364084 0.110520236 0.08551018
0000a0 ce 94 58 bd 22 3a 4a bd a8 ab c9 bb b5 1f fb 3d
       -0.052876286 -0.049371846 -0.006154496 0.12261907
0000b0 d7 6a af 3d fa 2a 72 3d e2 47 a2 3c 58 30 a1 3c
       0.085653 0.059123017 0.019809667 0.019676372
0000c0 28 93 27 3c 35 e7 9b 3d 78 a8 59 bc 73 a5 87 3c
       0.010227956 0.076124586 -0.013284795 0.016558385
0000d0 da 31 81 bd 5e 5a a1 bc 97 4a c5 3b 67 1a 4f bc
       -0.063083366 -0.01969641 0.0060208547 -0.012640572
0000e0 b6 dc bd 3c e0 4d c3 3d cf ac 23 3d eb 73 b1 3d
       0.023176532 0.09536338 0.039959725 0.08664688
0000f0 93 55 b1 bc ae 86 10 3d 0a ae 1d bb 87 08 a2 3b
       -0.02164725 0.03528469 -0.0024060034 0.004944864
000100 bc ab 64 39 5d 29 c5 3c 6a ac 08 3c b1 e4 dc bc
       0.0002180775 0.024067575 0.008341888 -0.026964517
000110 69 ea bc 3d 4b bc e1 ba 81 61 a6 bd 23 5a 99 3c
       0.09224398 -0.0017222253 -0.08124066 0.018719738
000120 83 e6 67 3d b6 15 3c 3d 76 f8 46 bb 92 f6 27 bd
       0.056616317 0.045919143 -0.0030360497 -0.041006632
000130 f5 fb 29 3d b2 f6 9e 3c a4 8f e6 3c a9 1f 7f bd
       0.04150005 0.019404743 0.028144665 -0.062286053
000140 15 18 7c 3d 7c ae 86 bd c4 da 05 3d 63 48 32 bd
       0.061546404 -0.06576249 0.032679334 -0.043526065
000150 00 66 4f 3b b6 6b ae 3c bf 01 ab bc 26 3d e1 bc
       0.003164649 0.021291595 -0.020874856 -0.027494978
000160 ae 9c 94 3d 6b 86 08 bd 83 8a 1e bd 1f cf ef bc
       0.07256447 -0.033331316 -0.038706314 -0.029273568
000170 a5 42 c7 3d fb c0 95 bd 03 7f 5f bd b3 d8 c6 3d
       0.09729508 -0.07312199 -0.054564487 0.09709301
000180 75 3d 63 3d 31 61 d0 3b 47 6d bf 3c 44 ac 87 3d
       0.055478532 0.0063592424 0.023367537 0.06624654
000190 23 7e 2d bd 6e 16 01 bd ac 7a 4d 3d b4 1e 57 3d
       -0.04235662 -0.03151553 0.050165817 0.052519515
0001a0 34 66 ab 3d ef 6b e3 bc f2 19 9c 3b cc d6 1c bc
       0.08369103 -0.027761428 0.004763835 -0.009572696
0001b0 25 72 94 3d de c5 17 3d 4a bd 36 3d 2b 2a f3 bc
       0.07248334 0.037053935 0.044614114 -0.029683193
0001c0 20 15 ea bc b0 19 02 bd c3 89 7e 3d 65 00 2d bc
       -0.028574526 -0.03176278 0.0621431 -0.010559176
0001d0 b0 91 82 3b ff cd 92 3c 14 d6 88 bd a7 32 5a 3d
       0.0039846525 0.017920492 -0.06681457 0.053270962
0001e0 6d 86 bf 3d 7b ef 8e bd ab b5 e9 3d 7c 69 38 3d
       0.093518116 -0.06979271 0.114116035 0.045022473
0001f0 c2 fb da 3d c9 bd 48 3c e6 8a b2 3d b0 bb db 3b
       0.1069255 0.01225228 0.08717899 0.0067057237
000200 67 5d c6 bd 07 c2 1e 3d 06 25 66 3d e5 de 04 bd
       -0.09685784 0.038759258 0.056187652 -0.03243913
000210 86 c1 4c 3d 2b 95 ca 3b 86 49 c1 bc 62 62 3c 3d
       0.049989246 0.006182333 -0.023594629 0.045992263
000220 7c 58 94 bc 9a 6b 10 3d 49 27 26 bd 37 0f ea bd
       -0.018108599 0.035258867 -0.04056481 -0.11428683
000230 86 c4 2b bc d2 66 f4 bd c6 f0 42 3d dc af 6f bd
       -0.010483867 -0.11933674 0.0475929 -0.058517322
000240 84 31 c6 3c 3b ee 5e bd e0 16 27 bd a3 d2 c2 bd
       0.024193533 -0.054426413 -0.0407933 -0.09512832
000250 20 55 d9 bb c0 dd 25 bd 76 87 c2 bd 03 bc fd b6
       -0.006632462 -0.04049468 -0.094984934 -7.561875e-06
000260 e1 02 6e bd d3 86 c4 bd 18 47 18 3c cb 82 91 3d
       -0.058108214 -0.09596028 0.009294294 0.07105025
000270 a3 a6 09 3c c8 9d 34 3c 7d a1 de 3b 21 44 25 ba
       0.008401546 0.011023946 0.0067941532 -0.00063044025
000280 62 ac a9 3d 87 ca b0 bd 80 77 11 be 47 6c ac bc
       0.082848325 -0.08632379 -0.14205742 -0.021047724
000290 3f 3f 70 bd 29 c3 16 bd b6 99 e3 3c 16 03 3a 3d
       -0.058654066 -0.036807213 0.027783256 0.0454131
0002a0 83 77 4a 3d c3 00 99 bb 37 82 74 bd 2c 0e 98 bd
       0.04943038 -0.0046692803 -0.059694495 -0.07424578
0002b0 77 32 0f bd c9 1e aa bd d7 58 4e 3d 67 03 89 bd
       -0.034960236 -0.08306653 0.050377693 -0.06690102
0002c0 eb f0 79 bd 32 6e d0 bb 02 38 e7 3c 5f 79 6f 3d
       -0.061020773 -0.0063607926 0.028224949 0.058465358
0002d0 68 a2 1b bd 0e f6 7c bd 25 d3 55 bd da b4 1b 3d
       -0.03799668 -0.061758094 -0.052203316 0.03801427
0002e0 76 2c b5 3d 27 2c a1 bd f8 3c 2e bd 13 51 0e 3d
       0.08846371 -0.078697495 -0.042538613 0.034745287
0002f0 d8 72 a0 bd 47 d0 8a bd 32 a7 d0 bc ed 56 57 bd
       -0.07834405 -0.06778007 -0.02547035 -0.052573133
000300 44 87 0e bd 3d 6d 32 bd b3 3f 80 3b a0 39 8a bd
       -0.034796968 -0.04356121 0.0039138435 -0.06749272
000310 77 70 3b 3d 94 c2 b2 bd e0 eb 23 3d d0 d4 2a bd
       0.04576155 -0.08728519 0.04001987 -0.04170686
000320 bd e6 ba 3c e6 52 87 bc 10 74 fd 3c 73 2e 9f 3d
       0.022815103 -0.016519021 0.030939132 0.07772531
000330 dc d1 1a bd 8c a4 c2 bc 09 b9 08 bb 26 a8 66 bd
       -0.037797794 -0.023760103 -0.0020862243 -0.056312703
000340 dd f6 4f bc f2 46 c6 3c bf 1a 1c 3d 5b b4 0c 3d
       -0.012693134 0.024203751 0.038111445 0.034351688
000350 75 25 63 bc d5 e1 31 3d 8f 71 a1 bd ea 52 6c bd
       -0.013863911 0.04342826 -0.07882988 -0.05769626
000360 b3 aa e2 bd ac b1 76 bd 14 34 23 bd 3f 1d e2 ba
       -0.110677145 -0.060228035 -0.039844587 -0.0017251148
000370 d8 36 33 bd 93 45 70 bd 5b e6 e2 3c 97 5d ac 3d
       -0.043753475 -0.0586601 0.027697733 0.08416288
000380 d1 e0 fa bd 97 dd 19 3d ef 9e 50 3d a6 0e c0 bd
       -0.122499116 0.03756484 0.05093282 -0.09377794
000390 cb 7b d7 bc 6c 8d 4d 3d 61 6c a0 bc 17 b5 76 3d
       -0.026304146 0.0501837 -0.01958293 0.060231294
0003a0 ac 61 ca bd 00 5b 36 bd 41 c3 92 bd 44 bd 0e 3d
       -0.09881911 -0.044520378 -0.07166148 0.034848467
0003b0 d5 59 a5 bb 7f 41 d0 bd 34 c8 b7 bd 35 ba 97 bd
       -0.005046109 -0.101687424 -0.089737326 -0.07408563
0003c0 ef 95 49 3d 87 2f 08 bd 17 f9 8b 3c a5 91 80 bd
       0.049215253 -0.03324845 0.017086549 -0.062777795
0003d0 50 34 61 3d 96 59 1d bd b2 7d b9 bd d8 0e d5 bc
       0.05498153 -0.038415514 -0.090571776 -0.026008055
0003e0 84 01 31 bd 49 3f 1d bb 62 35 d5 bd ab f3 9b bd
       -0.043214336 -0.002399402 -0.104105726 -0.07614835
0003f0 e9 86 dd bd 38 37 14 3d 4b 6e 1d bd 0e 9e a9 bc
       -0.10816748 0.036185473 -0.03843526 -0.02070525

bias_hh_l0 f4 [512]
000000 11 cb 1d 3d ea 7b b4 3c 90 88 ec bc dc 6f 95 bc
       0.038523737 0.022031743 -0.028873712 -0.018241815
000010 93 4c a3 3d 95 3f 0c 3c cd 48 10 bd 8e d4 f5 bc
       0.0797359 0.008560081 -0.03522568 -0.03000858
000020 77 68 04 bd 9c 5f 68 3d 88 78 b3 bb 4f f4 c4 bc
       -0.032326188 0.056731805 -0.005477015 -0.024042277
000030 ae 1e 96 3d c1 12 9f 3d cf a2 fe 3b bb 76 23 bc
       0.073300704 0.07767249 0.007770873 -0.009977038
000040 8b 50 1a bd 42 2f 39 3d 5e 97 c6 3c a7 99 bb 3d
       -0.037674468 0.045211084 0.0242421 0.09160166
000050 1b 79 71 3d 27 50 2d 3b 22 ab e7 3d 62 71 25 bd
       0.058953386 0.002644548 0.11311938 -0.040391333
000060 de a2 69 bd 64 4d 8c 3d b5 5e 07 bd b3 6b f4 3c
       -0.057040088 0.068506986 -0.033049304 0.029836511
000070 50 da da b9 6a 0c 39 bd 1b 4e 7b bd 2d 30 2d bd
       -0.00041742856 -0.045177855 -0.061353784 -0.042282272
000080 7e 86 87 3d ac aa a7 3a 3a 0a 18 3d 9f 22 71 bd
       0.06617449 0.0012791953 0.037119128 -0.058870908
000090 9e 5d 3b bc 79 78 00 3c a0 e2 85 3d 10 cf b9 3d
       -0.011435894 0.007841223 0.06537366 0.09072697
0000a0 c7 43 a5 3d 70 48 21 3d 0d 9b 7d 3d 42 9b 31 3c
       0.08069568 0.039375722 0.061915446 0.010840239
0000b0 18 b3 83 bd 98 00 8a bc 1c f5 a3 bb ce a8 4d 3d
       -0.06430644 -0.016845986 -0.0050035845 0.050209813
0000c0 59 c1 a7 3d 0a 8e 64 bc 12 25 30 3d 23 fe c7 bd
       0.08191175 -0.01394988 0.043004103 -0.097652696
0000d0 f7 97 0b bd 62 6b 3c bd c2 25 99 3d 87 95 30 3c
       -0.03408047 -0.046000846 0.07477905 0.010777838
0000e0 63 6c c0 3d d0 1e 24 3d 90 1d c5 3d 07 9a 88 bc
       0.09395673 0.040068448 0.09624779 -0.016675008
0000f0 82 88 8a 3d d7 ae 7d 3c 57 2f 25 3d 12 1e 04 bd
       0.06764318 0.01548358 0.04032835 -0.03225524
000100 23 ed 90 3d 8a 24 5c bd d1 8d 03 bd 30 a3 e0 bc
       0.0707648 -0.053745784 -0.03211767 -0.027421564
000110 72 4f 1c 3d 5a 16 8f 3d c5 24 b7 bb 41 37 22 3d
       0.038161702 0.06986685 -0.0055891 0.039603475
000120 bb 41 2c bd 39 fd 46 bd c7 ec ee 3d 7a 9d 09 3d
       -0.042054873 -0.048581336 0.116662554 0.033597447
000130 c6 05 8b bd eb c5 8c 3d 32 ea 17 3d 58 1b 51 bd
       -0.067882106 0.06873687 0.03708858 -0.051051468
000140 bd 67 05 3d 52 53 c7 b9 84 15 92 bd 49 66 cf bc
       0.032569636 -0.00038018316 -0.0713301 -0.025317328
000150 2c 85 e4 3c 6c 7c 3e 3d 5d e6 c2 3d fb 4b f9 bc
       0.027895533 0.046505377 0.095165946 -0.030431738
000160 6e e6 80 bd e9 b9 69 3d 57 e0 f6 bc b2 91 4d 3d
       -0.06293951 0.057062063 -0.03013627 0.050187774
000170 86 d6 20 bd 59 d4 94 bd f9 1e c3 3d 14 38 6b bd
       -0.039267085 -0.072670646 0.09527392 -0.057426527
000180 b7 0e 27 bc 20 9d db bc c6 39 a4 bd b5 bd c3 3c
       -0.010196379 -0.026808321 -0.08018832 0.02389417
000190 d0 18 4f 3d 87 d7 7f bd 27 67 21 3d fe 5d 5d bd
       0.050560772 -0.062461402 0.039405014 -0.054044716
0001a0 d5 44 7a bd 2a 9a 00 bd 88 e2 af 3d 55 a2 03 3c
       -0.0611008 -0.031397022 0.08588129 0.008034308
0001b0 27 18 00 3c 0c 7e d2 3c 54 52 97 3d 25 ef 4e ba
       0.007818258 0.02569487 0.0738875 -0.00078939117
0001c0 41 0f ae bd c7 44 da 3d 55 d9 c7 3c c3 60 57 3d
       -0.08499003 0.106576495 0.024395624 0.052582514
0001d0 33 6a 49 3c 4a d9 aa bb 35 bb 9d bc 45 0e 34 bd
       0.012293386 -0.005213891 -0.019254306 -0.04395892
0001e0 09 e6 67 3d 60 8e a6 bd a4 e0 42 bd ec 7d a1 bd
       0.056615863 -0.081326246 -0.047577515 -0.07885346
0001f0 94 82 78 bd 00 67 b2 bc d3 05 7d bd e4 62 c5 bc
       -0.060671404 -0.02177763 -0.061773133 -0.024095006
000200 7c f1 04 bd 12 9a 5a bc 38 b7 c1 bd 1f 8f c1 bb
       -0.03245686 -0.013342397 -0.09458774 -0.005906954
000210 b8 19 e9 bc 7a e1 f0 3c 76 98 8e bb 4f cd 16 3c
       -0.028454646 0.02940439 -0.004351671 0.009204223
000220 d4 a3 1e bd ba 1f 0c bd c1 64 54 3c 68 83 47 3c
       -0.038730457 -0.034209944 0.012963475 0.012177326
000230 1e 5a 06 bd a0 bb 2f 3d ff ac cb bd ea 9c 17 bc
       -0.032800786 0.042903543 -0.09945106 -0.00925372
000240 c0 9f aa bd 8f 0f 6e bd 02 7a 56 3d d7 95 b9 bc
       -0.08331251 -0.058120307 0.05236245 -0.022654457
000250 eb b5 bb bd 4c 7e 57 bc 36 27 b9 bd e7 11 7b bc
       -0.091655575 -0.01315267 -0.09040682 -0.0153240925
000260 72 dd cd bd 06 40 6f bc 34 59 8c bd 97 8c e9 3a
       -0.10052003 -0.014602667 -0.06852952 0.0017818388
000270 dd 04 97 bd be 7f 63 bd ef 34 f3 3c a0 a6 37 3d
       -0.073739745 -0.055541746 0.029688327 0.04483664
000280 c7 26 18 3c 7b c3 ba bd c4 15 a6 bd 5a c9 90 bb
       0.009286589 -0.09119316 -0.0810962 -0.004418534
000290 95 d4 02 3c 0b 1f 95 bd f7 e2 ca 3c 68 3f cb bd
       0.007985254 -0.072813116 0.024766428 -0.09924203
0002a0 92 63 2e 3c 31 8f 4b bd 16 a2 17 3d f8 d2 9e bc
       0.010643857 -0.049697105 0.03701981 -0.019387707
0002b0 8e 86 20 3c 31 26 a9 3d 3b 7b 48 3c 56 44 b3 ba
       0.009797705 0.082592376 0.012236412 -0.0013676982
0002c0 f8 33 4c 3d f9 1c a2 bd dc 73 c0 bd 23 af b1 bd
       0.04985425 -0.07915682 -0.093970984 -0.08675983
0002d0 9c eb 74 bd 14 98 91 bd b3 88 f1 bd 4f 3d 7f 3d
       -0.059795007 -0.07109085 -0.117936514 0.062314328
0002e0 70 89 4b bd a3 fd 1c bd a7 5f 2b 3d f4 82 ea bd
       -0.049691617 -0.038327824 0.041839268 -0.114507586
0002f0 53 9c 3e bd f0 82 1a bd 4a e5 8c bd b3 63 89 bd
       -0.0465358 -0.037722528 -0.06879671 -0.06708469
000300 b3 9e 75 3c a7 6c 31 3d 82 f9 89 bc 85 31 52 3d
       0.01499145 0.04331651 -0.016842607 0.051316757
000310 33 4f 8a 3d a3 75 14 3d 76 33 e2 bd 49 59 46 3d
       0.06753387 0.036245 -0.11044972 0.048424993
000320 ad 6b 8f b9 a0 19 5c 3d 69 41 ed bd ff cb 42 3d
       -0.0002735531 0.053735375 -0.115847416 0.047557827
000330 33 45 9d bd 29 3e 04 3d 0d d6 e3 bc 55 94 77 bd
       -0.07679214 0.032285843 -0.027812028 -0.060444195
000340 38 7c c6 bd ae 0d be bd 22 1e 50 bd ff c9 5d bd
       -0.096916616 -0.09279953 -0.050809987 -0.054147717
000350 d1 16 23 bd e9 16 4f 3d db 74 91 bd 65 12 81 bd
       -0.03981668 0.05055896 -0.071023665 -0.063023366
000360 0b 91 e7 bc 48 5b 80 bc 3a bf 8b 3d 8c e5 79 3d
       -0.028267404 -0.015668526 0.06823583 0.06100993
000370 5f fd e8 3c 5e 2a ca bd 3b d6 cd bd 0a 2b 97 3d
       0.02844113 -0.09871362 -0.10050627 0.07381256
000380 a7 13 f9 bd 08 94 c3 bd 66 7c 5b 3c 01 10 b0 3c
       -0.121619515 -0.09549719 0.013396358 0.021492006
000390 13 fe c6 bd 6d 09 b4 bd fc 60 79 3d 1b cc db 3c
       -0.097164296 -0.0879086 0.060883507 0.026830724
0003a0 d3 bc 4c bd f1 c7 d6 bb 68 94 bb bd bd 16 b4 bd
       -0.049984764 -0.0065545966 -0.091591656 -0.087933995
0003b0 fe a4 a8 3d 7d 50 dd bd db 92 99 bd ac ab 7a 38
       0.08234595 -0.108063675 -0.074987136 5.9764527e-05
0003c0 a7 a4 09 bd 3b 3a 1c bb 4c a3 4b 3d e5 80 e4 bd
       -0.03360429 -0.002383842 0.04971628 -0.11157397
0003d0 23 fd 9b 3d c3 66 74 bd 81 ea af bd 2f 34 b9 bb
       0.07616641 -0.059668314 -0.0858965 -0.0056519727
0003e0 cc c3 27 bd f1 24 4c 3d 74 13 9d bd be 9e 6f bc
       -0.04095821 0.049839918 -0.07669726 -0.014625249
0003f0 37 01 9d bd 92 a6 aa 3c 3d 03 e8 3a 5e 34 36 3d
       -0.07666247 0.02083138 0.001770116 0.044483535

weight f4 [32, 128]
000000 3f 1e 70 3d d8 a0 35 bd 92 3d 5c bb 2e 59 95 bd
       0.058622595 -0.044342846 -0.0033606035 -0.072924
000010 08 95 f5 3a 98 17 9d bd 4d 42 c0 bc e3 a3 77 bc
       0.0018736431 -0.07670516 -0.023469115 -0.015114757
000020 46 56 62 bd e0 71 73 bd 00 d4 bc bd 3c 38 26 3d
       -0.055258058 -0.05943477 -0.09220123 0.040580973
000030 c0 4b a4 bd cd 24 8f 3d 17 d0 d8 bc f2 ba 12 3d
       -0.08022261 0.06989441 -0.026466412 0.035822816
000040 db 7b 80 3d 57 a8 53 3d 04 f2 a5 bd d7 6d ed bd
       0.062736236 0.051674213 -0.081028014 -0.11593216
000050 24 34 46 3d 44 ce 0f 3d b3 1f e7 3c 0e a0 0a bd
       0.04838957 0.03510882 0.028213358 -0.033844046
000060 b7 0a ac bd 0e 7a fa bc ac a9 86 3c fc 15 4b 3d
       -0.08400481 -0.030575778 0.016438328 0.049581513
000070 ae 65 86 3d c4 dc 75 bc 3c 70 ac bd 86 77 66 bd
       0.065623626 -0.015006248 -0.084198445 -0.05626633
000080 b6 7f 22 bd ea 18 12 bd cc a9 3e 3d d1 3f af 3c
       -0.039672576 -0.03566829 0.04654865 0.021392735
000090 95 8f dc 3d 35 ac 77 3d f1 af a6 3d 1f e5 c9 bd
       0.107695736 0.060466964 0.08139027 -0.098581545
0000a0 3d 97 87 3d 38 56 e9 bc 36 74 07 3d d1 ca 53 3d
       0.06620643 -0.028483495 0.03306981 0.051707093
0000b0 73 0b f1 bd ab 50 a7 bd bb 59 78 bd 45 d2 ef bb
       -0.11769762 -0.08169683 -0.06063245 -0.0073187673
0000c0 fe ca 86 3d c5 7f 22 bd e6 de c4 3b fd 5a 1e bc
       0.065816864 -0.03967263 0.006008017 -0.009665248
0000d0 96 5a ce 3c cc 40 d5 bc e2 a3 59 bd 4e 4a 9d 3c
       0.02518968 -0.026031874 -0.053134806 0.01920047
0000e0 cd ab 00 3e 89 db 54 bc 50 d6 50 3d 41 c3 df 3d
       0.12565537 -0.012991794 0.050985634 0.109259136
0000f0 4a 3c b3 bd 9f c5 f6 bb f8 33 8b 3c 9b 22 a8 3d
       -0.087517336 -0.0075308825 0.016992554 0.082097255
000100 43 10 8b bd e6 b2 97 3d 77 43 13 3d f9 24 c3 3d
       -0.06790211 0.07407169 0.03595301 0.09528536
000110 ce a1 a2 3d 01 62 05 3e 4e f9 9c bc 68 1c 60 bd
       0.07941018 0.13025667 -0.019161846 -0.05471459
000120 44 5b dc bc 39 c7 b7 bd 13 08 4f 3c fd c8 84 bd
       -0.026898988 -0.089735456 0.012636202 -0.06483648
000130 12 df 0c 3b e2 62 af bd d4 3e e4 3d ac 21 d2 3d
       0.0021495265 -0.08563782 0.11144796 0.10260329
000140 16 12 b7 3c bb 5d 36 bd 1c ad dc bd e6 20 94 3d
       0.022347491 -0.044522982 -0.107752055 0.072328374
000150 06 d4 11 be cb 75 32 bd 3d 7c c4 bb cb 3f 8f 3d
       -0.14241037 -0.043569367 -0.0059962557 0.069945894
000160 3b fd c6 bc c7 4e 1a bd d0 48 b6 39 00 c8 09 3e
       -0.024290672 -0.037672784 0.00034767995 0.134552
000170 a9 ff 28 3d e1 f7 96 bb 71 fc 84 bd 5b fb 10 3c
       0.04125944 -0.004607186 -0.06493462 0.00884899
000180 82 89 ea bc c0 ec b1 bc fa ee 99 bb 9a d9 5d bd
       -0.028630022 -0.021719337 -0.0046976777 -0.0541626
000190 c3 25 22 bd c4 49 0b bd c4 43 5d 3b 4c df 9b 3d
       -0.039586794 -0.034005895 0.0033762315 0.0761095
0001a0 00 fa 4d bc 04 af d2 3d 39 e7 af bd ed 07 2b 3d
       -0.012571812 0.10287288 -0.08589024 0.041755605
0001b0 67 c3 1f 3d 9e da c4 3a 50 b1 9c bd b0 75 a8 bc
       0.03900471 0.0015018766 -0.07651007 -0.02056393
0001c0 8c 86 94 bb 85 1f 33 3d f7 bd 04 be 19 3a 90 3d
       -0.004532641 0.04373123 -0.12963091 0.07042331
0001d0 56 01 ee 3c 1e 3a 48 bc cb 1e 98 3d 22 31 6b bc
       0.029053371 -0.0122208875 0.07427748 -0.014354976
0001e0 bc e3 ab 3d d2 48 af ba d0 4e ad 3a 58 6a ca 3c
       0.08393046 -0.0013373143 0.001322234 0.024708912
0001f0 c3 bd 32 bc cd 8c 91 3d 9d 97 cd bd d7 de 6d 3d
       -0.0109095005 0.07106934 -0.100386836 0.058073845
000200 e1 af a3 3d 07 7c 5e bc 15 97 94 3d ed 54 b5 bd
       0.079925306 -0.013579375 0.07255379 -0.08854089
000210 89 d4 6f 3d 26 ce c3 bd 08 71 da 3b b2 66 00 3d
       0.0585523 -0.09560804 0.0066663064 0.031347938
000220 e5 8a 8f bd 31 e2 9f bd d9 9e 63 bd 28 74 53 3d
       -0.07008914 -0.078068145 -0.05557141 0.051624447
000230 5a 5d 58 bd 81 bd 1e 3d 7b c6 a4 3d 5e 0d 51 bd
       -0.052823402 0.038754944 0.0804567 -0.05103814
000240 7e 1e 40 3d b0 9b fb 3b 01 e3 58 3b 4c 3a 33 bd
       0.04690408 0.0076784715 0.003309429 -0.043756768
000250 ac 58 29 3d 79 b3 99 3d 8a ff 96 bc 2f 13 a3 bd
       0.04134433 0.07504935 -0.018432397 -0.07962643
000260 40 6e a3 3a 55 18 21 bd cb c5 0a 3d 33 35 51 bc
       0.001246877 -0.039329845 0.033880036 -0.012769031
000270 52 22 7b bb 60 12 00 bd 49 f5 b5 bd fa 27 75 bd
       -0.0038320017 -0.031267524 -0.08884675 -0.059852578
000280 72 c9 e7 3c 0e 1c 16 bd 71 83 98 bd 2f 1b 2d bd
       0.028294299 -0.03664785 -0.074469455 -0.042262252
000290 cb c9 bd bc e0 c6 3b bd 7e 3e 91 3c 01 a1 b6 bd
       -0.023167511 -0.04584396 0.017729994 -0.08917428
0002a0 59 e6 8f 3d 1f 98 38 3d 8c b0 bb 3c 75 6f 2e 3d
       0.07026357 0.04506695 0.022911333 0.042586762
0002b0 5e 23 a1 bd d9 f2 aa bc 09 be 90 3d dc 9e aa 3c
       -0.07868074 -0.020867752 0.07067496 0.020827703
0002c0 17 6d d5 3b 17 b5 6a bd 3c cd 6e 3d 1d a0 1d bd
       0.0065132487 -0.057301607 0.058301196 -0.038482774
0002d0 a6 43 7e bd 50 53 92 bd b3 7c fe 3c c7 75 dd bc
       -0.062076233 -0.07144797 0.03106532 -0.0270337
0002e0 b9 49 32 3d 65 66 0e bc e5 1e f8 bc 54 64 b4 3d
       0.04352734 -0.008691405 -0.03028817 0.088081986
0002f0 63 9a 33 bd 4f f9 3e 3c 4b 4f 82 3d 4f 7c 5c bc
       -0.043848407 0.0116561195 0.0636278 -0.013457372
000300 94 85 3a 3d 8f 1d 5e bd 31 dc a0 bd 93 be 75 bd
       0.045537546 -0.054227408 -0.07854498 -0.0599962
000310 2e f5 7b 3c c0 33 59 3d 72 87 a3 bd 60 22 0b 3d
       0.01537828 0.05302787 -0.079848185 0.03396833
000320 1b 17 a1 3d 76 67 cf 3c f2 42 0e bc 11 b7 48 bd
       0.07865735 0.025317889 -0.008682953 -0.04900271
000330 b4 6b 60 bd 1f 8f bc bd bc ee 43 bd 2f a5 ed 3c
       -0.054790214 -0.09206986 -0.047835097 0.02900943
000340 12 c1 5b bb 71 e5 9b bc 84 e1 6a 3c b4 4d 9b 3d
       -0.0033531827 -0.019030305 0.014335994 0.0758318
000350 bc e6 c2 bd 2c ac d0 bc 8e a7 09 bd cc 88 b6 3d
       -0.09516665 -0.025472723 -0.03360706 0.08912811
000360 f9 43 3d 3d f3 f2 97 bd 0b a3 ac 3c 57 55 b0 3d
       0.046207402 -0.07419386 0.021073839 0.08610027
000370 84 5b c4 3d 05 61 f3 bc fa 5c 9c 3b c4 7f 28 bc
       0.09587768 -0.029709348 0.004771826 -0.010284368
000380 f2 52 16 bd 7e f7 d5 3c 80 48 9e bd 59 f8 30 bd
       -0.036700197 0.02611899 -0.07728672 -0.043205593
000390 a3 08 46 bc 3a 06 ae bd 27 29 b9 3c ce 43 af bc
       -0.01208702 -0.084972814 0.02260263 -0.021394636
0003a0 2b c3 82 bd 02 cf 46 3d e1 b1 60 bd 75 a7 79 3d
       -0.063848816 0.04853726 -0.05485714 0.060950715
0003b0 d4 43 9b 3c 1b 73 fc 3d 4a e3 6c 3d d9 bf d8 3d
       0.018953241 0.12326642 0.057833947 0.10583467
0003c0 3e b1 4b 3c 3d 5e 67 3c f4 aa 37 bc ce 23 d4 3c
       0.012432395 0.014121589 -0.011210192 0.02589598
0003d0 af bd 00 bd 19 28 a1 bc 1a b1 db 3c 6f dc b8 3d
       -0.031430896 -0.01967244 0.026817847 0.09026419
0003e0 4f fb 16 bd 26 45 11 bd d4 2a 6b bc bf af f1 3c
       -0.03686076 -0.035466336 -0.014353473 0.029502748
0003f0 bd 52 e6 bc 36 6c 08 bd f4 c4 b8 bd 0a 2f b0 3d
       -0.028115625 -0.033306323 -0.09021941 0.08602722

bias f4 [32]
000000 63 cf 0e bd 56 c3 63 bd 7b 94 0d bd 4f cb 0b bc
       -0.034865748 -0.05560621 -0.03456543 -0.008532359
000010 9e 22 12 3d c2 fe 5b 3d 52 18 57 3d 5c 15 48 bd
       0.035677545 0.053709753 0.052513428 -0.048848495
000020 6f 1e ef 3b f1 58 68 3d ea 89 a0 3d 95 8e 5c bd
       0.007297329 0.056725446 0.07838805 -0.053846914
000030 ce a8 35 bc a8 63 57 3b 5e cc ae 3d 6e 45 95 bb
       -0.011087609 0.0032865796 0.08535074 -0.004555396
000040 79 04 ad 3d 45 40 ed 3c 5d f7 a0 bd 15 ad 6a 3d
       0.08448119 0.02896131 -0.07859681 0.05729397
000050 5b 4b f1 ba 32 f1 1b bc ba 72 62 3d 95 30 7b 3d
       -0.0018409299 -0.009517955 0.055285193 0.06132563
000060 de d0 1a 3d d5 58 40 3d cc 2f 22 bc b0 be 76 3d
       0.037796848 0.046959717 -0.009899091 0.060240448
000070 1b 90 63 be 4b 1d 38 3d 28 d4 59 3d e2 85 2a be
       -0.2222294 0.04494981 0.053180844 -0.16652635

weight f4 [1, 32]
000000 20 57 20 3d 04 c2 54 3d 8c b8 ad bd 2c ca b0 3d
       0.03914559 0.05194284 -0.08482465 0.08632311
000010 3f 99 ab 3d 46 0a 18 3d 7d 25 ee bd b7 4b 9c bd
       0.08378839 0.037119173 -0.11628244 -0.07631629
000020 ae df ba 3d dd f2 7b 3d 43 50 31 bd 56 2b 64 bd
       0.09124695 0.06151091 -0.043289434 -0.05570539
000030 d2 7e f6 3c 25 eb 36 bd bb 9a a9 bc 19 ff de 3c
       0.03008977 -0.044657845 -0.020703664 0.02722125
000040 d8 03 49 bc 59 5b 10 bd 39 c5 b4 bd 3d a9 c2 3c
       -0.012268983 -0.035243366 -0.0882668 0.02376234
000050 26 51 5e 3d cd ba 94 bd 6c 8d 36 3d f4 53 b2 3c
       0.054276608 -0.07262192 0.044568464 0.021768548
000060 4e f1 d9 3c 14 67 7d bd 3c 21 ad bd 44 d5 3c bd
       0.02660432 -0.06186588 -0.084536046 -0.046101823
000070 ea 8d 17 be f7 b6 ea bd f0 f4 c5 3d fa a6 b5 3c
       -0.1480023 -0.11460679 0.09665859 0.022174347
