data/Ontario/ontario_lstm.pt (torch, 338353 bytes, 7 tensors)

weight_ih_l0 f4 [512, 24]
0.06192199 0.07148943 -0.055868365 0.021126015 -0.030061666 -0.04039309 -0.05613017 -0.08065478
-0.0009905633 -0.022525594 -0.034103803 0.08007954 -0.09037238 0.061265487 -0.091230914 -0.06317955
-0.07662909 -0.031691235 0.03876664 0.06637908 0.041863438 -0.06768961 0.077694364 0.030948978
-0.061157133 -0.06936262 -0.0651839 -0.082886316 0.075388476 -0.07882426 0.07873468 0.059849206
-0.030953925 0.061624724 0.009158505 -0.010185388 -0.08140003 -0.068240315 -0.045327626 0.08979727
-0.041107304 0.057659086 0.028543623 0.014574854 -0.07366428 -0.030556582 0.050481964 -0.062179193
-0.008232584 0.07078319 0.010848328 -0.012338004 0.016196514 -0.0034537509 0.039945498 -0.0058795605
0.035462707 -0.0033991465 0.0153125 0.046649564 -0.015292311 0.00063675013 0.04309231 -0.07579819
0.034536365 0.038250953 -0.0581425 -0.070303835 -0.054385483 -0.01919855 -0.038244035 -0.042631775
0.020678252 -0.017278766 0.038670715 0.010628648 0.032670688 -0.06000846 -0.06782099 -0.04333212
-0.0025529705 -0.08597758 0.019968607 -0.058128055 -0.005356529 0.048295405 -0.054606974 -0.07568851
-0.085958414 -0.0016775066 0.017634427 -0.061791807 0.062223036 -0.0019364636 -0.024626061 -0.06360263
-0.07884089 0.04419945 0.031715762 0.02479434 -0.06662086 -0.03625593 -0.015959974 -0.017852986
-0.05434429 -0.078807175 0.008354312 -0.04654013 0.026269343 0.06422799 0.06285456 0.03475559
0.06155437 -0.029276393 0.053976525 -0.088631086 -0.013400098 -0.038285196 -0.0668692 -0.064340085
0.02385557 -0.040256392 -0.0645252 -0.07630379 -0.08402722 -0.013715124 -0.045985714 -0.00082188426
-0.03925085 -0.05701868 -0.0030629751 -0.043020703 -0.023440264 -0.055317584 0.019463101 0.072549775
-0.03141126 -0.012158849 0.009250461 -0.036987737 0.049402583 0.040807486 0.0045645437 0.056440506
0.041084956 -0.0787642 0.07326473 0.039350726 -0.0008280623 -0.07828305 -0.08480702 0.02750374
0.01003305 -0.039364275 0.06513953 0.010780183 -0.066391036 0.06845836 -0.07210537 0.036319837
0.061014257 0.02350036 0.06369982 0.044363353 0.03479553 -0.06462664 0.008617097 0.081743225
0.08646048 -0.040585272 -0.07813618 0.07800967 -0.020197114 0.00017113917 0.08450814 0.039716143
-0.032159124 -0.044682465 0.055912063 0.014891045 -0.030417252 0.067536995 -0.029899443 0.0146544995
0.041190196 -0.074204914 0.01751015 -0.01757204 0.06705711 -0.045470305 0.038830504 -0.02694259
0.005636889 -0.048291165 0.03247928 -0.03041548 -0.0821301 0.039967358 -0.030113215 -0.013828729
0.003424195 -0.039623942 0.050834414 0.059894234 0.0011960905 -0.034266654 0.06949881 -0.00035274334
0.037264206 -0.006092442 0.07882439 0.09137077 0.050911617 0.06729054 0.05356456 -0.001814449
-0.07890605 0.018206155 -0.031592317 -0.038882814 -0.023734791 0.09358828 -0.057127353 -0.030852731
0.08188593 0.012471574 0.015661493 -0.06077528 -0.020347161 -0.05410165 -0.06248829 -0.024384703
0.037145942 0.047244254 0.047910843 0.027544543 -0.049545217 -0.032125372 -0.048816398 0.068454824
0.04405842 0.0038316355 0.05609736 -0.037976082 0.072949946 -0.07474078 -0.051008355 0.018426273
0.0233317 0.06305948 -0.09099255 -0.028900338 0.07717338 -0.075643875 0.02545933 0.055076726
00000000: eaa1 7d3d 0d69 923d 3ad6 64bd 7710 ad3c
00000010: e243 f6bc 3a73 25bd c0e8 65bd 552e a5bd
00000020: cad5 81ba 9887 b8bc 6eb0 0bbd be00 a43d
00000030: 2815 b9bd 85f1 7a3d 46d7 babd 4864 81bd
00000040: b6ef 9cbd abce 01bd c5c9 1e3d c1f1 873d
00000050: ff78 2b3d daa0 8abd 391e 9f3d b688 fd3c
00000060: e77f 7abd fd0d 8ebd 237f 85bd 4dc0 a9bd
00000070: 4665 9a3d 9d6e a1bd a63f a13d 7124 753d
00000080: 1693 fdbc 356a 7c3d 8e0d 163c 9de0 26bc
00000090: 0fb5 a6bd 94c1 8bbd 76a9 39bd a2e7 b73d
000000a0: 2260 28bd ef2b 6c3d 51d4 e93c 5ecb 6e3c
000000b0: 4cdd 96bd cc51 fabc 2dc6 4e3d 9caf 7ebd
000000c0: f6e1 06bc c7f6 903d 2fbd 313c 5725 4abc
000000d0: 8dae 843c 5358 62bb e49d 233d 54a9 c0bb
000000e0: 5841 113d 37c4 5ebb 48e1 7a3c 9d13 3f3d
000000f0: 9a8c 7abc 94eb 263a 9081 303d 153c 9bbd
00000100: 0176 0d3d 08ad 1c3d d526 6ebd 75fb 8fbd
00000110: 50c3 5ebd 4746 9dbc c7a5 1cbd a89e 2ebd
00000120: 7065 a93c 338c 8dbc 2f65 1e3d c823 2e3c
00000130: b3d1 053d 6ecb 75bd bbe5 8abd 057d 31bd
00000140: bd4f 27bb 0315 b0bd 3495 a33c af17 6ebd
00000150: d285 afbb 67d1 453d 90ab 5fbd 9402 9bbd
00000160: f70a b0bd c8df dbba 1376 903c 6819 7dbd
00000170: 95dd 7e3d f0d0 fdba 98bc c9bc 1842 82bd
00000180: 5577 a1bd 7c0a 353d 63e8 013d 801d cb3c
00000190: 8470 88bd 1981 14bd 7ebe 82bc 6d40 92bc
000001a0: 1e98 5ebd a865 a1bd 86e0 083c dda0 3ebd
000001b0: ce32 d73c f789 833d e4b9 803d e15b 0e3d
000001c0: 6f20 7c3d 0cd5 efbc 7d16 5d3d 3784 b5bd
000001d0: 168c 5bbc f0d0 1cbd b8f2 88bd bcc4 83bd
000001e0: c26c c33c e3e3 24bd ca25 84bd 2945 9cbd
000001f0: 7716 acbd 66b5 60bc 845b 3cbd b873 57ba
00000200: 80c5 20bd 6b8c 69bd 32bc 48bb 7a36 30bd
00000210: cc05 c0bc b194 62bd 1571 9f3c fa94 943d
00000220: 18a9 00bd e935 47bc 3f8f 173c 7480 17bd
00000230: 5d5a 4a3d c025 273d 2b92 953b 292e 673d
00000240: b348 283d 204f a1bd d20b 963d 3a2e 213d
00000250: 5212 59ba dd52 a0bd 4eaf adbd 864f e13c
00000260: a961 243c 6f3c 21bd e067 853d 5d9f 303c
00000270: 06f8 87bd e633 8c3d fbab 93bd 1cc4 143d
00000280: 16ea 793d d483 c03c 0d75 823d 59b6 353d
00000290: c285 0e3d f95a 84bd b92e 0d3c fe68 a73d
000002a0: 3112 b13d be3c 26bd dd05 a0bd 89c3 9f3d
000002b0: 6b74 a5bc d273 3339 9b12 ad3d 65ad 223d
000002c0: 49b9 03bd f604 37bd 0c04 653d 92f9 733c
000002d0: 9a2d f9bc d650 8a3d adef f4bc 6d19 703c
000002e0: 0db7 283d bff8 97bd 7271 8f3c 3df3 8fbc
000002f0: 3d55 893d 123f 3abd bc0c 1f3d b5b6 dcbc
00000300: a7b5 b83b f5cc 45bd fe08 053d e229 f9bc
00000310: d333 a8bd d0b4 233d fdaf f6bc e591 62bc
00000320: 7668 603b b74c 22bd bf37 503d a853 753d
00000330: 23c6 9c3a 315b 0cbd 6455 8e3d 69f0 b8b9
00000340: 5aa2 183d 1ca3 c7bb af6e a13d 9920 bb3d
00000350: b388 503d 9fcf 893d 8366 5b3d ced2 edba
00000360: 7f99 a1bd 1325 953c f266 01bd 9643 1fbd
00000370: 776f c2bc 36ab bf3d 5ffe 69bd debe fcbc
00000380: cfb3 a73d 9355 4c3c 884c 803c 80ef 78bd
00000390: 17af a6bc b199 5dbd b9f3 7fbd 6ec2 c7bc
000003a0: 5826 183d 3183 413d 293e 443d 18a5 e13c
000003b0: edef 4abd e595 03bd b4f3 47bd 0b32 8c3d
000003c0: 9a76 343d 2d1c 7b3b 58c6 653d cf8c 1bbd
000003d0: c866 953d b211 99bd 23ee 50bd b2f2 963c
000003e0: 1f22 bf3c 5425 813d 4d5a babd 67c0 ecbc
000003f0: 140d 9e3d 2deb 9abd 1690 d03c 2298 613d

weight_hh_l0 f4 [512, 128]
-0.077833936 0.06800038 0.07522044 0.06061798 0.013830346 -0.061571997 -0.023721818 0.06036607
0.091170296 0.056312263 -0.011791246 0.034469776 0.0054727006 0.04766537 -0.03828215 0.09573089
0.01689358 -0.061171133 -0.030590596 -0.03681575 -0.061709136 -0.037237197 0.0617352 -0.07714831
-0.051446907 -0.06127883 0.042036895 -0.09340031 -0.0069325482 -0.076243296 -0.040042464 0.019245524
-0.060352232 -0.08193391 -0.020800626 0.034908928 0.04391903 0.043828443 -0.050836295 -0.0064369733
0.026606044 0.011931953 -0.06141043 0.01670005 -0.027037881 -0.011677655 0.013405914 -0.043258443
0.06171657 -0.053486083 -0.07864606 0.080681264 0.033638973 0.011893587 0.003545869 -0.010429018
0.040128548 -0.051100206 -0.07388725 0.08022816 -0.022630792 0.071143165 -0.07690574 -0.013066065
0.05823264 0.05281227 -0.03418823 -0.08031222 0.07930916 0.052543342 -0.035774335 -0.060688034
0.015176453 -0.055910893 0.06978501 0.050118133 0.06919507 0.06852419 -0.023369854 -0.054293673
-0.052969184 0.07756016 -0.060090773 -0.055065494 0.027926723 -0.07110165 -0.021948824 0.0466319
-0.022458121 0.054321613 -0.063795015 -0.07145515 -0.041202623 0.07921482 0.020825014 0.09640778
0.012925388 -0.051231362 -0.0029140776 -0.053996712 -0.020938577 0.08142479 -0.06564347 0.032023028
0.016533602 -0.008682433 0.067935504 -0.066709846 0.06079262 0.08711346 0.07186636 0.055641156
0.09442703 -0.03036595 -0.0059126397 -0.018285686 0.008352325 -0.073455855 0.053557903 -0.030765597
0.031595338 -0.0018430497 -0.018111026 -0.055225916 0.03368747 -0.025555689 0.035727907 0.05528248
-0.033249963 -0.046395138 -0.086585544 0.0017541859 -0.037223823 -0.045529846 0.07591723 0.00067071116
-0.07010913 -0.03807796 0.063823275 0.009771604 -0.047822982 0.09338617 -0.041595273 0.073174
0.041232288 0.032620024 -0.024626473 0.036218997 0.07937486 -0.020893442 -0.060814902 0.049892362
-0.03798063 -0.051329277 0.00834673 -0.086579464 0.06244595 -0.08188026 -0.056072578 -0.017790405
0.076829076 -0.02050563 -0.022844734 -0.00052943354 0.06531595 -0.02709901 -0.030637372 0.047679204
0.07984567 -0.05668697 0.042174045 0.054860722 0.06524893 -0.051089283 0.0071533364 0.083544634
-0.006427858 -0.00044785615 0.014511109 0.029900385 0.035100315 -0.01052304 -0.0060849153 0.09087998
-0.086185396 -0.008502425 -0.036664933 0.023348888 0.07477388 0.05000769 0.011081281 -0.03934382
0.06790222 -0.052447792 0.05985462 0.04445847 -0.019774701 0.038712412 -0.04338295 0.092082255
-0.087131776 0.023571102 0.014971927 -0.05247263 0.027519628 0.041791867 0.019003801 0.08724492
-0.04339646 0.05224432 -0.005607466 0.0021915592 0.06771294 0.018820994 -0.045270942 -0.030848995
-0.017942196 0.090415135 -0.063665055 0.02243242 0.07226664 0.048875406 0.08425188 -0.0124649815
-0.010413157 0.00010048589 -0.008622188 -0.05772528 -0.087773 -0.037275445 0.07388862 0.006044941
0.083247006 -0.067319214 -0.02892216 -0.016055088 -0.019684939 0.07153588 0.0927264 0.040399026
0.078670435 0.055516217 -0.06601075 0.048748285 0.036167108 0.028981104 0.05509347 -0.07699751
-0.06004728 -0.014361764 0.07239297 -0.028070642 -0.020996315 -0.065532155 -0.014010915 -0.028131207
00000000: 6667 9fbd c943 8b3d 2d0d 9a3d 8f4a 783d
00000010: ad98 623c eb32 7cbd 4254 c2bc 6a42 773d
00000020: 7eb7 ba3d b0a7 663d 1230 41bc 2e30 0d3d
00000030: 5754 b33b c33c 433d becd 1cbd 8f0e c43d
00000040: 6864 8a3c 958e 7abd 2199 fabc 1dcc 16bd
00000050: b8c2 7cbd 0886 18bd 0dde 7c3d efff 9dbd
00000060: feb9 52bd 83ff 7abd e12e 2c3d a948 bfbd
00000070: 6e2a e3bb 7225 9cbd 9103 24bd caa8 9d3c
00000080: e733 77bd f7cc a7bd 1366 aabc aafc 0e3d
00000090: 71e4 333d 7485 333d b839 50bd 3fed d2bb
000000a0: ebf4 d93c 3d7e 433c 8189 7bbd 8bce 883c
000000b0: 8c7e ddbc a353 3fbc 7ba4 5b3c c42f 31bd
000000c0: 84ca 7c3d 3914 5bbd 2f11 a1bd 383c a53d
000000d0: 05c9 093d 52dd 423c cf61 683b 79de 2abc
000000e0: d55d 243d 734e 51bd 3352 97bd a94e a43d
000000f0: 3664 b9bc 82b3 913d c280 9dbd 0c13 56bc
00000100: 5985 6e3d ae51 583d f508 0cbd bc7a a4bd
00000110: d76c a23d b037 573d 1c88 12bd 0494 78bd
00000120: a8a6 783c d202 65bd 71eb 8e3d ac48 4d3d
00000130: 25b6 8d3d 6956 8c3d 2372 bfbc 0b63 5ebd
00000140: 37f6 58bd dcd7 9e3d be21 76bd 5b8c 61bd
00000150: 95c6 e43c be9d 91bd 05ce b3bc 1701 3f3d
00000160: 18fa b7bc 5780 5e3d f6a6 82bd 1457 92bd
00000170: 15c4 28bd 613b a23d 3899 aa3c 7171 c53d
00000180: 02c5 533c fad7 51bd 1cfa 3ebb a82b 5dbd
00000190: 6187 abbc 0ac2 a63d 1570 86bd 942a 033d
000001a0: 7a71 873c c340 0ebc c521 8b3d 2c9f 88bd
000001b0: af01 793d 8b68 b23d ac2e 933d fbe7 633d
000001c0: f562 c13d 03c2 f8bc d1be c1bb ddcb 95bc
000001d0: 31d8 083c 0670 96bd 885f 5b3d 2208 fcbc
000001e0: 1d6a 013d 7c92 f1ba 935d 94bc 9234 62bd
000001f0: dffb 093d 2a5a d1bc 6d57 123d e26f 623d
00000200: 1d31 08bd d408 3ebd c353 b1bd b6ec e53a
00000210: 0278 18bd 817d 3abd 7e7a 9b3d aad2 2f3a
00000220: 6095 8fbd a3f7 1bbd c7b5 823d 1419 203c
00000230: 08e2 43bd 4041 bf3d ce5f 2abd 40dc 953d
00000240: 30e3 283d 939c 053d 75bd c9bc 5f5a 143d
00000250: 498f a23d b928 abbc 0c19 79bd ef5b 4c3d
00000260: 9491 1bbd a63e 52bd b9c0 083c 9350 b1bd
00000270: 53c7 7f3d d6b0 a7bd 5cac 65bd 2fbd 91bc
00000280: 9058 9d3d 6cfb a7bc e124 bbbc afc9 0aba
00000290: 5ec4 853d befe ddbc 3afb fabc 454b 433d
000002a0: 2086 a33d 9930 68bd b1be 2c3d a3b5 603d
000002b0: 3ba1 853d ff42 51bd 8966 ea3b 7319 ab3d
000002c0: c8a0 d2bb 3cce eab9 01c0 6d3c a7f1 f43c
000002d0: 59c5 0f3d d468 2cbc f863 c7bb 481f ba3d
000002e0: f881 b0bd c14d 0bbc f82d 16bd 2b46 bf3c
000002f0: 0c23 993d ddd4 4c3d 438e 353c fc26 21bd
00000300: 5210 8b3d 7fd3 56bd 1e2a 753d 161a 363d
00000310: 8efe a1bc e890 1e3d 52b2 31bd 9f95 bc3d
00000320: 2572 b2bd 2f18 c13c d04c 753c 8aed 56bd
00000330: d870 e13c f32d 2b3d dcad 9b3c 77ad b23d
00000340: 7dc0 31bd 24fe 553d d6be b7bb 43a0 0f3b
00000350: 15ad 8a3d 7c2e 9a3c 066e 39bd 08b7 fcbc
00000360: 83fb 92bc 922b b93d d362 82bd 32c4 b73c
00000370: 8800 943d 9431 483d 408c ac3d ec39 4cbc
00000380: f29b 2abc f4bb d238 1444 0dbc 5871 6cbd
00000390: 55c2 b3bd 23ae 18bd eb52 973d a414 c63b
000003a0: 687d aa3d a8de 89bd 2aee ecbc f685 83bc
000003b0: 4f42 a1bc 6781 923d 57e7 bd3d 7379 253d
000003c0: f71d a13d f964 633d a530 87bd 48ac 473d
000003d0: f623 143d c869 ed3c b1a9 613d dfb0 9dbd
000003e0: 23f4 75bd 9b4d 6bbc c442 943d 67f4 e5bc
000003f0: 7700 acbc b935 86bd 098e 65bc 6b73 e6bc

bias_ih_l0 f4 [512]
-0.03049889 -0.043023676 -0.020111077 0.086934045 0.029835178 -0.048993338 -0.030318227 -0.061794963
-0.047474436 0.028605118 -0.016880184 0.11066737 0.071896054 -0.082377344 -0.010028727 -0.078400195
-0.056144655 0.03054068 -0.00061472674 -0.014172454 0.09440203 -0.036923178 0.0764891 0.016546499
-0.015443511 0.10399313 0.12394853 0.066233195 0.08022505 0.049523182 0.030477617 -0.07947925
0.018180497 0.039183535 0.068037115 -0.04930258 -0.064451285 0.08048853 0.06533524 0.012562971
-0.02972953 -0.06415067 0.045728102 0.040174093 0.0757937 -1.4077231e-05 0.055074845 0.11103853
-0.07415765 -0.078401744 0.04660395 0.07982759 0.092845194 -0.06380752 0.069013916 0.019843927
0.06756657 0.06827522 0.11310436 0.026743364 -0.06667888 -0.052715886 -0.006107604 0.05766074
-0.0018277415 0.054567046 -0.035578717 0.021599028 -0.065367214 -0.03625112 -0.043814253 0.0014193238
0.036892362 0.08700766 0.045443323 0.08492152 -0.07534659 0.05797971 0.048196394 -0.06437144
-0.0044781477 0.0021635322 0.03420774 0.0414284 0.03483535 -0.044578087 0.077914365 0.04038296
-0.0785311 0.09268878 0.013192559 0.015341202 -0.07018183 0.012144732 0.038415898 -0.03455565
0.06457763 -0.0278844 0.07549939 -0.042500664 -0.010584029 0.032324478 -0.077938214 0.030497674
-0.040917464 0.03441206 -0.04499129 -0.055127446 -0.050513495 0.08757952 0.09431155 -0.08315654
-0.001058715 -0.048320998 -0.050150517 0.0050927936 -0.090338856 -0.036921065 0.10475518 -0.062129095
-0.034464307 -0.01025422 0.07298237 0.08246021 0.015881646 0.06830892 0.015605528 0.027440947
-0.056496058 0.028045502 -0.056543984 0.04608174 -0.08765304 -0.051758718 0.06943425 0.031369194
-0.09302062 -0.05747335 0.035846878 -0.103332266 -0.04963926 -0.007026423 -0.0653936 -0.05429876
0.008687625 0.061867252 -0.013317613 0.018975785 -0.07678659 0.03982311 -0.004217393 -0.045690376
-0.050643798 -0.11265802 -0.11962422 0.06496059 0.0053685266 -0.08084568 -0.0976268 -0.0012412261
0.06430523 -0.052557062 -0.017621577 0.014262649 0.082105726 0.0606642 -0.082841516 0.06878419
0.048791952 -0.046272554 -0.012818494 -0.06268007 -0.13273539 -0.052420743 -0.013347298 -0.090255044
-0.030400978 0.008336578 -0.027598787 -0.06284134 0.044216804 -0.016732208 -0.03981681 -0.058732465
-0.0019020734 0.03243382 -0.037497826 -0.08482246 -0.07320518 -0.0010409934 -0.020006848 0.04186171
0.021807773 0.034141816 0.056607276 -0.056021594 -0.009420935 0.0019495811 -0.050713822 -0.0945791
-0.07140896 -0.06341604 0.080305174 0.014643812 -0.03891755 -0.05966558 -0.021999182 -0.011919565
-0.024418227 0.018058723 0.018312737 0.04838912 -0.014159031 -0.056490645 0.04192429 0.027202986
-0.102305554 -0.058363304 0.017891703 -0.0058003995 -0.10465443 0.043441013 0.022915129 0.059132747
0.031098146 0.031126611 -0.042280294 -0.03780917 -0.06845011 -0.0666141 -0.025541827 -0.0669876
-0.003351086 -0.09689301 0.011299022 -0.07071635 0.061400954 -0.015611352 -0.04133038 0.008800656
-0.015455683 0.035768073 -0.00048429047 -0.067017294 -0.015818793 0.08126761 0.04916547 -0.08895219
-0.070530474 -0.0954186 -0.1013789 0.035770416 -0.056047987 0.03954934 -0.053193104 0.0338419
00000000: cfd8 f9bc 9839 30bd fcbf a4bc 7a0a b23d
00000010: e768 f43c 3dad 48bd ee5d f8bc b71c 7dbd
00000020: 8e74 42bd 4855 ea3c 5048 8abc 93a5 e23d
00000030: 3d3e 933d 74b5 a8bd 884f 24bc 4890 a0bd
00000040: f0f7 65bd 7330 fa3c 9d25 21ba 9533 68bc
00000050: da55 c13d c23c 17bd 51a6 9c3d 868c 873c
00000060: c806 7dbc 5afa d43d bad8 fd3d 45a5 873d
00000070: 084d a43d d2d8 4a3d 32ac f93c 04c6 a2bd
00000080: 44ef 943c ea7e 203d 0b57 8b3d 81f1 49bd
00000090: 09ff 83bd 2cd7 a43d 7bce 853d ebd4 4d3c
000000a0: 588b f3bc 6d61 83bd 644d 3b3d 978d 243d
000000b0: ba39 9b3d 3f2d 6cb7 2996 613d 2b68 e33d
000000c0: f7df 97bd 1891 a0bd c9e3 3e3d a67c a33d
000000d0: 9f25 be3d 84ad 82bd 2b57 8d3d bb8f a23c
000000e0: 5860 8a3d e1d3 8b3d 42a3 e73d e614 db3c
000000f0: f08e 88bd 9dec 57bd 4c22 c8bb ab2d 6c3d
00000100: d490 efba b281 5f3d fdba 11bd 72f0 b03c
00000110: 3fdf 85bd 0e7c 14bd 9376 33bd 9b08 ba3a
00000120: 721c 173d 1231 b23d c722 3a3d 55eb ad3d
00000130: 504f 9abd 227c 6d3d 9569 453d 2cd5 83bd
00000140: 6dbd 92bb 0cca 0d3b 6a1d 0c3d d3b0 293d
00000150: 83af 0e3d 8397 36bd 9191 9f3d 9a68 253d
00000160: ead4 a0bd 9dd3 bd3d 9a25 583c aa59 7b3c
00000170: 7ebb 8fbd b3fa 463c fd59 1d3d 3a8a 0dbd
00000180: 4741 843d d36d e4bc 6d9f 9a3d 2d15 2ebd
00000190: a368 2dbc ac66 043d 129e 9fbd 42d6 f93c
000001a0: 1299 27bd a9f3 0c3d c948 38bd 51cd 61bd
000001b0: 3de7 4ebd e45c b33d 6a26 c13d fa4d aabd
000001c0: 95c4 8aba 3dec 45bd a16a 4dbd 73e1 a63b
000001d0: 9403 b9bd 8b3a 17bd e289 d63d 147b 7ebd
000001e0: 722a 0dbd 5101 28bc c877 953d e6e0 a83d
000001f0: 3a1a 823c 8ce5 8b3d 54ae 7f3c d6cb e03c
00000200: 6968 67bd aebf e53c aa9a 67bd 35c0 3c3d
00000210: 7083 b3bd f300 54bd 8b33 8e3d fc7c 003d
00000220: 9881 bebd 2d69 6bbd 2dd4 123d de9f d3bd
00000230: 8952 4bbd e83d e6bb 14ed 85bd 6068 5ebd
00000240: 8a56 0e3c 8468 7d3d 1e32 5abc 1b73 9b3c
00000250: 4a42 9dbd 8f1d 233d 0f32 8abb d525 3bbd
00000260: df6f 4fbd 3fb9 e6bd 8bfd f4bd 0f0a 853d
00000270: 77ea af3b 6b92 a5bd 8ff0 c7bd a3b0 a2ba
00000280: 76b2 833d 1346 57bd 205b 90bc e3ad 693c
00000290: 0c27 a83d 067b 783d d0a8 a9bd bade 8c3d
000002a0: 12da 473d 4a88 3dbd a904 52bc 695e 80bd
000002b0: c9eb 07be 22b7 56bd a0ae 5abc a3d7 b8bd
000002c0: 790b f9bc 2496 083c da16 e2bc f6b2 80bd
000002d0: ae1c 353d fc11 89bc f416 23bd 7491 70bd
000002e0: fe4e f9ba 53d9 043d 5297 19bd 66b7 adbd
000002f0: 99ec 95bd f171 88ba 67e5 a3bc 2f77 2b3d
00000300: 37a6 b23c 4ad8 0b3d 08dd 673d e676 65bd
00000310: 445a 1abc 1689 ff3a 4cb9 4fbd b0b2 c1bd
00000320: dc3e 92bd 45e0 81bd 0a77 a43d 99ec 6f3c
00000330: 0268 1fbd e563 74bd a137 b4bc 474a 43bc
00000340: bc08 c8bc e3ef 933c 9804 963c ab33 463d
00000350: 48fb 67bc bc62 67bd ceb8 2b3d ccd8 de3c
00000360: 9385 d1bd 5c0e 6fbd 9f91 923c 4711 bebb
00000370: 1055 d6bd 34ef 313d 82b8 bb3c 2e35 723d
00000380: 8ac1 fe3c 3cfd fe3c 1a2e 2dbd cadd 1abd
00000390: 922f 8cbd f96c 88bd 183d d1bc cb30 89bd
000003a0: e59d 5bbb d86f c6bd 881f 393c bcd3 90bd
000003b0: 917f 7b3d c2c6 7fbc 0b4a 29bd a030 103c
000003c0: d539 7dbc 8b81 123d 5ee8 fdb9 5d40 89bd
000003d0: 6a96 81bc a26f a63d bb61 493d 912c b6bd
000003e0: 4872 90bd d46a c3bd be9f cfbd 0084 123d
000003f0: 9392 65bd 7dfe 213d 03e1 59bd ce9d 0a3d

bias_hh_l0 f4 [512]
0.075805254 -0.03969316 0.019711575 0.0154545745 0.055374846 -0.054306757 -0.0033320677 0.05103214
0.04422015 0.026275283 0.05489892 -0.033765987 0.043268353 0.069980696 0.07879331 0.038399737
-0.091927946 -0.087295644 0.07231651 0.09365289 -0.011116832 -0.0057831435 -0.032707248 0.044392463
-0.026948968 0.034269486 0.030538024 -0.0010529101 0.04826265 0.033719312 -0.014494106 -0.08230603
-0.05195568 0.008127355 -0.028617395 -0.055815686 0.041448724 0.07003251 -0.04071832 -0.02419545
-0.021787766 -0.02910259 0.0033616968 -0.009915108 0.08293896 -0.040516693 -0.07428647 0.00761749
-0.0473825 -0.004633471 0.069723055 0.006909738 0.03332049 0.08659456 -0.08062984 -0.025036708
0.028904404 0.046740174 0.07880385 0.0128319515 -0.032973252 0.0047039553 0.02541509 0.010501175
0.05042993 0.11762999 0.081224926 -0.025631903 0.027092116 -0.05955149 0.008900266 -0.059727956
-0.06579591 -0.074559055 -0.009071586 0.056315206 0.08406905 0.08223298 -0.08208717 -0.062657736
0.027514057 0.0004128615 -0.081336625 -0.024458492 0.050793678 -0.021244552 -0.042525943 0.06440317
-0.022650296 0.04818241 0.08700055 -0.019309971 0.024912966 -0.0029943122 0.07430264 -0.03346932
-0.057071224 0.07904089 -0.081206985 -0.082824044 0.01163626 0.069847554 -0.075035326 0.032628432
-0.06943193 0.014149811 -0.011336147 0.0601918 -0.013394451 -0.025586687 -0.071916744 -0.053538576
0.059257697 0.0376135 0.0070988503 0.034475476 0.06189304 0.03527819 -0.031775516 0.05773029
0.010304037 -0.063187495 -0.026035933 -0.03491312 0.05777761 -0.06571812 -0.008131643 0.050547987
-0.062191457 -0.0739922 0.018810993 -0.061997 0.06462539 -0.095708385 0.070800535 0.0035781332
-0.032701313 -0.014187103 0.06540555 -0.05698567 -0.05136503 -0.08803015 -0.019666651 -0.06537422
-0.009048534 0.07991356 -0.07329956 -0.024791231 -0.05653524 -0.0874801 -0.0162104 -0.003792263
-0.010400295 -0.10472202 -0.0731707 0.038302638 -0.055009153 -0.023186868 -0.029486405 0.040987298
-0.082614884 0.013462793 -0.038412854 -0.010021979 -0.026905458 -0.0895036 -0.06783216 -0.006882883
-0.08655475 -0.10322006 0.01099507 -0.037590057 -0.12075697 0.027131198 0.02594757 -0.029146919
0.009475874 0.085082546 0.021775758 -0.03103881 -0.0670752 -0.02672495 0.06319013 -0.05949691
0.004413835 -0.009220432 -0.11172226 0.061963625 0.09281448 -0.01378225 -0.091376804 0.03864897
0.025370367 -0.010031512 0.04464592 -0.033807863 -0.012680021 -0.010132881 0.05654431 -0.09940802
0.07922336 -0.012685954 0.08022255 0.04066094 0.03555393 0.024005283 -0.038203172 0.023483431
-0.0268518 0.017238101 0.06864055 -0.08056398 -0.09738198 -0.0571833 -0.09876686 -0.019980418
0.03285117 -0.0054336926 0.051399212 -0.027951231 -0.03911325 -0.064329185 -0.0620098 0.0032965248
-0.0037844577 0.01956165 0.029931614 0.03578509 -0.10532437 0.05058529 0.06184497 0.017645154
0.021955596 -0.032296963 0.021779453 -0.000622991 -0.012443715 0.076343745 -0.03314202 -0.04602235
0.049816385 0.016071396 -0.041243352 -0.08048923 -0.06925538 -0.030994263 -0.024847662 0.03380436
-0.08899624 0.064222895 -0.05317327 -0.015877603 0.07354445 -0.034920678 0.071198605 -0.031805046
00000000: c93f 9b3d 4c95 22bd 2b7a a13c 2f35 7d3c
00000010: bcd0 623d c370 5ebd d25e 5abb 1407 513d
00000020: 3020 353d 433f d73c b1dd 603d 344e 0abd
00000030: 283a 313d 0a52 8f3d 635e a13d 0b49 1d3d
00000040: b844 bcbd 0fc8 b2bd ae1a 943d 16cd bf3d
00000050: 5f23 36bc 8680 bdbb 09f8 05bd dfd4 353d
00000060: 15c4 dcbc 295e 0c3d e12a fa3c cd01 8aba
00000070: 0eaf 453d 431d 0a3d b078 6dbc 1090 a8bd
00000080: 7bcf 54bd 9928 053c 076f eabc fd9e 64bd
00000090: 23c6 293d 346d 8f3d 41c8 26bd 8935 c6bc
000000a0: 427c b2bc 8e68 eebc ea4f 5c3b fa72 22bc
000000b0: e7db a93d d5f4 25bd 8123 98bd 239c f93b
000000c0: 2714 42bd 5fd4 97bb f6ca 8e3d 156b e23b
000000d0: 117b 083d 7d58 b13d 4221 a5bd c819 cdbc
000000e0: eec8 ec3c a072 3f3d ea63 a13d 1b3d 523c
000000f0: f60e 07bd a323 9a3b 4f33 d03c 1f0d 2c3c
00000100: 9d8f 4e3d fee7 f03d 4159 a63d fff9 d1bc
00000110: 49f0 dd3c 43ec 73bd 6cd2 113c 4da5 74bd
00000120: 02c0 86bd 6bb2 98bd fda0 14bc c6aa 663d
00000130: 652c ac3d c469 a83d 511d a8bd b352 80bd
00000140: 2965 e13c 5575 d839 d193 a6bd 2d5d c8bc
00000150: 080d 503d 0e09 aebc af2f 2ebd cfe5 833d
00000160: 1d8d b9bc eb5a 453d 582d b23d f22f 9ebc
00000170: 4716 cc3c 393c 44bb fc2b 983d 2017 09bd
00000180: 84c3 69bd 31e0 a13d d94f a6bd a79f a9bd
00000190: 03a6 3e3c 3c0c 8f3d 1fac 99bd 64a5 053d
000001a0: 5432 8ebd 9cd4 673c 3fbb 39bc ad8b 763d
000001b0: 6674 5bbc 2c9b d1bc 1649 93bd 444b 5bbd
000001c0: 33b8 723d 9d10 1a3d 799d e83b 2836 0d3d
000001d0: 8e83 7d3d dd7f 103d 0b27 02bd 9976 6c3d
000001e0: 43d2 283c 7268 81bd 4f49 d5bc 0f01 0fbd
000001f0: 37a8 6c3d 3997 86bd 953a 05bc 680b 4f3d
00000200: 78bc 7ebd 3989 97bd 8319 9a3c 91f0 7dbd
00000210: 515a 843d c202 c4bd dfff 903d 1d7f 6a3b
00000220: d0f1 05bd 0671 68bc 58f3 853d ce69 69bd
00000230: 2364 52bd 2749 b4bd f51b a1bc ebe2 85bd
00000240: 4d40 14bc b8a9 a33d 141e 96bd fb16 cbbc
00000250: 7f91 67bd c428 b3bd accb 84bc 9e87 78bb
00000260: 0066 2abc 8078 d6bd 85da 95bd 3ae3 1c3d
00000270: 4751 61bd 63f2 bdbc 798d f1bc 4ce2 273d
00000280: fe31 a9bd 0c93 5c3c cc56 1dbd 3a33 24bc
00000290: d668 dcbc aa4d b7bd 96eb 8abd cf89 e1bb
000002a0: 9e43 b1bd 0a65 d3bd ab24 343c 08f8 19bd
000002b0: 6e4f f7bd 3f42 de3c 0090 d43c 85c5 eebc
000002c0: b240 1b3c c23f ae3d 1363 b23c 1a45 febc
000002d0: b95e 89bd 48ee dabc d469 813d 08b3 73bd
000002e0: eea1 903b 4b11 17bc a4ce e4bd 92cd 7d3d
000002f0: 8515 be3d f2ce 61bc c323 bbbd 624e 1e3d
00000300: 84d5 cf3c 365b 24bc a4de 363d 1d7a 0abd
00000310: ddbf 4fbc 6204 26bc 029b 673d 6f96 cbbd
00000320: db3f a23d bfd8 4fbc b84b a43d 168c 263d
00000330: ffa0 113d baa6 c43c ee7a 1cbd 5360 c03c
00000340: 4ef8 dbbc eb36 8d3c 6b93 8c3d bafe a4bd
00000350: 3470 c7bd 0939 6abd 4846 cabd f9ad a3bc
00000360: f38e 063d 1e0d b2bb fb87 523d fbf9 e4bc
00000370: 3735 20bd 05bf 83bd fdfd 7dbd 820a 583b
00000380: aa04 78bb c13f a03c 2533 f53c 6393 123d
00000390: 4eb4 d7bd 8532 4f3d 2751 7d3d 928c 903c
000003a0: 39dc b33c d249 04bd d36a b23c 3850 23ba
000003b0: b9e0 4bbc 1c5a 9c3d edbf 07bd ef81 3cbd
000003c0: 440c 4c3d 29a8 833c caee 28bd 8ad7 a4bd
000003d0: c4d5 8dbd aee7 fdbc 538d cbbc 7176 0a3d
000003e0: a943 b6bd 4b87 833d 37cc 59bd bf11 82bc
000003f0: 799e 963d fc08 0fbd 93d0 913d 0246 02bd

weight f4 [32, 128]
-0.021009903 0.04386681 0.0066778497 0.0739239 0.065234914 0.00627976 0.065765455 0.0041127778
-0.042792205 0.07916996 -0.07090414 -0.03843645 -0.019174756 0.023330905 -0.04466781 -0.035080057
0.06200953 0.008723148 -0.064506486 0.059852242 -0.016498974 0.041371424 0.06442149 0.04256134
0.024122462 0.053232484 -0.006142085 0.046037998 0.0314975 -0.069998525 -0.0025241293 0.028343271
0.0423432 -0.045925595 0.027977344 -0.030041037 -0.032299463 -0.030373907 0.029406182 0.07785119
-0.0369695 -0.06404378 0.08963243 -0.07614514 0.031490307 0.05389338 0.013666611 -0.105193906
0.0031431164 -0.08180464 -0.06339817 -0.024021162 0.055944387 -0.05041867 -0.050005395 -0.052966107
0.0069432105 0.09630985 0.03698119 0.016489064 -0.040179916 0.030787228 -0.020341644 0.062425178
-0.021158729 0.014536024 -0.013945424 -0.088302456 -0.0497316 0.036292188 0.0085130595 -0.077303074
0.030640436 -0.03518268 0.0593746 0.019171702 -0.030817242 -0.01761799 0.058132768 -0.03644868
0.008816958 0.04039373 0.013338473 -0.027743837 0.05116765 -0.106254585 0.039440993 -0.028187478
-0.06579935 -0.10051393 -0.010141288 0.11150751 0.06523379 -0.083661966 -0.0015566687 0.0055621797
0.08122302 -0.03269634 0.079757996 -0.03539809 -0.05035706 0.10685189 -0.0749267 -0.08485253
-0.049790654 0.034736834 0.05708718 -0.04716906 -0.07548087 0.083038636 0.052974567 0.061566085
-0.06571006 -0.0006005641 0.054873474 -0.036498804 -0.01971207 0.04899943 0.054748178 0.037947852
0.019995365 0.013756972 -0.111845836 0.019600596 0.048327237 -0.03396231 -0.03524428 0.060327202
0.017086623 0.04661212 -0.029616438 -0.05177437 0.1464504 0.054133404 -0.104409866 -0.048641983
-0.034296993 -0.008755838 -0.021184923 -0.013563598 -0.07215807 0.07416564 0.080072016 -0.058024276
-0.11105511 0.026911028 -0.0036682882 0.0898766 -0.07938164 0.07605052 0.07014327 -0.16959001
0.14211382 0.034797743 -0.06888264 -0.12441081 0.07624359 -0.034861967 -0.13326561 -0.040966578
-0.035820797 -0.14144444 -0.14602755 -0.12726365 -0.109892294 -0.10566224 -0.07301142 0.017059691
-0.020398753 0.054923397 -0.012198668 -0.09405023 0.029629137 0.06147807 0.06757406 -0.11196477
-0.034511194 -0.119298 -0.005237664 0.1546985 -0.07953222 -0.08090454 0.1113736 0.13214473
0.03916535 0.011638243 0.047177248 -0.051680796 -0.10002574 -0.07904784 0.014671617 0.022524351
-0.034310084 -0.068057455 -0.101907685 0.003644464 -0.015529746 0.114729084 -0.07595972 0.04640737
-0.01963163 0.0072633107 -0.029993089 0.08281311 -0.018391056 0.06904334 -0.04437245 0.072593495
-0.104890846 0.06887806 -0.10776351 -0.07928669 -0.07580487 -0.08956562 0.029568728 0.048986897
0.019948583 0.038009964 -0.12509732 0.054094315 -0.007273976 0.04361451 0.057399232 -0.017154967
0.07888436 -0.061593596 -0.0009885533 -0.12689453 -0.06386037 0.116119936 0.025258852 -0.009783701
0.083560586 -0.031141903 0.06638579 0.010810179 0.08591839 0.07119658 0.05350758 0.005996241
0.093011536 0.116459645 -0.06410097 0.15353777 -0.124368966 -0.07959296 -0.011104771 -0.009878677
0.10171072 0.07184273 -0.028339395 -0.031500574 0.10749655 -0.07573235 -0.11785611 0.018161962
00000000: f61c acbc afad 333d ddd1 da3b 6a65 973d
00000010: e299 853d 72c6 cd3b 0ab0 863d 7bc4 863b
00000020: e146 2fbd dc23 a23d 3136 91bd 8a6f 1dbd
00000030: 6114 9dbc 7420 bf3c 98f5 36bd 1bb0 0fbd
00000040: b4fd 7d3d 89eb 0e3c fa1b 84bd a027 753d
00000050: db28 87bc 1575 293d 6aef 833d cd54 2e3d
00000060: 789c c53c 4e0a 5a3d 8b43 c9bb 5792 3c3d
00000070: 8603 013d 635b 8fbd dd6b 25bb 2630 e83c
00000080: 1070 2d3d 7a1c 3cbd be30 e53c 9f18 f6bc
00000090: 714c 04bd b3d2 f8bc 3ce5 f03c 7270 9f3d
000000a0: 556d 17bd 6329 83bd 3591 b73d fcf1 9bbd
000000b0: fbfb 003d 4ebf 5c3d ece9 5f3c e76f d7bd
000000c0: befc 4d3b 3189 a7bd e6d6 81bd 07c8 c4bc
000000d0: f125 653d cf83 4ebd 75d2 4cbd fdf2 58bd
000000e0: df83 e33b 193e c53d 9779 173d 1314 873c
000000f0: b293 24bd 7f35 fc3c 85a3 a6bc 8bb1 7f3d
00000100: 1255 adbc 8128 6e3c 597b 64bc ebd7 b4bd
00000110: 5db3 4bbd 1ea7 143d 5c7a 0b3c 1351 9ebd
00000120: a701 fb3c b71b 10bd c832 733d f90d 9d3c
00000130: 7174 fcbc 9a53 90bc a01c 6e3d 364b 15bd
00000140: 0175 103c e573 253d 9c89 5a3c 0b47 e3bc
00000150: 2b95 513d 019c d9bd e18c 213d 6de9 e6bc
00000160: cfc1 86bd 3fda cdbd a527 26bc 0d5e e43d
00000170: 4b99 853d f756 abbd 2209 ccba f242 b63b
00000180: 4158 a63d 99ec 05bd 2958 a33d 96fd 10bd
00000190: 3443 4ebd 2ad5 da3d 2b73 99bd 2ac7 adbd
000001a0: 49f1 4bbd 3648 0e3d 3fd4 693d 5834 41bd
000001b0: b795 9abd 2910 aa3d dcfb 583d b82c 7c3d
000001c0: ff92 86bd 2d6f 1dba 02c3 603d c57f 15bd
000001d0: 357b a1bc a0b3 483d a03f 603d 356f 1b3d
000001e0: 52cd a33c ec64 613c 6e0f e5bd 6e91 a03c
000001f0: c8f2 453d 101c 0bbd 4e5c 10bd a819 773d
00000200: 3ff9 8b3c 5aec 3e3d 2c9e f2bc 5d11 54bd
00000210: 18f7 153e fdba 5d3d d7d4 d5bd d13c 47bd
00000220: 017b 0cbd a574 0fbc 018c adbc da39 5ebc
00000230: 9cc7 93bd 28e4 973d ccfc a33d ddaa 6dbd
00000240: dd70 e3bd 8474 dc3c aa67 70bb 3911 b83d
00000250: d792 a2bd 60c0 9b3d 46a7 8f3d 01a9 2dbe
00000260: 4986 113e 1488 0e3d 5712 8dbd 18cb febd
00000270: 9925 9c3d 6ccb 0ebd c876 08be 92cc 27bd
00000280: d4b8 12bd d0d6 10be 3f88 15be 6751 02be
00000290: 360f e1bd 7265 d8bd 0387 95bd c4c0 8b3c
000002a0: 491b a7bc 5bf7 603d ecdc 47bc 689d c0bd
000002b0: ceb8 f23c 6ed0 7b3d 4564 8a3d c94d e5bd
000002c0: 9c5b 0dbd 8352 f4bd b6a0 abbb 4969 1e3e
000002d0: cae1 a2bd 48b1 a5bd d817 e43d f350 073e
000002e0: d96b 203d 54ae 3e3c ee3c 413d 3eaf 53bd
000002f0: 4cda ccbd d5e3 a1bd 3961 703c fd84 b83c
00000300: bb88 0cbd b561 8bbd fab4 d0bd f6d7 6e3b
00000310: 7a70 7ebc 15f7 ea3d c590 9bbd a815 3e3d
00000320: 83d2 a0bc 1101 ee3b 11b4 f5bc eb99 a93d
00000330: d7a8 96bc 9866 8d3d e3bf 35bd e6ab 943d
00000340: 03d1 d6bd f10f 8d3d 1db3 dcbd 0f61 a2bd
00000350: 953f 9bbd 2e6e b7bd 1e3a f23c 7ca6 483d
00000360: 366b a33c 56b0 1b3d 8319 00be 0092 5d3d
00000370: 895a eebb 21a5 323d 751b 6b3d 9388 8cbc
00000380: 208e a13d 9149 7cbd 5892 81ba a4f0 01be
00000390: 3ac9 82bd 4ad0 ed3d a7eb ce3c d14b 20bc
000003a0: d021 ab3d 4e1d ffbc 46f5 873d 2d1d 313c
000003b0: fbf5 af3d 83cf 913d c42a 5b3d 1d7c c43b
000003c0: d57c be3d 6582 ee3d 5f47 83bd 0139 1d3e
000003d0: 28b5 febd a201 a3bd c9f0 35bc 2dda 21bc
000003e0: b64d d03d 4822 933d 0528 e8bc bf06 01bd
000003f0: 2727 dc3d 9019 9bbd 8b5e f1bd 65c8 943c

bias f4 [32]
0.056614235 -0.12634476 0.10464228 -0.12612556 -0.040605005 -0.009996587 0.02846998 -0.0747049
0.03146578 0.08383557 -0.009322886 0.044472225 -0.086374946 -0.043767884 0.052020587 -0.031045768
-0.046680976 0.021497779 -0.029024966 0.053037513 -0.013164696 -0.05031712 -0.08768771 -0.05469756
-0.042560015 -0.021835709 0.006783987 -0.010816925 -0.044626787 0.013823607 -0.051274322 -0.025547152
00000000: 54e4 673d 8560 01be b14e d63d 0f27 01be
00000010: 6f51 26bd bac8 23bc e039 e93c e2fe 98bd
00000020: 43e2 003d fcb1 ab3d 05bf 18bc 8228 363d
00000030: 59e5 b0bd f445 33bd 8a13 553d b253 febc
00000040: 8d34 3fbd 1c1c b03c c4c5 edbc dd3d 593d
00000050: bdb0 57bc 5319 4ebd 9d95 b3bd 8c0a 60bd
00000060: 6953 2ebd cde0 b2bc 354c de3b 7939 31bc
00000070: 94ca 36bd 697c 623c 0605 52bd 4348 d1bc

weight f4 [1, 32]
0.06881268 -0.14993256 -0.003987287 -0.16570438 0.04822213 -0.045876358 -0.06895994 0.13751626
-0.040563025 0.016691415 0.12630846 -0.028683117 0.03079022 -0.13726124 -0.049655516 0.08318206
-0.04667074 -0.14444752 0.10928032 0.082543515 -0.12872064 -0.07145713 -0.16539288 0.10920493
-0.026701182 0.12667505 0.089795835 0.036251336 0.06300892 -0.14115791 0.025481405 0.07004013
00000000: aaed 8c3d ec87 19be caa7 82bb 69ae 29be
00000010: 9184 453d d9e8 3bbd de3a 8dbd 10d1 0c3e
00000020: 6a25 26bd 6fbc 883c 0157 013e dbf8 eabc
00000030: c53b fc3c 368e 0cbe 9563 4bbd 5b5b aa3d
00000040: d129 3fbd 0dea 13be 5cce df3d 930c a93d
00000050: 58cf 03be 1e58 92bd c05c 29be d6a6 df3d
00000060: 70bc dabc 1bb7 013e e1e6 b73d 487c 143d
00000070: d20a 813d b38b 10be 61be d03c 3371 8f3d
