data/Ontario/ontario_meta.pt (torch, 338353 bytes, 7 tensors)

weight_ih_l0 f4 [512, 24]
000000 25 0b d9 3b aa 2b bb bd a3 25 72 bd 42 97 57 3d
       0.006623643 -0.09139188 -0.059117924 0.052634485
000010 ce 5d 65 3d 4b 86 e4 bd 21 f3 c6 bd 3a 31 63 3d
       0.055997662 -0.11158427 -0.09714342 0.055466868
000020 51 56 b0 bd 1c 2a a1 bb 65 42 b3 bd 33 a7 75 bc
       -0.086102135 -0.00491835 -0.08752898 -0.014993477
000030 ab 32 93 bd cd 40 6b bc 98 26 4b bd 04 1c 2b 3d
       -0.071873985 -0.014358711 -0.049597353 0.041774765
000040 40 fd 3c bd 4a 89 6e 3d 5a 6e 6e 3c 88 b3 e0 bd
       -0.046139956 0.058236398 0.014552677 -0.10971743
000050 10 da 15 3d e1 74 78 bd 39 0b 7d bd 52 37 bb bd
       0.036584914 -0.06065834 -0.06177828 -0.09141411
000060 51 fa d1 3b 30 cf ce 3c d4 22 d0 3b db c0 0b bd
       0.006408014 0.02524528 0.006351808 -0.03411947
000070 3f 62 a3 bd 71 57 82 bd 5a 77 d4 3c be c0 07 b8
       -0.07977723 -0.063643344 0.025935818 -3.2366013e-05
000080 15 25 84 3d bc 3d a8 3c 2d 70 bc 3c ba 71 86 bd
       0.06452385 0.02053725 0.023002708 -0.0656466
000090 fa 38 5c bd f0 3b 91 bc e7 ba 8e bd 7b cb da b8
       -0.053765275 -0.017728776 -0.069692425 -0.00010432951
0000a0 83 d3 57 3d 7e 43 9b 3d 1c e4 99 bd f7 97 b4 3d
       0.052691948 0.075812325 -0.075142115 0.088180475
0000b0 35 80 e7 3b 5a ba 6b 3d c2 a0 12 3c 2c 78 82 3d
       0.007064844 0.057550766 0.00894946 0.06370577
0000c0 40 b6 8f 3d aa 9c 18 3b c9 b6 c1 bd 46 3c 32 3d
       0.07017183 0.0023286738 -0.094586916 0.043514512
0000d0 cf ce a4 bd c8 3c 71 bc 81 78 b3 bc 2e 02 60 3d
       -0.08047258 -0.014723964 -0.021908047 0.05468958
0000e0 fd 4b f9 3c 3d 60 41 bc 52 e9 4c 3d 81 5b 95 bd
       0.030431742 -0.01180273 0.0500272 -0.072928436
0000f0 0d b3 3b bd 56 72 c0 3b 58 b3 7e bb 30 16 ee 3b
       -0.045825053 0.005873005 -0.0038864221 0.0072658285
000100 f4 37 14 bc 78 0d 3d bc 14 f4 bb bd 97 ce 7e bd
       -0.009046543 -0.011538856 -0.091774136 -0.06220874
000110 86 51 76 3d 3f 0a c2 bd 5f 54 7c 3c 59 04 84 bd
       0.06013634 -0.094746105 0.015400975 -0.06446142
000120 a2 d7 9e bc 35 ea df 3c c4 69 bf bc ad 5a af bd
       -0.019389931 0.027333358 -0.023365863 -0.08562217
000130 99 39 f7 3b 1c d2 76 bd 36 9f ba bd c7 21 aa bd
       0.007544708 -0.06025897 -0.09112398 -0.08307224
000140 ca 62 09 bd b3 95 92 bd 5a b8 8a bd 8c ae 65 3d
       -0.03354148 -0.07157459 -0.067734435 0.056074664
000150 de dc b6 3b 0a 92 85 bc d4 e9 aa bd 93 63 b4 bd
       0.0055805286 -0.016304988 -0.083453804 -0.08808055
000160 13 f3 5d bd 17 a9 4f bd 5e ef 6f 3d 03 7f 85 bd
       -0.05418689 -0.050698366 0.058577888 -0.06518366
000170 be 86 95 3d ca c1 4d bd 38 45 52 bd 24 00 b0 bd
       0.07301091 -0.05023364 -0.051335543 -0.08593777
000180 24 0f 51 bd 5c 19 9c 3c cb f2 ad bd 60 91 e2 3c
       -0.05103983 0.019055061 -0.08493575 0.02765721
000190 d6 16 23 3d 60 2d 8f bd 00 92 b2 bd 33 c9 aa 3d
       0.0398167 -0.069910765 -0.087192535 0.08339157
0001a0 61 dc 08 3d de 7c a2 3c 46 2c 4f bd d6 81 27 3d
       0.033413295 0.019834932 -0.05057933 0.040895306
0001b0 5e 62 4f 3d 7d 77 a1 bd 87 c2 71 3c 6e 22 98 bc
       0.05063092 -0.07884119 0.014755852 -0.018571105
0001c0 51 82 8f bd 4e bc 12 bd fe 3c 8d bc 74 7a 4c 3d
       -0.07007278 -0.035824113 -0.017240997 0.049921468
0001d0 8d d4 6c 3d 79 4a 6b bd 3e de 6b bd 14 4a 85 bd
       0.05781989 -0.05744407 -0.057584994 -0.0650827
0001e0 4c bd ad 3b d4 38 aa 3d c0 92 46 3d a9 76 35 bd
       0.005302107 0.0831162 0.048479795 -0.044302616
0001f0 05 c6 a3 3d 81 c2 ba bd cd 82 83 3c 8a 37 52 bc
       0.079967536 -0.0911913 0.016053582 -0.012830624
000200 b4 e0 b7 bd 01 ef 79 3d 35 b0 80 bd 76 68 58 bd
       -0.089784056 0.061018948 -0.06283609 -0.052833997
000210 bd 62 c9 3c c2 11 8e bd dc 86 ca 3c 47 82 9e bd
       0.024583215 -0.06936981 0.02472251 -0.07739692
000220 55 7c 08 bd 80 a1 94 bd c4 99 86 3d 04 4b e0 3b
       -0.033321697 -0.07257366 0.06572297 0.00684488
000230 17 6a 46 3d fa 21 8f bd 7a e8 80 bd 41 13 84 bd
       0.04844102 -0.069889024 -0.062943414 -0.06448985
000240 10 a9 90 3d 97 ba aa bc df bc ba 3c d4 5f a2 3d
       0.07063496 -0.020840926 0.022795139 0.07928434
000250 d0 a7 db 3c a1 c1 5b 3d 0d a8 a6 bd 4e b6 3d bd
       0.026813418 0.053651456 -0.08137522 -0.046316437
000260 1f ce 9f 3d 14 b5 a1 3d 3e ba 8b bd f4 ba 85 3d
       0.07802986 0.07895866 -0.06822632 0.06529799
000270 b6 53 2b 3b f1 d9 3a bd df 75 8a bd 3a 1a a8 bd
       0.0026142425 -0.045618 -0.067607634 -0.08208127
000280 08 1d 57 bd 8d 6b 4e bd 31 4d 6e 3d 7a 16 2d 3d
       -0.05251792 -0.050395537 0.058179084 0.042257763
000290 fb 88 a1 bd 28 23 f8 bc a3 4a 32 3d 65 27 d1 bd
       -0.07887455 -0.030290201 0.04352821 -0.10212592
0002a0 f9 20 a1 bd 00 66 7b bd d0 d0 90 3d e8 0e 8b 3d
       -0.07867617 -0.06137657 0.07071078 0.067899525
0002b0 2e 12 62 3d 2b 91 56 bc 34 3b 86 bd ed b4 1c 3d
       0.05519312 -0.013096134 -0.06554261 0.03825848
0002c0 4b 6c af bd 29 e0 9c bd d1 24 b1 bd 98 07 9a bd
       -0.08565577 -0.07659943 -0.086496 -0.0752098
0002d0 93 e7 8f bd a8 5e 3e 3c e4 20 a2 bd 44 52 2f 3d
       -0.07026591 0.0116192475 -0.0791643 0.042803064
0002e0 6a 3c 16 bd e1 9f 6c 3d 41 76 ac bd a5 48 41 3c
       -0.03667871 0.05776966 -0.08420993 0.011797105
0002f0 d0 50 b3 bd 4f 9e a1 bd 93 c0 8e 3d f2 83 9d 3d
       -0.08755648 -0.07891523 0.06970324 0.07691182
000300 aa 87 96 3d ac 29 80 bd 02 bd 78 3d 87 6a 5d bc
       0.073500946 -0.06257948 0.060727127 -0.013514168
000310 bc c9 01 bd ac 16 e6 3c 87 8d 4a 3b 9e 51 a1 bd
       -0.03168653 0.028086983 0.003090711 -0.07876895
000320 93 a1 7f bd 57 8b 18 bc 8f 25 c1 3d fc 9d fb 3c
       -0.06240995 -0.009310565 0.09430992 0.030714981
000330 a1 ac d3 3b 64 e8 10 3c 1f 14 6b 3d 50 43 3d 3d
       0.006459788 0.008844469 0.057392236 0.046206772
000340 d5 c9 67 bd 61 6a 30 3d 0a 32 9e 3d 28 ee 61 3d
       -0.056588966 0.0430702 0.07724388 0.055158764
000350 0b ab fd 3c 72 88 96 bd 90 9b ab 3d 67 0a dd 3a
       0.030965349 -0.07350244 0.083792806 0.0016864062
000360 22 46 9c bd b4 92 ab 3d c3 15 9b 3d 64 84 c6 3d
       -0.07630564 0.08377591 0.0757251 0.0969322
000370 10 4c 2a bd 74 75 f7 bb c6 12 84 bd f5 91 ee ba
       -0.041576445 -0.0075518433 -0.06448893 -0.0018201458
000380 ca 1c 1f 3c 7b 9a 36 bd 1f 3a 01 bd 86 22 94 bd
       0.009711454 -0.044580918 -0.03154957 -0.07233147
000390 df 8d db bc 03 a0 90 bd c6 e3 39 3d dc bb 06 3d
       -0.026801048 -0.0706177 0.045383237 0.032894
0003a0 11 91 80 bc 73 47 2c 3d 54 a4 5f bd 57 7e be 3c
       -0.015694173 0.042060327 -0.054600075 0.023253603
0003b0 5f e2 8f bd 83 1a 74 bd b5 57 c4 3d 3b 2b bd 3a
       -0.07025599 -0.059595596 0.09587041 0.0014432439
0003c0 18 09 9e bd 5d 98 97 bd d7 8e 0c 3d 08 21 0e 3d
       -0.07716578 -0.07402108 0.03431591 0.03469947
0003d0 1d aa a6 ba 43 b0 4d 3d 2c ec 4d 3b fd d2 78 3d
       -0.0012715493 0.050216924 0.0031421287 0.06074809
0003e0 04 37 1b 3d 7a 63 c3 bd 42 21 48 bd 85 12 2f 3c
       0.037894264 -0.09540458 -0.048859842 0.010685568
0003f0 c3 fa 9f bd 06 95 83 bc cd 45 53 3d e3 22 a2 3c
       -0.07811501 -0.01606227 0.05158024 0.019792026

weight_hh_l0 f4 [512, 128]
000000 ef b6 b5 3d d3 c0 9c bd 90 10 0f 3e d4 87 b3 3d
       0.088727824 -0.07653966 0.13971162 0.087661415
000010 9f 63 3b 3c 12 63 b2 3d e3 cf a5 bd b7 df 89 bd
       0.011437326 0.087103024 -0.08096292 -0.06732123
000020 de 2a 01 be 9d f1 fc 3c fa 4a 3d 3d f8 2e 74 3d
       -0.12614009 0.030876929 0.04621408 0.059615105
000030 1e 41 78 bd db 68 b0 3c 96 38 8b bd bf e2 6e bd
       -0.060608976 0.021534374 -0.06797902 -0.05832171
000040 05 d2 10 be 25 06 0c 3e cb fe 09 bb 4d a3 09 3d
       -0.14142616 0.13674219 -0.002105641 0.033603
000050 3c 53 ea 3c aa e4 c8 bc 31 68 7f bd 01 ee e1 3d
       0.028604142 -0.024523098 -0.062355224 0.11031724
000060 d6 35 54 3d 5c 64 9f 3d bc ba 96 bd fe a6 0d 3e
       0.051809154 0.07782814 -0.073598355 0.13833234
000070 00 0b ac 3d 59 59 88 bc 7c 54 c3 3d 8f 07 af bd
       0.084005356 -0.016644167 0.095375985 -0.085463636
000080 d7 65 64 3c 67 29 1f bb 23 b5 1e bc 2f 4c 87 bd
       0.013940296 -0.0024286152 -0.009686741 -0.06606328
000090 f1 c4 1a 3d 19 f1 0f 3d 04 91 92 3c 3b f1 73 3c
       0.037785474 0.035142038 0.017891414 0.014889057
0000a0 02 26 9f 3d e8 5a 53 3d e5 8c 82 3d 28 52 c4 3d
       0.07770921 0.051600367 0.0637453 0.095859826
0000b0 e2 4b b4 bb 26 ad 21 be 1a ea 77 3c 11 0f 9a 3d
       -0.00550221 -0.15788707 0.015131498 0.07522405
0000c0 0d f8 f5 3d 20 7a b5 bc 63 98 d5 3c 00 36 41 b9
       0.120102026 -0.02215296 0.02607364 -0.00018426031
0000d0 95 cd 61 bd 23 1e 2e bd 28 76 64 3d 16 36 94 bd
       -0.0551277 -0.04250921 0.055776745 -0.072368786
0000e0 77 77 41 bd 3d eb d5 3d a0 dc 3f 3d 1b 54 92 bd
       -0.04723307 0.10445259 0.046841264 -0.07144948
0000f0 35 ac 62 3d 2c 56 5a bd f2 28 e1 bd d9 9c c0 bd
       0.05534001 -0.053304836 -0.10994138 -0.09404916
000100 cd a6 ee 3d 33 bd 44 3d 3a 9a 23 bd 0a ca 88 bd
       0.116529085 0.048031997 -0.039942004 -0.06679161
000110 75 01 0a be d4 16 b8 3d b9 20 fc 3d d2 dc ab bd
       -0.13477118 0.08988729 0.12310929 -0.083917275
000120 c6 30 55 39 ec df f7 3c ac 88 09 3d 0a e6 84 bd
       0.00020331432 0.030258141 0.033577606 -0.06489189
000130 6e 3a a4 bd e0 b4 c1 bc 5a e3 85 3d 70 5a 06 bd
       -0.08018957 -0.023645818 0.065375045 -0.03280109
000140 65 33 87 3a 67 2a 65 3c 59 f2 a4 bd f7 6b 90 3c
       0.0010314999 0.01398716 -0.08054037 0.017629607
000150 37 c1 04 3e e0 0b f4 3d 68 2a 45 3d b5 9f cc 3d
       0.1296433 0.119163275 0.048136145 0.09991399
000160 08 bc f6 3d 24 67 50 bc 63 5d 17 3c 06 1b 91 bd
       0.12047583 -0.012719903 0.009238574 -0.070852324
000170 08 97 50 3d d5 db 82 3d f9 3c 15 bd 89 d7 49 bd
       0.050925285 0.06389586 -0.0364351 -0.049277816
000180 55 19 ec 3d cc 7c 10 bc dd ef 23 bd e2 f8 ce bd
       0.11528269 -0.008818816 -0.040023673 -0.101060644
000190 c5 3d ce bc d8 5a 6b 3c ec 34 8e 3c 85 db df bc
       -0.025175938 0.014364921 0.01735922 -0.027326355
0001a0 bf 07 a3 3c ca d8 1f 3d a7 c6 a8 bd 20 ed 83 bd
       0.019901155 0.039025106 -0.08241015 -0.064417124
0001b0 47 1b af bb f0 cb 5f bd 81 d3 95 bd b9 02 12 3e
       -0.005343828 -0.05463785 -0.07315732 0.14258851
0001c0 8c 2f 7c 3d 32 d3 7c 3c 0c 01 85 bd c4 c8 d7 3d
       0.06156878 0.015431212 -0.0649434 0.1053634
0001d0 eb e2 89 3d 60 33 d4 3c e2 8f b7 3d 1f 9a c3 3c
       0.06732734 0.025903404 0.0896299 0.023877202
0001e0 a8 ae dd 3c d6 b8 d6 bc 9b 04 e4 3c fa 9c 6d bd
       0.027060822 -0.026211184 0.027834227 -0.058011033
0001f0 1d 5f 07 bb 2c 15 7e 3c e1 eb 03 3d 0e 49 24 bd
       -0.0020656057 0.015507977 0.032207374 -0.040108733
000200 fa a9 ed bc ec 32 08 3d dc 97 e5 bc dc c8 6b bc
       -0.029011715 0.033251688 -0.028026514 -0.01439115
000210 cf e6 24 bd 4d 5c 07 bc d9 f1 8a bc 52 5a 92 bd
       -0.04025918 -0.008261752 -0.016961025 -0.071461335
000220 3e 84 01 bd ad da 9d bd b7 ee e4 bc e3 c7 2b 3d
       -0.031620257 -0.07707725 -0.02794586 0.041938674
000230 b2 49 12 3c bb fd a8 bd d6 5e 9c bd 31 07 23 bd
       0.008928703 -0.0825152 -0.07635276 -0.03980178
000240 4a 11 89 bd 40 02 b3 bb 9a 12 a7 3d 0a b0 ce bd
       -0.06692751 -0.0054629147 0.08157845 -0.100921705
000250 1c 2a ea 3c 12 89 4e 3d 3a a7 99 bd af 22 cb 3c
       0.028584532 0.05042369 -0.07502599 0.024796812
000260 0f c7 80 3d 8f 75 cf bc 3f 24 07 3d 79 84 50 3c
       0.062879674 -0.025324611 0.03299355 0.012726896
000270 95 38 27 3b d4 3f 80 bd f1 9c 1f bd f4 5c 86 bd
       0.0025515903 -0.06262174 -0.03896803 -0.06560698
000280 ac 88 d3 bc 4a 37 10 bd 20 7b f0 bc ba 1d 54 3d
       -0.025822006 -0.035208978 -0.029355586 0.051786162
000290 94 2f bd bb fa 8f 0b bd 51 7e a8 3d 01 7f 84 3d
       -0.005773494 -0.034072854 0.08227218 0.064695366
0002a0 4c 39 21 bd 01 79 96 3c 37 1d b8 3d b0 47 00 bd
       -0.039361283 0.018368246 0.08989947 -0.031318367
0002b0 64 fb dc bc b3 b8 4c bc 51 6a 8e bc 73 68 59 bd
       -0.026975341 -0.012495208 -0.01738468 -0.053078126
0002c0 7d 54 02 bc 11 a6 99 3c e5 d9 14 bd 12 25 a1 3d
       -0.007954714 0.018755944 -0.036340613 0.07868399
0002d0 c4 35 a6 bc c0 53 d2 3c b4 7f 19 bc 4c 15 ad bd
       -0.02028931 0.0256747 -0.009368826 -0.08451328
0002e0 a3 51 a7 3b 63 da df 3c 98 ce bc 3b 86 3e 90 bc
       0.0051061674 0.027325815 0.0057619326 -0.017607938
0002f0 44 5b 20 bc d2 93 35 bd 2a c1 50 3d eb 32 5d 3c
       -0.009787384 -0.044330426 0.050965466 0.013500909
000300 82 72 5d bd b3 55 04 3d 59 18 d4 bd c7 0a 53 3d
       -0.05406428 0.03230829 -0.103562064 0.05152395
000310 10 c5 80 bc 4b 15 26 3d a0 ae b6 3d c4 ec a0 bc
       -0.015718967 0.04054765 0.08920026 -0.019644149
000320 2e 2a 53 bc d3 be c3 3d c7 43 d3 3d 59 82 18 bd
       -0.012888474 0.09557881 0.10315662 -0.037233684
000330 ba 84 36 3d f5 6e 50 bd 99 e9 94 3b 59 cf 8b bd
       0.04456017 -0.050887067 0.0045444486 -0.06826658
000340 4f 6d a4 bd 0d b3 42 3b 8a 40 8e 3d 5c ea 5a bc
       -0.080286615 0.0029708773 0.069459036 -0.01336154
000350 4f d6 64 3d 4b 55 69 bd 10 be 86 bc d9 2f 3b bd
       0.055868443 -0.056966107 -0.01644805 -0.045699928
000360 66 bf 8d bd cf 7c 76 bc 38 03 60 bc 20 80 52 bd
       -0.06921272 -0.015044405 -0.013672642 -0.05139172
000370 b6 51 b3 bd 47 71 4f 3c 02 14 6b bd 35 bd 96 bc
       -0.087558195 0.012661285 -0.057392128 -0.018400768
000380 d2 b3 d9 3c a3 05 7e bd 77 bc 92 bc a8 02 56 3d
       0.026575003 -0.062017094 -0.017912133 0.052248627
000390 fa dd 37 bd 0d 8d 11 3d 00 cb 89 bd f6 06 03 bd
       -0.044889428 0.035534907 -0.06728172 -0.03198906
0003a0 38 0b 4f bb c0 93 78 bd 98 fc 95 3c 4a 69 08 3d
       -0.003159238 -0.06068778 0.018308923 0.033303536
0003b0 3c 4c 42 bc ec 4a 5c 3d 98 68 12 3d d5 75 c1 bc
       -0.011858996 0.05378239 0.03574428 -0.023615757
0003c0 e5 7c 83 3d a9 12 6a bd fd d7 2e 3d 53 32 a5 bc
       0.06420306 -0.057146702 0.04268645 -0.020165598
0003d0 30 52 38 3d 21 c9 48 bd 28 21 b5 bd 1e d6 87 bc
       0.045000255 -0.049019936 -0.08844215 -0.016581591
0003e0 7d 87 66 bd 82 31 5e 3d 4f d7 9f bd 5d b4 a5 bc
       -0.056281555 0.054246433 -0.07804739 -0.020227605
0003f0 27 f3 58 bd f0 12 be 3d a3 50 14 bd 4d c2 9b bd
       -0.052966263 0.09280956 -0.036209714 -0.07605419

bias_ih_l0 f4 [512]
000000 3e c6 47 bc be 3c 8f 3d 72 45 55 bd 8a 34 fb 3c
       -0.012193261 0.069940075 -0.05206818 0.030664701
000010 fd fa c4 bc c3 2d 78 bd 64 72 37 3c 52 80 2c 3d
       -0.024045462 -0.060590517 0.011196706 0.042114563
000020 71 94 a0 3d 2a e9 00 3d 5d e1 f6 3a ba 43 c8 3d
       0.07840813 0.031472363 0.0018835474 0.09778543
000030 b2 a4 0c 3c 0e f0 91 bd 9b bb 56 3d 7d 58 3f 3d
       0.008584188 -0.07125865 0.05242501 0.04671525
000040 a6 b4 5c bd fb 3a 75 3d 25 20 7e 3d 57 7b 80 3d
       -0.053883217 0.0598707 0.062042374 0.06273525
000050 d8 17 0a 3d 3f 03 f7 3d e4 3e 32 3d 63 75 46 bd
       0.033714145 0.12061166 0.04351701 -0.048451792
000060 76 ff c7 bd 1a 2d 35 3c 28 59 fb bc f2 f8 85 bd
       -0.09765522 0.011058116 -0.030682161 -0.06541623
000070 66 4c af 3d 0c 8b 65 bd f0 9c d0 3c 25 3d 09 bd
       0.08559494 -0.05604081 0.025465459 -0.033505578
000080 7f 1a 58 3d db 1a 59 3c 71 3c 05 3c 8e af 1d bd
       0.052759644 0.013251032 0.008132086 -0.0384975
000090 f3 61 c8 bd 7c 5a b2 bd a7 bc 99 3c a3 9f bd bc
       -0.09784307 -0.08708665 0.018766714 -0.02314741
0000a0 90 5a 5a 3d 17 ac 6a 3d 2f 02 6f bd b7 7d cc 3d
       0.053309023 0.057293024 -0.05835169 0.09984916
0000b0 a4 51 25 3d b8 8e 90 bd e8 a1 c2 3d fa f1 e6 3c
       0.04036106 -0.070584714 0.095035374 0.028191555
0000c0 e8 a4 7e bb d5 d6 9d 3d 1f 92 21 3d 11 04 6b bd
       -0.0038855616 0.077069916 0.039445993 -0.057376925
0000d0 d2 4f 8b 3d 5b 2c 3b bd 60 6f 1f 3c f0 7d 70 bd
       0.06802334 -0.045696598 0.009731144 -0.058713853
0000e0 e8 01 94 3d 29 3e 88 bd ef 11 8f 3d dd 1b 48 bd
       0.07226926 -0.06652481 0.069858424 -0.048854697
0000f0 23 7d 3c bd ba f2 a7 3b d7 d1 ec 3c c0 3a b3 3d
       -0.046017777 0.005125371 0.028908653 0.0875144
000100 d2 d6 b7 3d 0b 4c b4 3b da 26 37 3d aa c8 19 3d
       0.089765206 0.005502229 0.044714786 0.037544884
000110 f8 b1 53 3d f5 36 c1 bd 81 10 49 bd 64 e6 f6 bc
       0.051683396 -0.0943431 -0.049088005 -0.030139156
000120 35 ba 1a 3d b0 8b a9 3b e5 22 72 bd d5 7b a1 bc
       0.037775237 0.0051741228 -0.05911531 -0.019712368
000130 5f 28 96 3d b8 27 c9 3c 81 18 95 bc d1 01 59 bd
       0.07331919 0.024555072 -0.018200161 -0.052980248
000140 c4 41 50 bb 63 13 21 3d 09 7b a6 bd 3c 4f 43 bd
       -0.003177748 0.03932513 -0.08128936 -0.047682986
000150 98 6c dd bc 26 79 b9 3d 9b c1 cf bc 50 c8 93 bd
       -0.02702932 0.0905631 -0.025360873 -0.07215941
000160 3f 84 92 bd 41 ac 02 bd 9c 4f e0 3a 7b 92 5e bd
       -0.0715413 -0.031902555 0.0017113569 -0.054338913
000170 29 e6 e2 3d b4 83 44 bd 6d d4 ac 3c 7d b3 c6 3c
       0.11079056 -0.047977164 0.021097386 0.024255509
000180 a6 20 f0 bc aa a5 f8 bc 52 0b 9e 3d 18 5f a9 bd
       -0.029312443 -0.030352432 0.07717003 -0.08270091
000190 89 89 76 bc af b4 60 bd f7 d5 0e 3d 3e be a8 bd
       -0.015047439 -0.054859813 0.03487202 -0.08239411
0001a0 36 35 c7 3d 3b 6e aa bc 14 cb 8a bd 83 c5 b8 bd
       0.09726946 -0.020804515 -0.06777015 -0.09022047
0001b0 40 a8 b6 bd 80 81 e4 3d c6 25 27 3d 8b d8 cc 3c
       -0.0891881 0.11157513 0.040807508 0.0250056
0001c0 3d d6 c1 bc f5 0c 67 3b a3 4d 9c 3c 0d 5c 89 ba
       -0.023661727 0.0035255526 0.019079989 -0.0010479704
0001d0 03 68 34 bd b5 68 a6 3d 3e 3f 2a 3d f6 8f 62 bc
       -0.044044506 0.0812544 0.04156422 -0.013828268
0001e0 13 25 ad bd 0e 21 ef bc c1 a9 d1 3c 68 39 84 3c
       -0.08454337 -0.029190566 0.02559364 0.016140655
0001f0 4a ee 35 bd 36 f8 ca 3b d8 74 55 3c 24 02 50 3d
       -0.044416703 0.00619414 0.013028346 0.05078329
000200 de a1 f8 bb c5 56 1e bd 2c 6b 2f bc ba 75 92 bd
       -0.0075876554 -0.03865697 -0.010706704 -0.07151361
000210 27 8d 2c 3c d4 7a c5 bc 87 c8 1d 3d c7 85 5d 3c
       0.0105317 -0.02410642 0.038521316 0.013520665
000220 94 33 36 3d 6d e1 2b 3c 3c bd 77 bd 46 7d da bd
       0.044482782 0.010490757 -0.060483202 -0.10668425
000230 39 8a e4 bd a2 42 a7 bd a1 61 26 3d 1c 61 12 bd
       -0.111591764 -0.08167006 0.04062045 -0.035737142
000240 3e 58 93 3d 34 df a5 bd 5b bd a9 3b 1d 57 be 3c
       0.07194565 -0.08099213 0.0051800436 0.023234898
000250 a6 f4 d2 bd 4e 52 f3 3b b9 de 98 bd 54 5c e3 3c
       -0.10300569 0.007425583 -0.07464356 0.027753986
000260 65 fb dc 3c ed e0 ac 3c 20 57 8c 3b 53 f2 58 3d
       0.026975343 0.021103347 0.004282847 0.052965473
000270 88 25 1b bd 39 9e 7e 3d f4 cc 61 3d a9 2f ca bd
       -0.03787759 0.06216261 0.0551271 -0.09872372
000280 00 ce 75 3c d1 a2 1e bd 2b cc 70 3d c0 de b6 bd
       0.0150027275 -0.038729493 0.05878846 -0.08929205
000290 ca fc 8d 3d 46 3e 1b 3d c1 03 e3 bd 8f 9b ea bc
       0.06932981 0.037901185 -0.110847004 -0.02863863
0002a0 db 81 c8 bd b0 d3 de bc de db 46 3c c6 76 01 bd
       -0.09790393 -0.02720055 0.012137381 -0.03160741
0002b0 f4 2b f0 3b b8 5f ff 3c c9 b3 10 bd 12 ff 34 ba
       0.0073294584 0.031173572 -0.035327706 -0.00069044635
0002c0 d2 8d a9 bd 94 09 b3 3d 5f fa 85 3d 66 e2 fe 3c
       -0.08279003 0.08742061 0.06541895 0.031113815
0002d0 03 15 a2 bd 5d ec 47 3d 22 10 96 bd c8 58 b2 bd
       -0.07914164 0.048809398 -0.07327296 -0.0870834
0002e0 d8 15 21 bd cb 48 8d bd 75 f4 e9 bc c0 82 9f bb
       -0.039327472 -0.0689865 -0.028558949 -0.0048678815
0002f0 1a 46 5e 3d dd 29 8c bd 12 53 a2 3d ad 09 63 bd
       0.054266073 -0.06843922 0.07926001 -0.05542915
000300 23 94 9a bd f4 06 54 bd 52 ee cf bd 95 19 36 bd
       -0.07547786 -0.051764444 -0.10152878 -0.04445799
000310 b3 2a 63 3d eb 77 ec 3c 84 af 95 3c 58 d0 ee 3c
       0.055460643 0.028865775 0.018272169 0.02915208
000320 f1 6f 3c 3d fc 9d 5c 3b 0b eb 0f 3c 96 64 f3 3c
       0.046005193 0.0033663502 0.008784066 0.029711049
000330 90 fb 6f 3c df 94 85 bc ae 19 ce bd 2d 92 67 bc
       0.0146473795 -0.016306339 -0.10063492 -0.014133972
000340 14 bf ae bd 26 25 49 bd 64 8b 73 bc 0f 13 8f bd
       -0.08532539 -0.049107693 -0.014864776 -0.06986057
000350 41 dc 7f 3d 36 b6 47 bd 20 9f 38 bd 7e 4c 48 bd
       0.06246591 -0.048757754 -0.04507363 -0.048901074
000360 d1 e3 fa 3c 3e aa f6 bb 7a e8 75 3d 27 57 cb bd
       0.03062621 -0.0075276187 0.06003616 -0.09928732
000370 53 29 26 bd 96 15 52 3d 22 7c a2 3c b9 55 d1 bd
       -0.040566754 0.051290117 0.019834582 -0.102214284
000380 49 df 79 bd f4 37 f0 bd d0 a6 98 bc b1 ab be bd
       -0.061003957 -0.11729422 -0.01863423 -0.09310091
000390 dd 0d 4c bd 50 75 17 3d a4 5e ac bb 98 32 8c bd
       -0.04981791 0.036977112 -0.0052603055 -0.068455875
0003a0 c1 14 55 3d 65 9f d4 bb 6e 73 b3 3a 18 97 a0 3c
       0.052021746 -0.006488728 0.0013691017 0.019603297
0003b0 62 c1 99 bd 36 15 e9 bd a4 c9 ad bd 95 09 44 3d
       -0.07507588 -0.11380999 -0.084857255 0.0478607
0003c0 94 ad 2a 3d c0 ff 9a bd f4 e4 85 bd 3a 83 9b bd
       0.041669443 -0.07568312 -0.0653781 -0.07593389
0003d0 14 5d 16 3d 11 6f 5d bc 01 a6 d2 3c 79 ad 7e ba
       0.03670986 -0.01351525 0.025713922 -0.00097151805
0003e0 75 82 93 bd f9 38 cb bd 92 fc 59 3d ff be 47 3d
       -0.07202617 -0.09922976 0.053219385 0.048766132
0003f0 97 27 47 3c fb f2 ad bd d0 32 27 3b c3 3c c6 bd
       0.012155435 -0.084936105 0.0025512464 -0.09679558

bias_hh_l0 f4 [512]
000000 11 a1 d1 bc 34 aa 64 3d 22 e8 50 3d 70 2a 0e bd
       -0.025589498 0.05582638 0.05100263 -0.03470844
000010 93 62 70 bd 88 60 99 bd 2a 56 7f 3d 69 3f d6 3d
       -0.058687758 -0.07489115 0.06233803 0.10461313
000020 3e a6 94 bd 95 5d 95 bd a6 ab 88 3d 1b d0 7e 3b
       -0.07258271 -0.0729324 0.06673364 0.0038881365
000030 d5 c4 b9 3c 98 d8 58 bd 76 45 9f 36 ab 7a 0d 3b
       0.022676865 -0.052940935 4.7466556e-06 0.0021588008
000040 fc 5c 81 3d e2 bb b7 3c 72 93 7c bc 93 fa 1c bc
       0.063165635 0.022428457 -0.015416013 -0.009581226
000050 41 e4 7e bc 90 0c 64 3d ab 04 26 bd 83 d1 47 3d
       -0.01555735 0.055676043 -0.040531795 0.04878379
000060 5f 60 26 bd 90 76 8d bc 0e 56 5c bd 5a 71 84 bd
       -0.04061925 -0.017268449 -0.053793006 -0.064669326
000070 ba 9d 84 3d df ab a5 3c 87 09 ec 3d 21 0a e9 bb
       0.064753965 0.020223556 0.11525255 -0.007111803
000080 d5 74 1f bd d8 72 72 bb 80 ff 61 3d b3 17 b2 3d
       -0.03892978 -0.0036994722 0.055175304 0.086959265
000090 24 26 7a bd fd 98 46 bd 6d af 7e 3d a8 64 9d 3d
       -0.06107153 -0.048485745 0.062179018 0.07685214
0000a0 e8 45 cf 3c e5 6e 54 bd 59 b0 5c 3d 33 bf 9e 3d
       0.025301889 -0.05186357 0.053879116 0.07751312
0000b0 98 79 98 bd 61 ba 80 bd 36 69 9f bc c7 af 17 3d
       -0.07445067 -0.06285549 -0.019459348 0.03703287
0000c0 94 19 97 bd d7 34 97 3d be ce e1 bc 56 4c fc 3c
       -0.073779255 0.07383125 -0.027564403 0.030798119
0000d0 9c 6b 01 3c 2d cf 97 bc 04 3b 0b bd e3 9b 40 3d
       0.007899191 -0.018531406 -0.03399183 0.047023665
0000e0 35 4d 22 3d 34 5a 85 3d e1 49 7a bd 92 1e 7e bc
       0.03962441 0.065113455 -0.061105613 -0.015510218
0000f0 e3 20 c1 3c c7 23 9f 3c fe 0e 10 3d 91 fc c8 3b
       0.023575252 0.01942624 0.035170548 0.006133624
000100 18 5e da bb d9 7b 5c 3d cf 64 ca bc 6a 00 90 3a
       -0.006664049 0.053829048 -0.024706272 0.0010986452
000110 c8 6b a8 bd c0 19 a8 3b 9b 26 f2 bc 1f fe 89 3c
       -0.08223683 0.0051300228 -0.029559424 0.016844807
000120 f0 bb 89 bd 2f 94 8b bd 5a e0 94 3c d1 a4 eb bb
       -0.06725299 -0.06815373 0.018173385 -0.0071912785
000130 77 7c 06 bd e9 ae 83 bd e0 96 83 3d 52 09 71 3d
       -0.032833543 -0.06429846 0.064252615 0.05884678
000140 11 90 69 bd a1 43 63 3d 6d 12 99 3d 4d a5 23 bd
       -0.057022158 0.055484418 0.074742176 -0.039952565
000150 fc 53 a2 3d f8 17 7c bd 80 27 ac bd 63 25 59 bd
       0.07926175 -0.061546296 -0.084059715 -0.05301417
000160 36 c3 a4 bd cf 5c 4f bd 62 24 a0 3d 18 f2 76 bd
       -0.08045046 -0.05062562 0.078194395 -0.060289472
000170 c9 09 3a bd 29 a6 be 3a 6d ff 88 3d aa 1a 4e 3d
       -0.045419488 0.0014545369 0.066893436 0.050318398
000180 98 1c bf 3d 80 52 a7 3d 42 eb 80 3d d9 1e 1c bc
       0.09331626 0.081700325 0.06294872 -0.009528839
000190 60 b1 a9 3d ca 16 a7 3d 7a 4e 75 b6 e8 ea 08 3d
       0.08285785 0.081586435 -3.6553524e-06 0.03342715
0001a0 3b 10 19 bd 9a 69 31 bb 1f 43 42 3d f3 d1 18 3d
       -0.037368994 -0.0027071 0.047427293 0.0373096
0001b0 51 b2 4b ba 2d ec 78 bd f3 42 80 3d 3b e1 42 3d
       -0.00077704067 -0.06077211 0.062627696 0.047578078
0001c0 02 46 86 3d 57 4f 89 3c d7 29 3f bb d7 60 89 bd
       0.06556322 0.016761465 -0.0029169226 -0.06707924
0001d0 ca ee b3 bc 8a 66 8f bc ab 75 35 ba 63 fa 87 bd
       -0.02196445 -0.01750495 -0.0006922136 -0.06639554
0001e0 1f 57 46 3d 07 14 1a 3b 38 1e 2f 3b 8e 9f 11 bd
       0.04842293 0.0023510472 0.0026720893 -0.035552554
0001f0 12 76 df 3d ea 63 50 bc 54 96 2e bc de c7 3a bd
       0.10911192 -0.012719134 -0.010655958 -0.045600764
000200 fa 70 4b 3d fd a1 fc 3c 5f 68 1b bd 5e 6b 08 3d
       0.04966829 0.03083896 -0.037941333 0.03330552
000210 cd bd 17 bd fa 36 5d 3d fa 38 d2 bd d4 f3 88 3c
       -0.037046243 0.054007508 -0.10264774 0.016717829
000220 21 3f b3 bd 78 f9 37 3d 18 a9 0d bd 72 12 93 3b
       -0.08752275 0.044915646 -0.03458509 0.004488283
000230 27 0a 80 3c 09 87 41 bd d2 f3 6f 3d 3d 3b f5 bd
       0.015629841 -0.04724792 0.058582135 -0.119741894
000240 f9 21 0e 3d 32 f8 7f bd bd 48 4f bd 7f 50 21 bc
       0.034700368 -0.062492557 -0.050606478 -0.009845852
000250 29 be 0a bd cf 95 94 3c af 33 18 bd 02 43 01 bc
       -0.033872757 0.01813784 -0.037158664 -0.007889511
000260 0f d5 98 bb 31 7e 81 bc 7d 12 c5 bd 7a 40 cc 3a
       -0.0046640704 -0.015807243 -0.09622667 0.001558318
000270 5e 7d cc bd 68 b8 b4 3c ae 09 0f bb 86 21 16 bd
       -0.099848494 0.022060588 -0.0021825838 -0.036653064
000280 76 cb 83 bd fd 47 a6 bd 98 71 01 3d 97 95 38 bd
       -0.064352915 -0.081191994 0.031602472 -0.045064535
000290 7d b9 7b bd 90 c6 dd ba 91 bb 2e bd 7e ad ea bb
       -0.061456192 -0.0016920138 -0.042659346 -0.007161795
0002a0 64 af b2 bd 3b 85 bc bd 1b e8 12 3d 9d da 88 bc
       -0.08724859 -0.09205099 0.035865884 -0.016705805
0002b0 78 f8 43 bd 52 bc 82 3c 9e ad ea 3c f1 d6 96 bd
       -0.04784438 0.015958939 0.02864724 -0.073652156
0002c0 b9 dc 83 3c b2 50 4a bc 1a 4a 81 3b ee 40 a0 3b
       0.01609646 -0.012348341 0.003945601 0.0048905527
0002d0 8b 07 c2 bd 29 a7 c2 3b 68 b1 3d bd 0c 23 aa 3c
       -0.09474095 0.005940337 -0.046311766 0.020768665
0002e0 72 71 11 3d 5b 0e 49 bd 1c f6 05 bd 34 a8 2f 3d
       0.03550858 -0.049085956 -0.03270541 0.04288502
0002f0 83 bf 9f bd 4b d2 d4 bd 58 19 fb 3c 53 27 79 bd
       -0.078002 -0.10391673 0.030651733 -0.060828518
000300 6a 0f 60 3d b2 3f 8d bc 96 cb 8d 3d 5c 6e 3c bd
       0.0547022 -0.017242286 0.069235966 -0.046003684
000310 66 d2 8a bd 3f 49 51 bd d5 b3 ad 3b 40 2c ba bd
       -0.067784116 -0.051095244 0.0053009787 -0.09090471
000320 79 38 f3 3c 60 2a e5 3c db 3c ad bc 88 40 93 3d
       0.029690014 0.027974308 -0.021147182 0.07190043
000330 0e 38 08 3c 7f 4f 80 3c 14 2e 0b bd bb 38 c2 bd
       0.008314146 0.015662907 -0.03397949 -0.09483477
000340 3f bb 05 bd 65 5e f8 bc 5c 2e bb bd 35 c6 b8 bd
       -0.032649275 -0.030318448 -0.09139702 -0.0902218
000350 93 26 23 3d a6 c3 da bc d8 f1 a6 bd 75 43 4e 3d
       0.03983171 -0.02670462 -0.08151597 0.0503573
000360 97 a0 5d bd 1a 63 0d 3c 57 fa e7 bc ad e2 37 bd
       -0.05410823 0.008629585 -0.028317614 -0.04489391
000370 c5 e3 0e bd f0 cf c9 bd b8 9a 14 bc f2 61 c0 3c
       -0.034885187 -0.09854114 -0.009070091 0.023484204
000380 ac 02 ec bc 39 2b 91 bc 57 fb ad bc 1d be 87 bd
       -0.028809868 -0.017720805 -0.021238012 -0.06628058
000390 61 00 1d 3d d4 bf 5f bd 44 0d dc 3c 59 89 53 bc
       0.03833044 -0.0546263 0.026861794 -0.012911164
0003a0 c4 95 a9 bd 70 5c be bd f8 50 56 bc cc dd 33 3c
       -0.08280519 -0.09294975 -0.013080828 0.010978173
0003b0 a7 56 7c bd 33 af a3 bc 9a 13 59 3d 2e 13 83 bd
       -0.061606076 -0.019981002 0.05299721 -0.064001426
0003c0 6d e3 d4 bd 30 4f c9 bd dd c2 39 3d e0 f6 47 bd
       -0.103949405 -0.09829557 0.04535185 -0.048819423
0003d0 b1 84 3b bd 06 59 4a bd a0 64 b2 bd 87 77 d6 3c
       -0.04578084 -0.049401306 -0.08710599 0.026180042
0003e0 29 ba bb bd 30 ba 8f bc 3b 62 43 3d f4 96 50 3d
       -0.091663666 -0.017544836 0.0477011 0.05092521
0003f0 b8 e2 8d bc b3 11 03 bd 0d 38 a9 bc 5b 6a 11 bd
       -0.017320022 -0.0319993 -0.02065661 -0.03550182

weight f4 [32, 128]
000000 25 1f f8 3a 0a 13 71 bc 72 b1 c5 bc b3 f9 18 bd
       0.001893018 -0.014714012 -0.024132464 -0.037347507
000010 90 f1 95 bc 17 a4 ec 3a 99 b8 b3 3d 38 b0 ee 3d
       -0.018303663 0.0018054274 0.087754436 0.11654705
000020 13 c2 70 3d 00 ec 86 bb a4 93 dc 3c bd eb 00 3d
       0.058778834 -0.004117489 0.02692587 0.031474818
000030 c2 0d 40 bd be 6c 90 3d 74 87 b6 3c b0 0d cc 3c
       -0.04688812 0.07051991 0.022281386 0.02490887
000040 74 13 b8 3d d2 d9 54 bd 71 b1 3f bc bf d1 01 3e
       0.089880854 -0.051965542 -0.01170002 0.12677668
000050 c2 68 5b bd 2d 16 4f bd 99 71 2f 3d 81 da c6 3c
       -0.0535667 -0.050558258 0.042832945 0.024274113
000060 d1 91 4e 3d b2 54 b8 3b 1c 54 ee 3b 12 12 c4 bd
       0.05043203 0.005625331 0.00727321 -0.09573759
000070 ca 04 54 bd 01 75 1f 3d 0a b2 87 bc 09 34 77 3c
       -0.05176238 0.038929943 -0.016564388 0.01508809
000080 f2 3e 61 bc fc 3b 05 bc cf 51 b8 3a ac 77 49 bc
       -0.0137479175 -0.008131977 0.0014062467 -0.012296598
000090 8a f2 62 3d 12 3c a2 bd e7 9a be bd 65 78 97 bc
       0.055407085 -0.07921614 -0.09306889 -0.018490026
0000a0 fb 98 a5 bc 4f 0d 65 3d 53 5b 9e bd 8d d2 0a bd
       -0.020214548 0.055920895 -0.077322625 -0.033892203
0000b0 1d 46 4b bd 1a 07 53 3b 7f 27 8e bd a0 74 db 3c
       -0.049627412 0.0032200278 -0.06941127 0.02678901
0000c0 70 55 92 3c aa 92 2d 3d 1e 0c a5 3d 31 32 45 bd
       0.017863005 0.042376198 0.08058952 -0.04814357
0000d0 ea 1f 6b 3a 1e 9e fd 3d a4 cb 09 3b 23 a1 a6 3d
       0.0008969294 0.12383674 0.002102592 0.08136203
0000e0 82 14 1c bd 9e 7f 55 bd 2f 00 0a bc e2 e7 1b 3d
       -0.038105495 -0.05212366 -0.008422895 0.038062938
0000f0 d7 ce d2 3b 37 33 b4 3c 4a 09 43 3c fd 6a ca bc
       0.0064333486 0.021997077 0.01190407 -0.02470922
000100 03 64 bc bd 66 17 95 bc e2 d1 5c 3d 5b 25 2d 3d
       -0.09198763 -0.018199634 0.053911097 0.042271953
000110 f0 ae b6 3c 90 4b 4c 3d ff 35 cc 3c ba 95 23 bd
       0.022300214 0.04987675 0.024928091 -0.039937712
000120 50 e4 be bb d1 8a 78 bc 03 d5 38 3d 2e 94 7d 3d
       -0.005825557 -0.015169815 0.04512502 0.061908893
000130 59 3d 82 3d 87 4d 75 bd fb ff b4 bd 07 b6 1e bd
       0.063593574 -0.05988839 -0.08837887 -0.038747814
000140 d6 34 23 bd 33 a5 80 3d 5a 35 f9 3c 0a 02 56 3d
       -0.03984531 0.06281509 0.030420948 0.05224804
000150 35 a3 2f bc 71 d7 f3 bd b9 05 4b bc 82 50 92 3d
       -0.010720064 -0.119063266 -0.012391501 0.07144262
000160 55 a7 af 3c 33 5b 78 bd a1 9a d0 bd ee 89 89 bb
       0.021442095 -0.06063385 -0.10185743 -0.0041973507
000170 79 b5 04 3d d0 41 d5 bd 80 35 6a bd 57 fb 2a 3c
       0.03239963 -0.10412943 -0.057179928 0.010435901
000180 08 62 7b bd b5 dd ec 3c ea 62 33 3c 7d 6d 08 bd
       -0.061372787 0.028914312 0.010948876 -0.03330754
000190 ba fe 9a 3d b5 33 49 3c b9 01 68 3c 79 a2 d4 3d
       0.075681165 0.012280394 0.014160567 0.10382552
0001a0 2a 78 91 3d 39 2d 65 3a 46 40 26 3d b6 12 3b 3c
       0.071029976 0.00087423954 0.04058864 0.011418035
0001b0 c0 28 3e 3d 98 f1 19 3c a6 67 08 3d 07 4c 8b bc
       0.04642558 0.009395979 0.03330197 -0.017004026
0001c0 05 b9 dd bc cd 74 3a bd 29 09 35 3d 69 c0 81 ba
       -0.027065763 -0.045521546 0.04419819 -0.0009899262
0001d0 ef d4 ea bc 63 8d cb bd 56 64 ae 3c 3e 04 4f 3d
       -0.028665988 -0.09939077 0.021288078 0.050541155
0001e0 e3 a0 84 3c 23 e2 04 bd 88 07 3b bc 2f 03 39 bd
       0.016189998 -0.032442223 -0.01141537 -0.04516905
0001f0 4c 35 fa 3d 3b bb ea 3c 63 04 cb bc f9 a5 16 3c
       0.12217197 0.028653732 -0.024782365 0.009194844
000200 f0 54 e3 bd 92 70 de 3d 7b 27 a8 bc 86 f8 26 bd
       -0.11100185 0.10861315 -0.020526638 -0.040764354
000210 8a e2 b1 3b 62 10 47 3d f3 49 e6 3c 05 a9 33 3d
       0.005428617 0.04859961 0.028111434 0.04386236
000220 41 f7 2b 3d 8a 36 8c bd 1d 05 b9 bd 51 73 c7 bd
       0.041983847 -0.0684634 -0.090341784 -0.09738792
000230 ab a7 98 3d f8 af 16 3d 53 2f 0e 3d f3 58 9a 3c
       0.07453855 0.03678891 0.0347131 0.018841242
000240 35 fd 17 3c 64 59 d3 3a 03 63 5a bd bb fe 4e bd
       0.009276678 0.0016124663 -0.05331708 -0.0505359
000250 2a c6 b5 3c 5e fb a2 bd 60 38 17 3d c4 39 03 3d
       0.022189219 -0.07958101 0.036918998 0.03203751
000260 14 95 82 bd 2d 01 9a bd 5e 60 6c bd 31 59 4f 3d
       -0.06376091 -0.075197555 -0.05770909 0.05062217
000270 32 14 53 3d cb 1c 81 bd 37 6a d1 bd 81 94 62 3d
       0.05153293 -0.0630432 -0.10225337 0.055317406
000280 86 fe 95 bc 73 35 07 bd 38 c8 bd 3d a0 41 89 3d
       -0.018309843 -0.033009958 0.09266704 0.0670197
000290 e8 38 ac 3c 97 f7 fb 3c fe e9 39 bd 48 4d 9a 3d
       0.021023229 0.030757708 -0.045389168 0.075342715
0002a0 af ea 82 bd 06 d9 67 bd 86 88 15 bd b4 7f 97 39
       -0.063924186 -0.056603454 -0.036507152 0.0002889611
0002b0 ba d7 84 3d 04 11 22 3d c6 ab 87 3d d1 ec c2 3d
       0.06486459 0.03956701 0.0662456 0.095178254
0002c0 3b 24 4c 3d 25 c3 82 3d 07 f6 75 bd 99 f3 9f 3d
       0.04983924 0.06384877 -0.060049083 0.078101344
0002d0 2a 3d f3 bb db 30 a3 3c a6 d6 92 3b 7d d6 2f bd
       -0.007423063 0.019920757 0.0044811545 -0.04292916
0002e0 09 e5 6d 3c 16 c0 57 bd fe 5f cc 3c 2d 49 0e 3b
       0.014519938 -0.05267342 0.024948116 0.0021711097
0002f0 80 55 08 3d fe 7c 43 3d 70 42 1a 3a cf c6 bb 3d
       0.033284664 0.047726624 0.0005884534 0.09168779
000300 d4 35 07 bd eb 4d ac 3d d0 ec 62 3d a5 38 e1 bd
       -0.03301032 0.08413299 0.055401623 -0.10997132
000310 97 d4 9f bc 7f fa 33 bc c2 9a 7e 3d 6a fd c6 3d
       -0.01951055 -0.010985016 0.062159307 0.09716304
000320 f9 77 90 3d 6e 1b 3d bd 69 b5 c7 3d 0a 98 82 3b
       0.07054133 -0.046168737 0.09751398 0.0039854096
000330 0f 60 56 3d e5 97 34 3d ea b1 47 3c 2f 8b 93 3d
       0.052337702 0.04409017 0.012188414 0.072042815
000340 7e d9 9d 3b 7b 71 09 bd f5 40 44 bd 70 0c f0 bc
       0.004817187 -0.03355549 -0.04791351 -0.029302806
000350 5e f3 59 bd 1b e0 4f bc 39 6d 27 3c 9e a6 bb bc
       -0.05321061 -0.012687708 0.010218912 -0.022906598
000360 3e 89 34 3d ea 4b 88 3d f8 d3 00 3c a6 63 af 3d
       0.044076197 0.066551045 0.007863037 0.08563928
000370 3b fd a9 3c b6 59 29 3d e9 53 4e bd a7 bc 54 bd
       0.020750633 0.04134532 -0.05037299 -0.051937725
000380 46 01 79 bd 55 4d e2 bc 61 27 4e 3d 38 ec e3 3d
       -0.06079223 -0.027624765 0.050330523 0.111290395
000390 96 c0 8c bd 91 dd 25 3d f2 fc 94 3d 38 21 df 3c
       -0.0687267 0.040494505 0.07274808 0.02723752
0003a0 b5 94 58 3c 2e 3f 99 3d 97 04 22 3d 0c c0 a3 bc
       0.013219048 0.07482754 0.03955516 -0.019989036
0003b0 82 4f e4 3c a2 a5 d9 3d b2 92 ee 3b f3 12 d0 bc
       0.027869944 0.10627295 0.007280671 -0.02539966
0003c0 60 64 27 bd cc a0 0d bd 20 43 0d bd 8f 91 90 3c
       -0.04086721 -0.034577176 -0.034487844 0.017647533
0003d0 35 9d 41 bc 9e 7b 8f 3d ac 0d c2 bd f6 12 75 3c
       -0.011817266 0.07006 -0.09475264 0.014958134
0003e0 3f c4 5e bd df e6 a9 3d 17 0f 51 3c 33 29 35 3d
       -0.054386374 0.08295988 0.012759945 0.044228744
0003f0 55 d3 0e 3c a2 c5 6a bc a5 1b b6 bd 9a 28 94 bd
       0.008717378 -0.014329346 -0.088919915 -0.07234307

bias f4 [32]
000000 28 e0 ec 3c a8 bf f9 3c e1 26 06 3d ed 53 c8 bb
       0.02891548 0.030486897 0.03275192 -0.0061135204
000010 42 ad 1e bd 0a fb 67 bd ec 6a 69 be 75 e0 f2 3a
       -0.03873945 -0.056635894 -0.22794694 0.0018530028
000020 fe 63 31 bc 1d 2e 44 3d d7 66 45 bc 7c f7 2f bd
       -0.010827063 0.04789554 -0.012048445 -0.04296063
000030 14 81 c9 bc 1a 50 f1 3c 12 df ef bc f2 0d 8b bd
       -0.024597682 0.02945714 -0.029281173 -0.06789769
000040 46 4d 88 3d 4c 3f ff 3c c3 b4 40 be 4f 78 b4 bd
       0.06655364 0.031158112 -0.18818955 -0.088120095
000050 d6 61 88 bc 38 51 c0 bc 17 0d bb bc 86 6a 10 bd
       -0.016648214 -0.023476228 -0.02283339 -0.03525784
000060 65 2c ea 3d 5d cb e6 bc f4 f2 e4 bc 05 48 0e bd
       0.11434249 -0.028173143 -0.02794788 -0.034736652
000070 ba de f7 3b bd 2c 90 bc 41 a2 4b 3d c1 11 ae 3c
       0.007564393 -0.017599458 0.049715284 0.0212487

weight f4 [1, 32]
000000 77 a3 a3 bd 0b 42 4e 3d be fa 4c 3d a9 a3 98 3d
       -0.07990163 0.050355952 0.050043814 0.07453091
000010 e7 ac 8b 3d 83 73 86 bd f9 12 26 3d be 28 75 3d
       0.06820088 -0.06565001 0.040545437 0.059853308
000020 a9 7b a9 bd e8 7f 05 3d 61 c5 4e 3d 37 94 48 3d
       -0.082755394 0.032592684 0.050481204 0.048969474
000030 b2 c6 b1 3d 09 3f bc 3d 8a a0 57 3d cf 3d eb 3d
       0.08680476 0.091917105 0.052643336 0.114863984
000040 b8 9b a5 3c 0c 59 31 3d 7d d3 fb bd 2d a6 d6 bd
       0.020215854 0.043297812 -0.122961976 -0.10480914
000050 bc 8d 1c 3d e2 b4 bf 3d 77 a5 99 3d e9 c9 31 3d
       0.038221106 0.093606725 0.07502263 0.043405447
000060 42 8d 3d bc 53 67 27 bd 1c 1d 65 3d 4b 01 88 bd
       -0.011569323 -0.040870022 0.055935964 -0.066408716
000070 a2 45 f5 3c c5 df ca bd ac 14 b4 3c 08 f0 d3 bd
       0.02994043 -0.09905962 0.021982513 -0.10348517
