data/Ontario/sens_ontario.pt (torch, 338417 bytes, 7 tensors)

weight_ih_l0 f4 [512, 24]
0	0xbd770ddb	-0.060315948
1	0x3d85df6f	0.06536757
2	0xbd339db3	-0.043851566
3	0xbd054c62	-0.032543547
4	0xba1aa885	-0.0005899745
5	0x3d685047	0.056717183
6	0xbdae9c7f	-0.08525943
7	0xbcfdfaab	-0.031003317
8	0xbcb9c237	-0.022675617
9	0xbcd6a238	-0.026200399
10	0x3d19b813	0.037529062
11	0xbd5b9934	-0.053612903
12	0x3d0434a4	0.032276765
13	0x3ccb9ef5	0.02485607
14	0xbd8dce20	-0.06924081
15	0xbd35644f	-0.044285115
16	0x3d644b98	0.055736154
17	0x3c5d2423	0.013497385
18	0xbd19e72d	-0.037573982
19	0xbcc1c8c7	-0.023655308
20	0xbd2d7f6e	-0.042357855
21	0x3cf1c8ba	0.02951466
22	0x3d292211	0.041292254
23	0x3d5f72b7	0.05455276
24	0xbc93b2ee	-0.018029656
25	0xbd22e2b4	-0.039766982
26	0x3d616556	0.055028282
27	0x3d97d815	0.07414261
28	0x3d277087	0.0408788
29	0x3d588197	0.05285796
30	0x3d99eb32	0.07515563
31	0x3d2776aa	0.04088465
32	0xbd9190af	-0.07107674
33	0xba093ea8	-0.0005235472
34	0x3d7eac9c	0.062176332
35	0xbd93d288	-0.0721789
36	0x3cdd2349	0.026994364
37	0x3d4fa6ff	0.05069637
38	0xbda02bf9	-0.07820887
39	0xbd60370f	-0.054740008
40	0xbc924470	-0.0178549
41	0xbd5e8ab4	-0.054331496
42	0x3d859fda	0.0652463
43	0xbd8165d7	-0.063182525
44	0x3d6d8c95	0.057995398
45	0x3be647c2	0.007027597
46	0xbc0deebe	-0.008662878
47	0xbc6e6f80	-0.014552951
48	0xbd47067d	-0.048590172
49	0xbd1d13fc	-0.038349137
50	0xbc1920d3	-0.009346205
51	0xbc975024	-0.018470831
52	0x3d845123	0.06460788
53	0xbced8662	-0.028994743
54	0xbd5bbf9c	-0.05364953
55	0x3d5cca58	0.053903908
56	0xbc813db4	-0.015776493
57	0xbcad50b6	-0.02115665
58	0xbc858b31	-0.016301723
59	0x3da1fac1	0.07909156
60	0xbcff4675	-0.031161526
61	0x3d09da24	0.0336553
62	0x3ccaf605	0.024775514
63	0x3d769b17	0.0602065
64	0x3ae4338e	0.0017410384
65	0xbc33ff8e	-0.010986222
66	0x3cd23d8b	0.025664112
67	0x3cda6cdf	0.026663242
68	0xbb9e8b69	-0.0048383963
69	0x3db87649	0.09006936
70	0x3cc95446	0.024576318
71	0x3d8ec12c	0.06970438
72	0xbc048a4b	-0.008089612
73	0x3d91b88c	0.07115278
74	0x3d58b804	0.052909866
75	0x3d6bed24	0.0575992
76	0x3da2ef07	0.07955747
77	0xbd66b057	-0.056320515
78	0x3cd2384c	0.02566161
79	0x3c5f843c	0.013642367
80	0x3c8c6a72	0.0171406
81	0x3db60830	0.088882804
82	0x3c1b54bb	0.009480651
83	0xbda5394b	-0.080675684
84	0x3da87d27	0.08226996
85	0xbd49ed0c	-0.04929833
86	0x3b81e068	0.003963519
87	0x3c8d9f3c	0.017287843
88	0x3ca06b0c	0.019582294
89	0x3ccb7939	0.024838077
90	0x3d9b67d7	0.07588165
91	0xbd56adea	-0.05241195
92	0x3c648b8b	0.013949285
93	0x3db2956c	0.08719906
94	0xbd4fffef	-0.050781187
95	0x3db07af8	0.086172044
96	0xbcbc55dc	-0.02299016
97	0xbd095a10	-0.033533156
98	0x3dbc62ef	0.091985576
99	0xbd0aa808	-0.033851653
100	0x3dd124e4	0.102121145
101	0x3d075cd6	0.03304752
102	0x3d4f4761	0.05060518
103	0x3dc6585f	0.09684824
104	0x3bf5f147	0.007505569
105	0xbd2401ec	-0.040040895
106	0x3db9d60e	0.09074031
107	0x3dcd99b1	0.1003908
108	0x3d9c1080	0.076203346
109	0xbd591159	-0.05299506
110	0x3dc3347d	0.09531496
111	0x3dc7bb1b	0.097524844
112	0xbd37ec77	-0.044903245
113	0xbcf42c14	-0.029806174
114	0x3dc29abf	0.09502172
115	0x3d1dfe94	0.038572863
116	0xbd64ef75	-0.055892427
117	0xbcbffd33	-0.023436164
118	0xbd7c8a4c	-0.061655328
119	0x3dc663dd	0.09687016
120	0xbd42c82e	-0.047554187
121	0xbd977bde	-0.07396673
122	0x3c21cf66	0.009876108
123	0xbd922b2a	-0.07137139
124	0x3c353c38	0.011061721
125	0x3d14bd28	0.036313206
126	0xbdbeaf72	-0.09310807
127	0xbc6d559d	-0.014485744
128	0x3b614fd0	0.0034379847
129	0xbccf0a42	-0.025273446
130	0x3d5a3a75	0.053278405
131	0x3c3ba7a1	0.01145354
132	0xbdd7c2e5	-0.1053522
133	0xbdb53ed6	-0.08849876
134	0xbdcefadf	-0.101064436
135	0xbd2c9e4e	-0.04214316
136	0xbd46b17a	-0.0485091
137	0xbdd4389d	-0.103623606
138	0xbd11714d	-0.035508443
139	0xbcc3c37c	-0.023896925
140	0xbdd9d23c	-0.10635802
141	0xbcbef1aa	-0.023308594
142	0xbda49f4f	-0.08038198
143	0xbd2da78f	-0.042396124
144	0x3d98de23	0.07464244
145	0xbd6a465c	-0.057196006
146	0x3b107273	0.0022040873
147	0xbcc70ef6	-0.024299126
148	0x3cef55f0	0.029215783
149	0xbd03e7d3	-0.032203507
150	0x3da1e7d2	0.07905544
151	0x3d97f913	0.07420554
152	0x3d46ac79	0.048504326
153	0x3d1e7b38	0.03869173
154	0xbd9bd305	-0.07608608
155	0xbd0ed8fe	-0.03487491
156	0xbd5544dd	-0.052067626
157	0x3d98be0b	0.07458123
158	0xbd69ce6e	-0.057081632
159	0x3d048bdb	0.03235994
160	0xbbe977a9	-0.0071248603
161	0xbc8242f5	-0.015901068
162	0x3d7ec32c	0.06219785
163	0x3d9915ad	0.074748375
164	0x3d98d827	0.07463103
165	0xbbbeb2da	-0.0058196606
166	0xbd8fdae5	-0.07024173
167	0xbd5ec69d	-0.05438863
168	0xbd023865	-0.031792063
169	0xbc0c08dd	-0.008547035
170	0x3d61c16b	0.0551161
171	0xbcf3efcd	-0.029777432
172	0x3cc26b69	0.023732858
173	0xbca2a1cf	-0.019852547
174	0x3d66353b	0.05620311
175	0xbc2c4261	-0.010513873
176	0xbd34687b	-0.044044953
177	0x3d6e7022	0.058212407
178	0x3d572aef	0.05253118
179	0x3be3807f	0.006942808
180	0xbc81eb9c	-0.015859418
181	0xbd3a4a91	-0.04548127
182	0x3c2a1eb6	0.010383299
183	0xbd1a4318	-0.03766164
184	0x3d891e59	0.066952415
185	0x3d773d6c	0.06036131
186	0x3da3610b	0.07977494
187	0xbc8a6491	-0.016893657
188	0x3d8b818f	0.06811821
189	0xbcf6b87f	-0.030117271
190	0xbc88056c	-0.016604148
191	0xbd06cdad	-0.03291099
192	0xbd29c10c	-0.04144387
193	0x3d469d9c	0.04849015
194	0xbdbd7180	-0.09250164
195	0xbb3e1e01	-0.0029009583
196	0x3d7c78ca	0.06163863
197	0x3d9e7697	0.07737463
198	0xbd929761	-0.071577795
199	0xbd8746b4	-0.066052824
200	0xbd28b187	-0.04118493
201	0xbcd71cf6	-0.026258927
202	0x3d8acb7e	0.06777094
203	0x3d941c14	0.07231918
204	0x3d6730fc	0.0564432
205	0x3d7d642a	0.061863102
206	0xbdb348b4	-0.087541014
207	0x3c5030ba	0.01270693
208	0xbd0ee759	-0.0348886
209	0xbd2af7b9	-0.041740153
210	0x3d0b313e	0.033982508
211	0xbd61bb7f	-0.05511045
212	0x3d9b09d3	0.07570233
213	0x3d77cf11	0.06050021
214	0xbdcd59cc	-0.10026893
215	0xbc33524a	-0.010944912
216	0xbd9aaf6b	-0.075529896
217	0xbd500cc2	-0.050793417
218	0x3ce2d55f	0.027689634
219	0x3d8f3b22	0.069937006
220	0xbd555317	-0.052081194
221	0x3cde9810	0.027172118
222	0xbdbf4980	-0.09340191
223	0x3cdb1353	0.026742613
224	0x3d0d87b2	0.034553237
225	0x3c9ff157	0.01952426
226	0xbcaa818c	-0.020813726
227	0xbd692095	-0.05691584
228	0x3d6847c0	0.05670905
229	0x3d9c78f3	0.07640257
230	0xbd847770	-0.064680934
231	0xbcc54940	-0.02408278
232	0xbd8491ce	-0.064731225
233	0xbda1b5d8	-0.07896012
234	0xbd037859	-0.032097194
235	0x3bfc8148	0.007705841
236	0x3d22a64b	0.03970937
237	0x3d53e309	0.05173019
238	0x3c96b988	0.018399015
239	0xbd974b4e	-0.0738741
240	0x3d5a63f5	0.053317983
241	0x3c45b4c9	0.012067028
242	0x3d38b64d	0.04509573
243	0x3cc3fd65	0.023924539
244	0xbd957726	-0.072981164
245	0x3d1bad99	0.038007353
246	0x3c7f9ecf	0.015601828
247	0xbda00b0d	-0.07814608
248	0xbd19db33	-0.03756256
249	0x3d3ed10f	0.046586093
250	0xbd2b566e	-0.041830473
251	0xbba646b5	-0.005074347
252	0x3db08003	0.08618166
253	0x3c8ac7d2	0.016940985
254	0xbc9081ad	-0.01763996
255	0x3c106475	0.008813013

weight_hh_l0 f4 [512, 128]
0	0xbc5c9cc2	-0.013465108
1	0xbcbe22fc	-0.023210041
2	0x3cd775a3	0.02630121
3	0x3d6a6513	0.057225298
4	0xbd91cb6a	-0.07118876
5	0x3d28c610	0.041204512
6	0x3d18d37d	0.037311066
7	0xbc8a1a70	-0.01685831
8	0x3db80aa9	0.08986408
9	0x3c29b1ab	0.010357301
10	0xbd4b9d28	-0.049710423
11	0xbdbc05e3	-0.0918081
12	0xbd9cd7d9	-0.07658357
13	0x3da341a1	0.07971502
14	0xbd7d5208	-0.06184581
15	0x3da064be	0.07831715
16	0xbcb955d8	-0.022623941
17	0xbda97c1a	-0.082756236
18	0x3d4286c0	0.04749179
19	0x3cfbeaa1	0.030751528
20	0x3c4ad1e5	0.012379144
21	0xbc4787d2	-0.012178378
22	0xbdaf12f9	-0.085485406
23	0xbd281343	-0.041033994
24	0xbd9cd3db	-0.07657596
25	0x3d233b4f	0.039851483
26	0x3d282738	0.041053027
27	0x3c675352	0.014118986
28	0x3b24a6ef	0.0025123914
29	0xbc09ff3d	-0.00842267
30	0x3d2073cc	0.039172933
31	0x3d5bb2ee	0.053637438
32	0xbd62bc36	-0.055355273
33	0xbce8ace1	-0.028402748
34	0xbd4c149f	-0.049824353
35	0xbdda6793	-0.106642865
36	0x3cf068a8	0.029346779
37	0xbd031a7f	-0.03200769
38	0xbd38c8fc	-0.04511355
39	0x3d34df94	0.044158533
40	0x3ccbbc30	0.024870008
41	0x3d07cbb8	0.033153266
42	0xbcf46808	-0.029834762
43	0x3cc16a5e	0.02361029
44	0xbd4fc425	-0.050724167
45	0x3d9acecf	0.07558977
46	0xbd48f3d1	-0.049060646
47	0xbd1b87f1	-0.03797144
48	0x3c3505b8	0.011048727
49	0xbd9c8d08	-0.07644087
50	0x3dad662b	0.084667526
51	0xbc203509	-0.00977827
52	0x3d4e09cb	0.050302308
53	0xbc8d771c	-0.01726871
54	0xbd2c1376	-0.042010747
55	0x3d4283ad	0.047488857
56	0x3da3681c	0.07978842
57	0xbd885b83	-0.066580795
58	0x3c9d7c60	0.019224346
59	0x3dacc323	0.08435657
60	0x3d1ff049	0.039047513
61	0xbd2b9485	-0.041889686
62	0x3d29f38e	0.041492037
63	0x3c26181f	0.010137587
64	0x3da13609	0.078716345
65	0xbd305879	-0.043053124
66	0xbd957905	-0.07298473
67	0xbcfdf8d8	-0.031002447
68	0x3c7a542e	0.015278859
69	0x3d1f535d	0.03889786
70	0xbd752446	-0.059849046
71	0x3da2a8a3	0.07942321
72	0xbd373e4b	-0.04473714
73	0xbc1076b8	-0.008817367
74	0x3c2a40d7	0.010391436
75	0x3d7baf15	0.061446268
76	0xbdaf212e	-0.085512504
77	0x3d297d1a	0.04137907
78	0x3c94bc04	0.01815606
79	0xbd3167e7	-0.04331198
80	0xbd6157ed	-0.055015493
81	0xbd09a097	-0.033600416
82	0x3c706c6a	0.014674285
83	0xbd00e25b	-0.03146587
84	0x3d01a03f	0.031646963
85	0xbd8cdfc3	-0.06878617
86	0x3d2bcc5d	0.041942943
87	0x3b9e0ea5	0.004823523
88	0xbd098d6c	-0.033582136
89	0xbdb1494a	-0.08656557
90	0xbd58c97e	-0.052926533
91	0x3da2abb1	0.07942904
92	0x3d8c5b68	0.06853372
93	0x3d6269d0	0.055276692
94	0xbc8c9fb1	-0.01716599
95	0xbd5384b7	-0.05164024
96	0x3cbd6bcd	0.023122692
97	0xbd97f0ed	-0.07419
98	0xbd8bd1c2	-0.068271175
99	0xbdc65db9	-0.09685845
100	0xbd9d861b	-0.07691594
101	0x3cbbd6e1	0.02292961
102	0x3d5d6676	0.054052792
103	0xbd9ac1a6	-0.07556467
104	0x3dbb30b6	0.0914015
105	0x3d639727	0.055564072
106	0xbd64034a	-0.0556672
107	0x3d207242	0.039171465
108	0x3ca8b772	0.020595286
109	0x3d80cbd4	0.06288877
110	0xbcd6bc32	-0.026212785
111	0xbdae0c55	-0.08498446
112	0xbdb750d1	-0.089509614
113	0x3d1bd4b6	0.038044654
114	0x3da88df2	0.08230199
115	0x3d33af95	0.04386862
116	0xbce64139	-0.028107272
117	0x3d17da2c	0.0370733
118	0xbd98a6f0	-0.07453716
119	0xbd094d95	-0.033521254
120	0xbd9e6d25	-0.077356614
121	0xbc32ec9a	-0.010920668
122	0x3c7ea28a	0.015541682
123	0x3d770a75	0.060312707
124	0x3d2a85a1	0.041631345
125	0xbc1f981c	-0.009740856
126	0x3c55fed0	0.01306124
127	0xbd968ac3	-0.073506854
128	0x3ce77853	0.028255617
129	0x3d8ed529	0.06974251
130	0x3d51e87f	0.051247116
131	0xbd81fe04	-0.06347278
132	0xbc8c8a3c	-0.017155759
133	0xbce08ff5	-0.027412394
134	0x3d41d8a6	0.047325753
135	0x3d8b7735	0.06809846
136	0x3d4337bb	0.04766057
137	0x3d367bd3	0.04455168
138	0x3d18b4ac	0.037281677
139	0x3ca09dca	0.01960649
140	0xbd329f6f	-0.04360908
141	0xbb3e3a87	-0.0029026584
142	0x3cf38592	0.029726777
143	0x3d4ff2ff	0.05076885
144	0xbda33bda	-0.079704
145	0xbca5c8c8	-0.020237342
146	0xbd3b10e9	-0.045670424
147	0x3d94ca7d	0.07265184
148	0x3bc1a0d1	0.0059090634
149	0x3d67ec34	0.056621745
150	0x3c10edbf	0.008845746
151	0x3dbb5220	0.091465235
152	0x3d9717ec	0.073776096
153	0x3cedf4b8	0.029047355
154	0xbd859f14	-0.06524482
155	0x3d5d7346	0.05406501
156	0xbd1bfc3a	-0.03808234
157	0xbdbab083	-0.09115698
158	0x3b274a8a	0.0025526606
159	0x3dad0d8c	0.084498495
160	0xbdb2cdbd	-0.08730648
161	0xbd96a296	-0.073552296
162	0x3c9d3bde	0.019193586
163	0x3de6099d	0.11232302
164	0xbd001547	-0.03127029
165	0x3d23910a	0.039933242
166	0xbd322d29	-0.0435001
167	0xbc4ec70b	-0.012620698
168	0xbd0574a8	-0.032581955
169	0xbd5a05bc	-0.053228125
170	0xbca85547	-0.020548476
171	0xbd6696b2	-0.056296058
172	0x3db38c87	0.08767038
173	0x3d6e2ba7	0.0581471
174	0xbd902fb8	-0.07040352
175	0x3d23c053	0.039978337
176	0x3d1893fa	0.037250496
177	0x3d8a7ce4	0.06762102
178	0x3d494261	0.04913557
179	0xbd4fe302	-0.0507536
180	0x3ceb4f1f	0.028724251
181	0xbcf1ceb7	-0.029517515
182	0x3cf58db8	0.029974803
183	0x3d5b7300	0.05357647
184	0xbc95a447	-0.01826681
185	0x3ce37b8c	0.027768873
186	0xbd92e86b	-0.071732365
187	0x3b89597f	0.004191577
188	0x3d84a710	0.06477177
189	0x3bf5fe2b	0.007507106
190	0x3d1e1fa0	0.03860438
191	0xbd9f725a	-0.07785483
192	0xbd7238d6	-0.059136234
193	0xbcf035c9	-0.029322522
194	0xbd955e3d	-0.07293365
195	0xbcc6e95c	-0.024281196
196	0x3d9c49d8	0.07631272
197	0xbc8a0119	-0.016846227
198	0x3ce35b48	0.027753487
199	0xbd6fd279	-0.05855033
200	0xbd5071a5	-0.05088963
201	0xbcfb443b	-0.030672183
202	0x3d49134a	0.04909066
203	0x3d5a3730	0.053275287
204	0x3d690d90	0.0568977
205	0x3d58c509	0.052922282
206	0xbba83c10	-0.005134113
207	0x3d8b1f3d	0.067930676
208	0x3b237abc	0.0024944982
209	0xbdc86e15	-0.097866215
210	0x3d247aef	0.0401563
211	0xbd66308f	-0.056198653
212	0xbd0656af	-0.03279751
213	0xbdb558eb	-0.088548504
214	0x3cc9eef8	0.024650082
215	0x3cfece1d	0.031104142
216	0xbd9e7d7d	-0.07738779
217	0x3d535738	0.05159685
218	0xbc4603ca	-0.012085864
219	0xbd166153	-0.03671391
220	0xbd81eb2d	-0.06343684
221	0xbcdc5155	-0.02689425
222	0x3d0a5a51	0.03377754
223	0x3c8f45e9	0.01748939
224	0xbda1dbe9	-0.07903273
225	0x3c962c15	0.018331567
226	0x3ce5bcff	0.028044222
227	0xbd841eb8	-0.06451172
228	0xbd196a86	-0.037455104
229	0x3ca7e6c5	0.020495782
230	0xbd941c35	-0.072319426
231	0xbdcaab11	-0.098959096
232	0xbdab20eb	-0.08355888
233	0x3d7ea36f	0.06216758
234	0x3b9c5711	0.0047711213
235	0x3c015bf5	0.007895459
236	0x3d40384e	0.046928696
237	0x3c78c936	0.015184691
238	0xbdc94f34	-0.0982956
239	0x3cc1e48e	0.023668554
240	0x3c7c75fc	0.015408989
241	0xbd8cdf34	-0.0687851
242	0xbda7a89d	-0.08186457
243	0x3d056f89	0.03257707
244	0x3c1dfaf2	0.00964235
245	0xbda92645	-0.082592525
246	0xbd9272d4	-0.07150808
247	0xbd52c00d	-0.051452685
248	0xbd9d1848	-0.07670647
249	0xbd92ee25	-0.07174329
250	0x3cd13e0f	0.025542287
251	0xbc6a1331	-0.014286802
252	0xbd1a8c50	-0.03773147
253	0xbdc69fc6	-0.09698443
254	0x3d233fd9	0.03985581
255	0x3d558ca4	0.05213608

bias_ih_l0 f4 [512]
0	0xbd82cd2c	-0.0638679
1	0xbc6da953	-0.014505702
2	0xba0f12eb	-0.0005457836
3	0x3dab9979	0.08378882
4	0x3da4c986	0.0804625
5	0x3da2cb29	0.07948906
6	0x3a0de763	0.00054132025
7	0x3b9c8b26	0.00477733
8	0x3bb58f15	0.0055407383
9	0xbd646e7f	-0.05576944
10	0x3d32f94b	0.043694776
11	0x3d66ce64	0.056349173
12	0xbc00b28d	-0.00785507
13	0x3d14465d	0.036199916
14	0x3da4b9ae	0.08043228
15	0xbc895857	-0.016765757
16	0x3bd25824	0.0064191986
17	0x3d11776f	0.03551429
18	0x3d8cd2e1	0.068761595
19	0x3dcdc6ce	0.100476846
20	0xbca65557	-0.020304365
21	0x3bc7f007	0.0061016115
22	0x3cc49de9	0.024001079
23	0x3b6be91f	0.0035997105
24	0x3d164d2f	0.0366947
25	0x3c630a45	0.013857429
26	0x3d975536	0.073892996
27	0x3cba899d	0.022770697
28	0x3da1d8cc	0.07902679
29	0xbc6f0f5e	-0.014591066
30	0xbd536b33	-0.051615905
31	0x3d96f41e	0.073707804
32	0xbcb21dbd	-0.021742696
33	0x3de7a8d5	0.11311499
34	0x3cdb38b3	0.026760435
35	0x3db99151	0.0906092
36	0x3dbaf14f	0.09128057
37	0x3d8bc839	0.06825299
38	0xbc02ec6b	-0.007990937
39	0x3d87538b	0.066077314
40	0x3b270e8b	0.0025490846
41	0x3d8b9386	0.06815247
42	0xbd0f8ffc	-0.035049424
43	0xbd81e70a	-0.06342895
44	0x3dc5555f	0.09635424
45	0x3d9d7e2d	0.07690082
46	0x3cb67fa4	0.02227766
47	0xbd897b8f	-0.0671302
48	0xbcdc6378	-0.0269029
49	0x3c65065c	0.013978567
50	0xbd070f2f	-0.032973465
51	0x3db6a0e8	0.08917409
52	0xbd8d59a5	-0.06901864
53	0x3dd36a6e	0.10323034
54	0xbcbfbbb6	-0.023404937
55	0xbaf63260	-0.0018783323
56	0xbd5cafeb	-0.053878706
57	0xbd1df491	-0.038563315
58	0x3c0d2b6f	0.008616312
59	0xbd1994d9	-0.037495468
60	0x3dcc8c67	0.09987717
61	0xbd1edd50	-0.03878528
62	0x3a5f29ba	0.00085129926
63	0xbd591fa5	-0.053008694
64	0x3d81434f	0.06311666
65	0xbc69c31f	-0.014267712
66	0x3c4060e8	0.011741854
67	0xbdb74286	-0.08948235
68	0x3de2fad8	0.11083001
69	0x3ce2b650	0.027674824
70	0xbd2514b9	-0.040302966
71	0x3ce18032	0.027526949
72	0x3d00fb90	0.03148991
73	0x3c6e2531	0.014535234
74	0x3dbd9444	0.09256795
75	0x3d4a3c14	0.0493737
76	0xbbe867e8	-0.0070924647
77	0xbcce0ea2	-0.025153462
78	0xbd2c6f99	-0.042098615
79	0xbd7f347e	-0.06230592
80	0xbbebca65	-0.007195758
81	0xbd8a3e16	-0.06750123
82	0x3c4f2b71	0.012644635
83	0x3c7757cf	0.015096619
84	0x3dfc56fb	0.12321278
85	0xbd5d45db	-0.054021697
86	0xbd632f15	-0.055464823
87	0xbd8fafe0	-0.07015967
88	0x3dbf60d1	0.09344638
89	0x3b61d90c	0.0034461645
90	0x3d600b76	0.05469843
91	0x3d715799	0.05892143
92	0xbd46db0c	-0.048548743
93	0x3ddf78dc	0.10911724
94	0xbb953891	-0.0045538624
95	0xbd9cb9f9	-0.07652659
96	0xbd0e10e2	-0.03468407
97	0xbd715443	-0.05891825
98	0x3d9e6e54	0.07735887
99	0x3d59df6f	0.0531916
100	0xbcf0497f	-0.02933192
101	0x3dad3f18	0.084593
102	0x3cd1c5db	0.02560704
103	0x3dc6ca28	0.09706527
104	0x3d877faf	0.066161506
105	0x3cfe3226	0.031029772
106	0xbdc5324c	-0.09628734
107	0xbbb7b636	-0.005606438
108	0x3d0c847b	0.03430603
109	0x3bcf9a0a	0.0063355016
110	0xbc358b0e	-0.0110805165
111	0x3d47407f	0.048645493
112	0x3dae8f07	0.08523374
113	0x3da39f60	0.07989383
114	0x3b74de9c	0.003736413
115	0x3c565b5b	0.013083304
116	0x3d8f0ad3	0.069844864
117	0xbd940081	-0.072266586
118	0xbd0b6526	-0.03403201
119	0x3d9bb171	0.07602204
120	0xbcafe0d2	-0.021469507
121	0x3d2b4300	0.041811943
122	0x3d44db3c	0.04806064
123	0x3daa0949	0.08302552
124	0x3da7c71e	0.081922755
125	0xbd9b7538	-0.07590717
126	0xbd2aab70	-0.0416674
127	0x3cb2c90c	0.021824382
128	0xbdc75bbc	-0.09734294
129	0xbd8ef27f	-0.06979846
130	0xbd95579d	-0.072921015
131	0xbae20d89	-0.0017246465
132	0xbda2d016	-0.079498455
133	0xbcfc1d9b	-0.030775836
134	0xbd89161f	-0.066936724
135	0xbdb7fd1a	-0.08983822
136	0x3d4d273e	0.050086252
137	0xbddcd556	-0.10782878
138	0xbd18112b	-0.037125748
139	0xbdae34ec	-0.08506188
140	0x3d07ae63	0.033125293
141	0x3d85640f	0.06513225
142	0xbcc22dcf	-0.023703484
143	0xbd281eb9	-0.041044924
144	0xbdd135d6	-0.102153465
145	0xbc94b38a	-0.018152017
146	0x3c7b279d	0.015329269
147	0x3d215f91	0.03939778
148	0x3b1e81e8	0.0024186317
149	0x3c2680e9	0.0101625705
150	0xbabc3d02	-0.0014361443
151	0x3c0999b7	0.008398465
152	0xbd0e9448	-0.03480938
153	0xbdbb6f74	-0.09152117
154	0x3cd6d837	0.026226146
155	0x3b0e22cf	0.0021688228
156	0xbddb754e	-0.107157335
157	0x3d2c8317	0.042117205
158	0x3cd58104	0.026062496
159	0xbd94ac1e	-0.07259391
160	0xbc483fa8	-0.012222208
161	0xbd04d2d4	-0.032427624
162	0xbd4d3e03	-0.050107967
163	0xbd59a07f	-0.053131577
164	0x3a6b8380	0.00089841336
165	0xbdc84bb0	-0.09780061
166	0xbc67d1ee	-0.014149172
167	0xbd26461d	-0.04059421
168	0xbc7fecea	-0.01562045
169	0x3d44c100	0.04803562
170	0x3d906368	0.0705021
171	0xbd82b23a	-0.0638165
172	0x3cc6c66c	0.024264537
173	0xbc8c8ed3	-0.017157948
174	0x3bd2cb91	0.0064329584
175	0xbd4ac5e0	-0.049505115
176	0x3cbc76aa	0.023005802
177	0xbde04a5d	-0.10951684
178	0xbd9c4728	-0.076307595
179	0xbd4464ea	-0.0479478
180	0xbd08ca5e	-0.033396117
181	0xbc1bdbe1	-0.009512872
182	0xbdd294e0	-0.10282302
183	0x3d25af60	0.040450454
184	0xbcd112e4	-0.025521703
185	0x3c4e323d	0.01258522
186	0x3d696bce	0.056987576
187	0xbcfbb229	-0.030724602
188	0x3d4b5c98	0.04964885
189	0x3c8acbd4	0.016942896
190	0xbdd2ffd4	-0.103027016
191	0x3d50c99f	0.05097353
192	0xbda99b81	-0.08281613
193	0xbcc3a93a	-0.023884404
194	0x3bde35d1	0.0067813178
195	0x3cc10611	0.023562463
196	0xbdbdb5c0	-0.09263182
197	0x3bd3e9e9	0.0064670932
198	0xbd8265e7	-0.063670926
199	0xbba8cc27	-0.00515129
200	0xbd56fdf6	-0.05248829
201	0xbcb62af9	-0.022237288
202	0xbd9384e5	-0.07203082
203	0xbddf30f2	-0.108980075
204	0xbd566cd7	-0.05234989
205	0xbb235144	-0.0024920264
206	0xbd523d08	-0.051327735
207	0xbd88bb3b	-0.066763364
208	0xbd98952f	-0.074503295
209	0xbc368375	-0.01113974
210	0x3d6393d5	0.055560905
211	0xbd9c8ea7	-0.07644396
212	0xbdba6e0c	-0.09103021
213	0x3d675e2f	0.056486305
214	0x3d2e5f03	0.04257108
215	0xbd8e0d8e	-0.06936179
216	0x3cd45bf6	0.025922757
217	0xbd276900	-0.04087162
218	0xbb63766d	-0.0034708038
219	0x3b107ac5	0.0022045833
220	0xbc6bb2e9	-0.014385917
221	0xbd791ce6	-0.060818575
222	0xbd8e6b6a	-0.06954081
223	0xbcb467fb	-0.022022238
224	0xbd2215cc	-0.03957157
225	0xbbc821e4	-0.0061075557
226	0x3cd7b48c	0.026331209
227	0xbd63d984	-0.05562736
228	0xbd829271	-0.06375588
229	0xbd535cdc	-0.05160223
230	0xbdb32ed3	-0.087491654
231	0x3d77597b	0.06038807
232	0x3d46033f	0.04834294
233	0x3b55af09	0.003260555
234	0x3cccdd5d	0.025007898
235	0xbc828adf	-0.01593536
236	0xbd98f005	-0.07467655
237	0xbcc5ed54	-0.024161018
238	0xbd1e3ac0	-0.038630247
239	0xbd4aed9f	-0.04954302
240	0xbcd60ae6	-0.026128244
241	0xbad367d8	-0.001612897
242	0xbdd3fa8c	-0.103505224
243	0xbdbf3228	-0.093357384
244	0xbc60761f	-0.013700037
245	0xbc966324	-0.01835782
246	0x3d715d54	0.058926895
247	0xbd152c6a	-0.03641931
248	0xbd91ca8c	-0.07118711
249	0xbde781da	-0.11304064
250	0xbd00cceb	-0.031445425
251	0x3d7484a5	0.059696812
252	0xbdd2782d	-0.10276828
253	0x3d7f462b	0.062322777
254	0xbd9b8a20	-0.07594705
255	0x3d7f0a4c	0.06226568

bias_hh_l0 f4 [512]
0	0xbd680f77	-0.056655373
1	0xbd05dca9	-0.03268114
2	0x3cb179a9	0.021664457
3	0xbd42b525	-0.047536034
4	0xbd87afd0	-0.066253304
5	0x3d462f79	0.048385117
6	0x3d5b934d	0.053607274
7	0x3db41811	0.08793653
8	0x3d999b53	0.07500329
9	0x3d32644b	0.043552678
10	0x3cea1c08	0.02857782
11	0x3d67fed4	0.056639507
12	0x3d8276e6	0.06370334
13	0x3d8b3b52	0.06798424
14	0xbbfd2dcb	-0.007726406
15	0x3d9d159c	0.07670137
16	0x3d63bd3a	0.055600382
17	0x3c10dc70	0.008841619
18	0xbb574cc6	-0.0032852157
19	0xbb0f84a1	-0.0021899121
20	0x3c339508	0.010960825
21	0xbcea249c	-0.02858191
22	0x3d23c7ac	0.039985344
23	0x3d58684e	0.052833848
24	0xbda45115	-0.08023278
25	0x3b9ff1a9	0.004881103
26	0xbc8c0c28	-0.01709564
27	0x3d241ec4	0.040068403
28	0xbd06d244	-0.03291537
29	0x3ca63321	0.020288052
30	0x3de98581	0.11402417
31	0xbd850a61	-0.0649612
32	0x3d112709	0.035437617
33	0x3ad2b0ff	0.0016074477
34	0x3cbd187a	0.02308296
35	0x3cd18cce	0.025579836
36	0x3dd2fb28	0.103018105
37	0xbc454d97	-0.012042425
38	0xbd41d650	-0.047323525
39	0x3d6ce1f2	0.057832666
40	0xbd3d0adb	-0.04615293
41	0xbd12fbff	-0.035884853
42	0xbd5643d3	-0.052310776
43	0x3c3dae0b	0.01157714
44	0x3d047dbf	0.032346483
45	0x3ce0d14c	0.02744355
46	0xbd3430e8	-0.043991953
47	0x3cb1d4bc	0.021707885
48	0xbd9231e2	-0.07138421
49	0x3d5888b1	0.052864734
50	0xbd88e0e2	-0.06683518
51	0x3da69bac	0.08135161
52	0x3c5790fd	0.0131571265
53	0x3dec7712	0.11546148
54	0x3b362457	0.0027792656
55	0x3a8daa8f	0.0010808277
56	0x3b240fb4	0.0025033774
57	0xbd786273	-0.060640763
58	0xbaf983b0	-0.0019036438
59	0x3c471f99	0.01215353
60	0x3cbd81ff	0.023133276
61	0xbd88950b	-0.06669053
62	0x3c36a601	0.011147977
63	0x3cc74b76	0.024327975
64	0x3d91de77	0.0712251
65	0x3cf4843e	0.029848214
66	0xbc948162	-0.0181281
67	0x3cb8f0d5	0.022575775
68	0x39fe60db	0.00048518818
69	0x3d27ff2a	0.041014828
70	0xbcd71a51	-0.026257666
71	0xbd6bb4ef	-0.0575456
72	0xbd4d392c	-0.05010335
73	0x3d0fa9c1	0.035074
74	0x3d7393c7	0.059467103
75	0x3d887389	0.066626616
76	0xbd53cd4d	-0.051709462
77	0xbd1c4d3e	-0.0381596
78	0x3da2efa0	0.07955861
79	0x3dcb5fa1	0.09930349
80	0xbd2c2caa	-0.042034782
81	0xbcf33406	-0.029687893
82	0xbd5c9a1c	-0.053857908
83	0xbcc32d95	-0.023825446
84	0x3cf0c180	0.029389143
85	0x3d7a7e31	0.0611555
86	0xbb3e4d74	-0.0029037865
87	0x3b752817	0.0037407929
88	0x3dae4fe9	0.085113354
89	0x3ca601b6	0.020264488
90	0xbc9eac90	-0.019369394
91	0xbd4f8a8c	-0.050669238
92	0x3da3daa1	0.080006845
93	0x3cf6e94f	0.030140547
94	0xbdafb3ac	-0.085791916
95	0xbcf8a1f5	-0.030350665
96	0x3bfcff60	0.0077208728
97	0xbd818cc0	-0.06325674
98	0x3d877bfe	0.066154465
99	0x3cc1a6dc	0.023639135
100	0xbda979c6	-0.082751796
101	0x3d9489d4	0.07252851
102	0x3dbe4cb8	0.09291977
103	0xbbcba48a	-0.006214683
104	0xbd90c54e	-0.07068883
105	0x3a29109f	0.0006449315
106	0x3d1b98d9	0.037987564
107	0x3da96479	0.08271117
108	0x3d299b78	0.041408032
109	0xbd42f290	-0.047594607
110	0x3d0cf16c	0.034409925
111	0xbd443391	-0.04790074
112	0xbd9cae6b	-0.07650455
113	0x3d8fec5e	0.07027505
114	0x3d80598e	0.06267081
115	0xbc9ef1cf	-0.019402413
116	0x3bc8cf84	0.0061282534
117	0xbc23faca	-0.010008523
118	0xbd39c1fb	-0.04535101
119	0xbd42c66f	-0.047552522
120	0xbdaac042	-0.083374515
121	0x3dbd38e1	0.092393644
122	0x3de3e522	0.11127688
123	0x3c4cc484	0.012498025
124	0xbcefc206	-0.029267322
125	0xbbe04223	-0.0068438216
126	0xbd827dca	-0.063716486
127	0xbd7cf869	-0.06176034
128	0xbd878dc0	-0.066188335
129	0xbbf80a58	-0.0075695924
130	0x3d1be653	0.03806145
131	0x3cf8b4c0	0.030359626
132	0xbe031a92	-0.12803105
133	0x39848ccb	0.000252819
134	0x3d68978f	0.056785163
135	0xbdb2c1b0	-0.08728349
136	0xbd8576a6	-0.06516771
137	0xbdc7822f	-0.097416274
138	0x3d746b7b	0.059672814
139	0x3d1d6a74	0.0384316
140	0x3ccbe01a	0.024887133
141	0xbd8fa1ae	-0.0701326
142	0xbdc23535	-0.09482805
143	0xbc2a2cff	-0.0103867045
144	0xbdb4e0a3	-0.088319086
145	0x3c6f9e20	0.014625102
146	0x3d968090	0.0734874
147	0x3c4528e2	0.012033673
148	0xbd6ba0e7	-0.057526495
149	0x3cd04c55	0.025427023
150	0xbd9b8b1d	-0.07594893
151	0x3d958cb3	0.07302227
152	0xbdd2eb83	-0.102988265
153	0xbbf86bee	-0.0075812256
154	0xbd744237	-0.05963346
155	0xbd9bd6d6	-0.07609336
156	0x3cfd7e62	0.030944053
157	0xbdde668b	-0.10859402
158	0xbdb5eae9	-0.08882696
159	0x3c288a0d	0.01028682
160	0xbcfa8d0a	-0.03058483
161	0xbd6b4119	-0.05743513
162	0x3d55565c	0.05208431
163	0x3d15d085	0.036575813
164	0xbd4d2002	-0.050079353
165	0x3d91a126	0.07110815
166	0xbd7d08b8	-0.061775893
167	0x3ce65a32	0.02811918
168	0xbd61898b	-0.05506281
169	0x3d885099	0.06655998
170	0x3d92f5e1	0.07175804
171	0xbc240085	-0.0100098895
172	0xbcaac370	-0.020845145
173	0xbdad0b62	-0.08449437
174	0x3c162217	0.009163401
175	0xbd3c58bd	-0.045983065
176	0x3cf4017b	0.029785862
177	0xbdcd3d58	-0.10021466
178	0xbd821a5b	-0.06352683
179	0x3d848753	0.064711235
180	0xbc4b7918	-0.012419008
181	0x3d4997c0	0.049216986
182	0x3d75144a	0.059833802
183	0x3c26a682	0.0101715345
184	0xbcb64b9b	-0.022252848
185	0xbd007ee7	-0.031371024
186	0x3d2d1a3f	0.04226136
187	0x3d5661d5	0.052339394
188	0x3d6bbc39	0.05755255
189	0xbd9db93c	-0.07701346
190	0x3d48990b	0.04897408
191	0x3d46faeb	0.048579138
192	0xbd68d0a6	-0.056839608
193	0x3d4c1da2	0.049832948
194	0x3d1d8d8f	0.03846508
195	0xbc79f0ea	-0.015255192
196	0x3ca7a79c	0.020465665
197	0x3997897b	0.00028903395
198	0xbd39a820	-0.045326352
199	0xbabd1c51	-0.0014427995
200	0x3d126f04	0.035750404
201	0xbdb6d286	-0.08926873
202	0x3d1403be	0.03613638
203	0x3a9e0f91	0.0012059083
204	0x3d5bea4f	0.05369025
205	0xbda71a57	-0.08159321
206	0xbda19d8e	-0.07891379
207	0x3d597afc	0.053095803
208	0xbdbc62ba	-0.09198518
209	0xbbb374f8	-0.0054765902
210	0xbc6a0615	-0.014283677
211	0x3d1352ad	0.035967518
212	0xbd9b8d5f	-0.07595324
213	0x3b585919	0.003301209
214	0x3d62c057	0.05535921
215	0xbd0e14c9	-0.03468779
216	0x3d0626a5	0.032751698
217	0xbcd471de	-0.025933202
218	0xbdd78bea	-0.10524733
219	0xbdb3bc2e	-0.08776127
220	0x3c7c338a	0.015393147
221	0xbd321a4e	-0.043482117
222	0xbdc271f9	-0.09494395
223	0xbd94e899	-0.07270927
224	0xbd867d5b	-0.065668784
225	0x3cd9c46a	0.026582915
226	0x3cae354a	0.021265645
227	0xbd204a03	-0.039133083
228	0xbc95e485	-0.018297443
229	0x3c172dce	0.009227229
230	0xbde5e951	-0.11226142
231	0xbdcdad45	-0.10042814
232	0xbbdbc7af	-0.0067071537
233	0xbdf44467	-0.11927109
234	0xbd84e52d	-0.06489024
235	0x3d60b094	0.054855898
236	0xbdbaee42	-0.09127475
237	0xbd839132	-0.06424178
238	0xbc78187f	-0.015142559
239	0xbc595ebc	-0.013267215
240	0x3d3c828d	0.04602294
241	0xbdcdd806	-0.10050969
242	0x3d6b1066	0.057388686
243	0xbdb551e9	-0.08853514
244	0x3d51b368	0.051196486
245	0x3c8fcbc5	0.01755322
246	0x3b612dcc	0.0034359572
247	0x3d139e3d	0.03603958
248	0xbda01547	-0.07816558
249	0xbdc7c7a7	-0.097548775
250	0xbd8de83b	-0.0692906
251	0xbd3f36a8	-0.046682984
252	0xbdb2bb93	-0.08727183
253	0x3c6012dd	0.013676372
254	0x3d485690	0.048910677
255	0xbda7467b	-0.0816774

weight f4 [32, 128]
0	0xbc30a574	-0.010781635
1	0xbdb274f7	-0.087137155
2	0xbca191a9	-0.019722776
3	0xbb87f2aa	-0.004148801
4	0xbcfd3d11	-0.030912908
5	0xbcd2daa3	-0.02573902
6	0x3d77d4ab	0.06050555
7	0xbdb76bc7	-0.08956104
8	0x3da6fed5	0.08154074
9	0x3d88156c	0.06644711
10	0x3d51a979	0.051187012
11	0xbcc9d780	-0.024638891
12	0x3cbc0249	0.022950308
13	0xbd5dcfb4	-0.05415316
14	0xbdc55c46	-0.096367404
15	0xbc11b65d	-0.008893576
16	0x3d53bd4e	0.051694207
17	0xbd4de2bf	-0.05026507
18	0xbd446b4d	-0.047953892
19	0xbd9549de	-0.0728948
20	0xbd4fe1b6	-0.050752364
21	0x3d55a83f	0.052162405
22	0x3d31efb2	0.043441482
23	0xbdbad3b4	-0.091224104
24	0x3d923bf0	0.071403384
25	0x3d4010e7	0.04689112
26	0x3c08c781	0.008348347
27	0x3d539798	0.051658243
28	0x3b13bea3	0.0022544048
29	0x3dbc3803	0.09190371
30	0xbdc4937a	-0.095984414
31	0xbd85c745	-0.06532148
32	0x3d6cf333	0.05784912
33	0x3d922703	0.07136347
34	0xbda5da6f	-0.080983035
35	0x3bdc740b	0.0067277006
36	0x3ba54127	0.005043167
37	0xbdca528d	-0.098790266
38	0x3cf679a4	0.0300873
39	0x3c8e9596	0.017405313
40	0xbcf45162	-0.029823963
41	0xbd2b3e36	-0.041807376
42	0x3ce46cc9	0.027883904
43	0xbd5119eb	-0.051050108
44	0xbd88e645	-0.066845454
45	0x3d1b0267	0.037844088
46	0x3cbb9f87	0.022903217
47	0xbd910660	-0.07081294
48	0x3c971011	0.018440278
49	0xbd45aa05	-0.048257846
50	0x3d824052	0.063599244
51	0x3dad611d	0.084657885
52	0x3ddf009b	0.10888787
53	0x3daac286	0.08337884
54	0x3c9e7c81	0.019346477
55	0xbcec7221	-0.028863015
56	0x3d07e935	0.033181388
57	0x3a40dfad	0.0007357549
58	0xbc1a74a7	-0.009427226
59	0xbbd6b955	-0.006552855
60	0x3db13341	0.08652354
61	0xbd22dbca	-0.03976039
62	0xbd1a3c9d	-0.03765546
63	0x3d47d930	0.04879111
64	0x3cdd8314	0.027040042
65	0x39a44e7f	0.00031339002
66	0xbd7f595e	-0.062341087
67	0x3bc361ae	0.005962572
68	0x3d459398	0.04823646
69	0x3b0e8c25	0.0021751013
70	0xbc8dc8b5	-0.017307619
71	0x3d2284eb	0.03967754
72	0xbd1ecc1d	-0.038768876
73	0x3d49f8f2	0.04930968
74	0xbbc1325a	-0.005895895
75	0xbd25ee41	-0.04051042
76	0x3c5a7adc	0.013334956
77	0x3bbecd89	0.0058228415
78	0xbbede6ec	-0.007260194
79	0xbbfaaccc	-0.0076499935
80	0x3db2987e	0.08720492
81	0xbd04eab9	-0.03245041
82	0x3c61b491	0.013775961
83	0x3d3e8a40	0.046518564
84	0x3ccab0ff	0.024742601
85	0xbcc73acf	-0.024320034
86	0x3c2ab8b2	0.010420011
87	0x3ddf92b0	0.1091665
88	0xbd26aeaa	-0.040693916
89	0x3d0dadeb	0.03458969
90	0xbc802486	-0.015642416
91	0xbd33e0b2	-0.043915458
92	0x3cdcee1a	0.026969004
93	0xbcf5cbbe	-0.030004378
94	0x3d703090	0.058640063
95	0xbd601900	-0.05471134
96	0x3c2183b5	0.009858062
97	0xbbfa402c	-0.0076370444
98	0xbd25dc31	-0.040493194
99	0x3ccdd9ff	0.025128363
100	0xbc9726b5	-0.018451074
101	0x3dc00dff	0.093776695
102	0xbd2a1b78	-0.041530102
103	0x3db27c8a	0.0871516
104	0x3bf1e53d	0.0073820637
105	0xbc71a881	-0.014749647
106	0x3d8f5023	0.06997707
107	0x3a41235e	0.0007367636
108	0x3d615137	0.055009093
109	0xbc409318	-0.01175382
110	0x3d4ce010	0.05001837
111	0x3d4738aa	0.048638023
112	0xbce11833	-0.02747736
113	0x3d95a397	0.07306593
114	0x3d4023ab	0.046909016
115	0x3d1d8557	0.03845724
116	0xbd5ac71c	-0.05341254
117	0x3ce309ec	0.027714692
118	0xbd30ca2e	-0.043161564
119	0x3d4e1968	0.050317198
120	0x3bbbc52e	0.0057302928
121	0x3d3bd323	0.045855653
122	0xbd0caaab	-0.03434245
123	0xbd42d56b	-0.047566812
124	0xbc2e94c1	-0.010655583
125	0xbb1297ca	-0.0022368305
126	0xbb04c046	-0.0020256205
127	0x3c3c8e42	0.011508526
128	0x3d3a9499	0.04555187
129	0xbcd1f044	-0.025627263
130	0xbd69beff	-0.057066914
131	0x3ca10600	0.019656181
132	0x3d3f3382	0.04667998
133	0x3c5b6a9e	0.013392119
134	0xbd7ffe58	-0.06249842
135	0xbcd0833b	-0.0254532
136	0xbdd5d2e3	-0.10440614
137	0xbcbd5c76	-0.023115378
138	0xbd98d2c2	-0.07462074
139	0xbd35b815	-0.044365007
140	0xbdb3d43e	-0.08780716
141	0xbd11abd9	-0.035564277
142	0xbdade8d1	-0.08491672
143	0xbd01dda4	-0.031705514
144	0xbd3cf961	-0.046136264
145	0xbda00871	-0.0781411
146	0xbc8544f5	-0.016268233
147	0xbd49e1b0	-0.049287498
148	0xbd6ebcff	-0.05828571
149	0xbd3b5e32	-0.04574413
150	0xbca1645c	-0.019701175
151	0x3cb93bc2	0.022611503
152	0x3c9f4dea	0.019446332
153	0x3cd1f104	0.02562762
154	0xb9a8b655	-0.00032179305
155	0x3d4788a0	0.04871428
156	0xbcef58f0	-0.029217213
157	0xbce30941	-0.027714374
158	0xbca4e8b5	-0.020130495
159	0x3da1be83	0.07897665
160	0xbd1c4e85	-0.03816082
161	0x3d506981	0.050881866
162	0xbd8d7754	-0.06907526
163	0x3c11d523	0.008900913
164	0xbda964b3	-0.0827116
165	0x3d219bb7	0.039455142
166	0xbdb73f21	-0.08947588
167	0xbd47c04e	-0.04876738
168	0x3d3461bf	0.04403853
169	0xbba8b3de	-0.005148395
170	0x3d1104c7	0.035404947
171	0x3d0f861a	0.03504
172	0x3c771b5d	0.0150822075
173	0xbd5301e4	-0.051515475
174	0xbca783e5	-0.020448634
175	0xbd3125e8	-0.04324904
176	0x3da58270	0.080815196
177	0x3d12a740	0.035804033
178	0xbca2f060	-0.01989001
179	0xbcbdb00f	-0.02315524
180	0xbc8c8af8	-0.01715611
181	0xbd052b98	-0.032512277
182	0x3dcf8771	0.10133255
183	0x3ccd6232	0.025071237
184	0x3cadedbe	0.021231528
185	0x3d42628c	0.047457263
186	0x3cdfaec8	0.027305022
187	0x3d917401	0.07102204
188	0xbd6e881d	-0.058235276
189	0xbd94cd2c	-0.07265696
190	0x3db23045	0.08700613
191	0xbd4b7f5e	-0.049682014
192	0x3cadabae	0.021200027
193	0xbd860505	-0.06543926
194	0xbd033b00	-0.03203869
195	0x3b6b1ff4	0.00358772
196	0xbda7eab7	-0.08199065
197	0xbcec227f	-0.028825043
198	0x3d53d002	0.051712044
199	0xbcd30e11	-0.025763543
200	0xbcbdf19c	-0.023186497
201	0x3ce2a9c9	0.02766885
202	0xbd786538	-0.060643405
203	0xbbc1aee8	-0.005910743
204	0x3d0c346f	0.034229692
205	0x3c6d3470	0.014477834
206	0x3bdcd1d9	0.006738883
207	0x3bb9ba7c	0.0056679826
208	0xbd5a241d	-0.053257097
209	0x3d3a05d9	0.045415733
210	0xbd9867b8	-0.07441658
211	0x3ca934d4	0.020655073
212	0x3cb4ff87	0.022094501
213	0x3d439515	0.047749598
214	0x3d481d29	0.048855934
215	0xbd3c231c	-0.04593192
216	0xbd75d0a8	-0.060013443
217	0x3d522347	0.051303174
218	0x3cee3da8	0.029082134
219	0x3d6b5236	0.05745145
220	0xbdc2710c	-0.09494218
221	0x3d18762b	0.03722207
222	0xbd15f545	-0.03661086
223	0xbdb5e60b	-0.08881768
224	0x3d13760b	0.036001246
225	0x3d0fcce9	0.035107527
226	0xbd3fc3d4	-0.046817616
227	0xbc7e43d4	-0.015519101
228	0x3cdc51a7	0.026894404
229	0xbdc28473	-0.09497919
230	0x3d9af9c7	0.075671725
231	0x3d223593	0.039601874
232	0xbceed65c	-0.029154949
233	0xbc8ef9c8	-0.01745309
234	0xbc97c60f	-0.018527059
235	0x3d88fed4	0.066892296
236	0xbd351b68	-0.04421559
237	0x3d164e43	0.03669573
238	0x3d031c2c	0.03200929
239	0xbce78d0f	-0.028265504
240	0xbd9fa292	-0.0779468
241	0x3d6b6d68	0.057477385
242	0xbcaa4ad2	-0.02078763
243	0x3d146d9e	0.03623735
244	0x3d860b5c	0.065451354
245	0x3caed544	0.021341927
246	0xbd26d64b	-0.04073171
247	0x3c20e945	0.009821241
248	0x3d5ac96c	0.053414747
249	0xbd197986	-0.03746941
250	0xbca94aea	-0.020665605
251	0x3c142cb6	0.009043863
252	0x3c408ffc	0.011753079
253	0xbc034a14	-0.008013267
254	0xbc56ce0d	-0.01311065
255	0x3cefc163	0.029267019

bias f4 [32]
0	0x3cd385ae	0.02582058
1	0x3d3662af	0.044527706
2	0x3d3ac231	0.04559535
3	0x3cd48a4e	0.025944855
4	0xbd1c40fa	-0.038147904
5	0xbd1f4ab3	-0.038889598
6	0x3ac3a56a	0.0014926617
7	0x3d5fdce2	0.05465401
8	0xbab3df26	-0.001372312
9	0xbd9acc63	-0.07558515
10	0xbc10470c	-0.008806001
11	0xbcbaeca7	-0.022817923
12	0xbc103695	-0.008802076
13	0xbe0ec223	-0.13941245
14	0x3dd4ad66	0.103846356
15	0x3d303720	0.04302132
16	0xbc49d3c4	-0.012318555
17	0x3d2e5fa4	0.04257168
18	0x3d4c4810	0.04987341
19	0xba2a2cdc	-0.000649167
20	0x3bd1ad4a	0.0063988315
21	0x3d2ccc74	0.04218717
22	0x3be83a9a	0.007087064
23	0xbe366036	-0.17810139
24	0xbd06a6ab	-0.03287379
25	0x3cf34a75	0.02969859
26	0x3d484d77	0.048902
27	0x3d3ae9b5	0.045633037
28	0x3da018de	0.07817243
29	0xbe4c5a11	-0.19956233
30	0x3b273715	0.002551501
31	0x3cdce6b2	0.026965473

weight f4 [1, 32]
0	0x3d1d57d0	0.038413823
1	0xbde030f5	-0.10946838
2	0xbc5848ad	-0.013200921
3	0x3cd900cb	0.026489636
4	0x3d99e41c	0.075142115
5	0xbddd4d11	-0.10805715
6	0xbd9bedba	-0.07613702
7	0x3d988ec1	0.07449103
8	0xbc642e47	-0.013927049
9	0x3e2673e5	0.16255148
10	0x3c98377d	0.018581146
11	0xbd0b72e3	-0.03404511
12	0x3d865524	0.06559208
13	0xbd6236c5	-0.055228014
14	0x3c3dd020	0.011585265
15	0x3db4fdd6	0.08837478
16	0x3d6fc8dd	0.058541168
17	0x3c9748c4	0.018467315
18	0x3cff21d4	0.03114406
19	0xbd993d79	-0.07482428
20	0xbda954e1	-0.082681425
21	0x3cbbbdf5	0.022917727
22	0xbd2a0e8d	-0.041517783
23	0xbd312d95	-0.04325636
24	0xbda17e5e	-0.07885431
25	0xbd39f122	-0.045395978
26	0xbc5a2642	-0.013314785
27	0x3dd7bbdc	0.10533878
28	0x3c82181f	0.015880642
29	0xbc91bdcb	-0.017790696
30	0xbc839000	-0.016059875
31	0xbd9af8a1	-0.075669535
