data/Erie/erie_meta.pt (torch, 338353 bytes, 7 tensors)

weight_ih_l0 f4 [512, 24]
0	0x3cf168f5	0.029468993
1	0xbd04ebd0	-0.03245145
2	0xbcabb321	-0.020959439
3	0xbd9de403	-0.077095054
4	0xbc923880	-0.017849207
5	0xbd851d29	-0.064997025
6	0x3cbd9125	0.0231405
7	0xbc8502ba	-0.016236652
8	0xb968820a	-0.00022173687
9	0xbc8597fd	-0.016307825
10	0x3c22de1b	0.009940649
11	0xbd137e08	-0.036008865
12	0xbbf5c9f2	-0.0075008804
13	0x3d642b99	0.05570564
14	0x3d814a4f	0.06313001
15	0x3d3e2c17	0.046428766
16	0x3d95909a	0.07302971
17	0x3d1c4b14	0.038157538
18	0x3cf9650e	0.030443694
19	0xbd52f943	-0.051507246
20	0xbd214126	-0.03936877
21	0xbc9a4722	-0.018832747
22	0xbc12f16b	-0.008968691
23	0xbd0a8cbe	-0.03382563
24	0xbd59982c	-0.053123638
25	0xbc97353b	-0.018458
26	0xbb5e4e46	-0.0033921166
27	0x3d321530	0.043477237
28	0xbc69acd7	-0.0142624
29	0x3c63ade8	0.013896443
30	0x3d71c515	0.059025843
31	0x3d005dd6	0.03133949
32	0x3d0a1271	0.033708993
33	0x3d7815ed	0.060567785
34	0xbd8fc742	-0.07020427
35	0xbb175bc8	-0.0023095477
36	0x3d6ea2ee	0.05826085
37	0x3d6f501a	0.058426
38	0x3d158b3b	0.036509734
39	0xbb107485	-0.0022042107
40	0xbd3a7b38	-0.045527667
41	0xbd49cf9f	-0.04927027
42	0x3d847b4f	0.06468832
43	0x3cdf566d	0.02726289
44	0xbd8e8d1e	-0.0696051
45	0xbc95963f	-0.01826012
46	0xbdc6f703	-0.097150825
47	0xbb304d29	-0.002690146
48	0xbd275f37	-0.04086229
49	0xbd21ccce	-0.039501958
50	0xbd583ff6	-0.052795373
51	0x3ccb6411	0.024827989
52	0xbc115460	-0.008870214
53	0x3caef04e	0.02135482
54	0x3ce834a0	0.028345406
55	0x3d8ab226	0.0677226
56	0xbd08feed	-0.03344624
57	0x3d9e844a	0.07740076
58	0xbd7656b3	-0.060141277
59	0xbd8591eb	-0.06521972
60	0x3bfc6fc3	0.0077037527
61	0xbca715d7	-0.020396156
62	0xbd0bfd5f	-0.03417718
63	0xbd85b846	-0.06529288
64	0x3d6dd20f	0.058061656
65	0xbcb91aef	-0.02259585
66	0x3d9b7e50	0.075924516
67	0x3d5d2e89	0.053999458
68	0x3db0bf14	0.08630195
69	0xbc341ad1	-0.010992722
70	0x3d129df9	0.035795186
71	0x3d9c3821	0.07627893
72	0xbc95062a	-0.018191416
73	0xbd511122	-0.05104173
74	0x3d82197f	0.06352519
75	0xbcd557ba	-0.026042808
76	0xbd9f65f5	-0.07783119
77	0xbd732cf0	-0.059369028
78	0xbd1c4e5e	-0.038160674
79	0x3dab64b5	0.08368818
80	0x3d47ad84	0.04874946
81	0x3d3628d9	0.04447255
82	0xbcff196b	-0.03114005
83	0x3bb210ea	0.005434145
84	0xbd3efe7c	-0.046629414
85	0xbaea807e	-0.0017891077
86	0x3d25cd90	0.040479243
87	0xbda3d631	-0.07999838
88	0xbcbb8dd1	-0.022894772
89	0x3db2015d	0.08691666
90	0x3d4b6ee3	0.049666297
91	0xbd83a76a	-0.06428416
92	0x3cb56099	0.022140788
93	0xbd985673	-0.07438364
94	0x3d90cf86	0.07070832
95	0x3d4dbfd9	0.05023179
96	0x3ceb197b	0.028698673
97	0xbcd71247	-0.026253833
98	0xbd58c251	-0.05291969
99	0x3d3bf7f3	0.04589076
100	0x3c9753e0	0.018472612
101	0x3a313fe5	0.0006761535
102	0x3d08fa49	0.033441816
103	0x3d8214a5	0.06351594
104	0xbc08d383	-0.00835121
105	0x3cf62906	0.030048858
106	0x3c834e48	0.016028538
107	0x3a9e0e86	0.0012058772
108	0xbd9a43f5	-0.07532493
109	0xbcaf7c96	-0.021421712
110	0x3b06d271	0.002057221
111	0x3da8d69e	0.0824406
112	0xbd848334	-0.064703375
113	0xbbe3ff7b	-0.006957946
114	0x3c9ca290	0.019120485
115	0x3b40bb3a	0.002940847
116	0xbcfcdf3f	-0.03086817
117	0x3d479b6a	0.0487322
118	0xbb2b4b8a	-0.0026137554
119	0x3d2fb38e	0.042895846
120	0xbdb276be	-0.087140545
121	0xbca751dc	-0.020424776
122	0x3b76d133	0.0037661314
123	0xbd8b32ad	-0.06796775
124	0xbbad8ab0	-0.005296074
125	0xbd03c30e	-0.03216844
126	0x3d3a138d	0.0454288
127	0xbdaf4622	-0.08558299
128	0x3d3226ed	0.043494154
129	0x3c0d9073	0.008640396
130	0xbd1bbf14	-0.038024023
131	0xbcd93cf2	-0.026518319
132	0x3d840522	0.064462915
133	0x3ae229bd	0.0017254871
134	0xbdb72d01	-0.08944131
135	0xbd4193ae	-0.04725998
136	0xbd9fc241	-0.07800723
137	0xbd4ef618	-0.050527662
138	0x3a857fb7	0.0010185157
139	0x3bb4ce9d	0.0055177943
140	0xbd6b7363	-0.05748309
141	0x3bf01dc3	0.0073277666
142	0xbd1d0aba	-0.038340308
143	0x3d402760	0.04691255
144	0x3ce8b0e4	0.02840466
145	0xbb3bb0fb	-0.0028639424
146	0xbb918fa8	-0.004442174
147	0xbd11a357	-0.035556164
148	0x3d009690	0.031393588
149	0x3c8b862c	0.017031752
150	0x3d8c7853	0.068588875
151	0xbd9516dc	-0.07279751
152	0xbcd78720	-0.02630955
153	0x3da233bd	0.079200245
154	0x3c81a24e	0.015824463
155	0x3d9fcafc	0.07802388
156	0xbd10f538	-0.03539011
157	0xbd17d76e	-0.037070684
158	0x3b00d38b	0.001965734
159	0xbd80328b	-0.0625964
160	0x3d05a982	0.03263236
161	0x3c2a3a9d	0.010389951
162	0xbd51a1a1	-0.051179532
163	0xbcdeb8b3	-0.02718768
164	0xbdb1bd6d	-0.08678708
165	0x3d91fa9e	0.071278796
166	0xbd96d2e7	-0.07364445
167	0xbd4edbc0	-0.05050254
168	0xbd9c4599	-0.07630462
169	0xbc1b9f4c	-0.009498429
170	0xbdcd497c	-0.10023782
171	0xbd270986	-0.040780567
172	0x3c035c5c	0.008017626
173	0xbd093a11	-0.033502642
174	0xbda2d235	-0.0795025
175	0x3ae54cb3	0.0017494172
176	0x3d542002	0.051788338
177	0x3ced4958	0.028965637
178	0xbd194fd2	-0.03742964
179	0x3d986bce	0.07442437
180	0xbad29260	-0.0016065352
181	0xbda78e03	-0.081813835
182	0xbd9c4867	-0.07630997
183	0xbdbfc380	-0.093634605
184	0x3d943980	0.0723753
185	0x3cf67daf	0.030089227
186	0x3d30f180	0.043199062
187	0xbbc2c0f8	-0.005943414
188	0xbd74a7ef	-0.059730466
189	0xbd459ce7	-0.048245337
190	0x3d67e343	0.056613218
191	0x3d19c19d	0.03753816
192	0xbd6ccbb6	-0.05781146
193	0x3c73740f	0.0148592135
194	0x3b4faba3	0.0031687997
195	0x3d238ca4	0.039929047
196	0x3badefd7	0.005308132
197	0xbd00337f	-0.03129911
198	0x3c7fe7eb	0.015619258
199	0x3d5e32c4	0.054247633
200	0xbc92e91a	-0.017933417
201	0xbd0b10f6	-0.033951722
202	0xbd7a9831	-0.061180297
203	0x3d4ecb47	0.05048683
204	0xbce65c97	-0.028120322
205	0x3d5fb5c5	0.05461671
206	0xbd0fa3d0	-0.035068333
207	0x3cfaf2c4	0.030633338
208	0x3d58c5cf	0.05292302
209	0x3d0a7af9	0.033808682
210	0x3cc0a0b2	0.023514125
211	0x3d36b962	0.04461039
212	0xbd78249c	-0.06058179
213	0x3db19653	0.0867125
214	0xbd8b5d8c	-0.06804952
215	0x3cda4f1d	0.026649052
216	0x3d190826	0.037361287
217	0xbd53cdd1	-0.051709954
218	0xbb39925e	-0.0028316001
219	0x3c162f06	0.009166485
220	0x3d4bef3f	0.04978871
221	0xbc447bdd	-0.011992422
222	0x3d5ee987	0.054421928
223	0x3d749476	0.059711896
224	0x3db95b35	0.090505995
225	0x3c3f4b94	0.011675734
226	0x3d5ef4f2	0.054432817
227	0xbc51e9fe	-0.012812136
228	0x3c1054a2	0.008809241
229	0x3d087e74	0.03332372
230	0x3cfbbe7e	0.030730482
231	0x3d85d4eb	0.065347515
232	0xbd90f149	-0.070772715
233	0x3d78d6eb	0.060751837
234	0xbcd00843	-0.025394564
235	0x3b854052	0.0040665055
236	0x3bc84c37	0.006112601
237	0xbd91961f	-0.071087115
238	0x3d26e5b0	0.04074639
239	0xbd71e367	-0.05905476
240	0xbc9a8be8	-0.01886554
241	0x3bfc9d5b	0.007709188
242	0xbd169268	-0.036760718
243	0xbd75b034	-0.059982494
244	0x3d5bc87d	0.053657997
245	0x3db704ba	0.089364484
246	0x3d1765f1	0.036962453
247	0xbda435ed	-0.08018098
248	0x3dab0d5d	0.08352158
249	0xbad4da1b	-0.0016239317
250	0xbd8d6a1d	-0.06905005
251	0xbccd0de7	-0.025031043
252	0x3c3acd56	0.011401495
253	0xbda1ba6e	-0.07896887
254	0x3bcd3c38	0.006263282
255	0x3ce95cd1	0.028486641

weight_hh_l0 f4 [512, 128]
0	0xbb580cab	-0.0032966535
1	0xbd9ffb7e	-0.0781164
2	0xbd64913f	-0.05580258
3	0xbda3007a	-0.07959075
4	0xbd878ec6	-0.06619029
5	0xbd6b2102	-0.057404526
6	0x3d1e8327	0.038699295
7	0xbda79cbf	-0.08184194
8	0x3bdb9a07	0.006701711
9	0xbcc6d185	-0.024269829
10	0x3da24a73	0.07924356
11	0xbd726413	-0.05917747
12	0x3d3b44f8	0.04572007
13	0x3aed4554	0.0018102326
14	0xbd9d6c0e	-0.076866254
15	0xbd2a13c0	-0.04152274
16	0x3d18771c	0.037222967
17	0xbd979136	-0.07400744
18	0x3d9b2e37	0.07577174
19	0x3c3f6cd3	0.011683661
20	0xbd90734b	-0.070532404
21	0xbd08fd1e	-0.033444516
22	0xbdd6f35a	-0.104956344
23	0x3d0adf32	0.033904262
24	0xbcfd6f85	-0.030936966
25	0xbb9bfe56	-0.004760544
26	0xbdbae7dd	-0.09126256
27	0x3b3fc719	0.0029262959
28	0x3ddc1b5b	0.10747405
29	0xbd8f5568	-0.06998712
30	0xbdba067d	-0.09083269
31	0xbd39f248	-0.045397073
32	0x3da7418a	0.081667975
33	0xbd49c4ec	-0.049260065
34	0x3da12e9a	0.07870217
35	0xbd8e0afb	-0.06935688
36	0x3d9c5f50	0.07635367
37	0x3d821623	0.063518785
38	0xbd607ddf	-0.05480754
39	0x3db6d8fb	0.089281045
40	0xbd87866c	-0.06617436
41	0xbd441a65	-0.047876734
42	0xbc926862	-0.01787204
43	0xbda79960	-0.08183551
44	0x3ca19701	0.019725325
45	0x3dc3c0c3	0.09558251
46	0xbd37b56c	-0.04485075
47	0xbd1e6058	-0.0386661
48	0xbdac0716	-0.08399789
49	0xbcc306c1	-0.023806931
50	0x3d19a69e	0.037512414
51	0x3d069340	0.032855272
52	0x3dd54c3a	0.1041493
53	0x3d49d4f2	0.049275346
54	0x3da818c8	0.08207852
55	0x3da08f1d	0.07839797
56	0x3d7f8e03	0.062391292
57	0x3d8aa6ac	0.067700714
58	0x3d26cf60	0.040725112
59	0xbd96b360	-0.07358432
60	0xbc4f0ab6	-0.012636831
61	0x3d9ea7c2	0.07746841
62	0xbcf2e12b	-0.029648384
63	0xbcd75725	-0.026286671
64	0xbdb7a083	-0.08966162
65	0xbd5d54df	-0.054036018
66	0xbd872263	-0.065983556
67	0xbd52d93b	-0.0514767
68	0x3d8c974e	0.068647966
69	0x3da4a518	0.08039302
70	0xbd7a9d10	-0.061184943
71	0x3d01d97e	0.031701557
72	0x3dfb11b1	0.12259234
73	0x3d4cb04c	0.049972817
74	0xbd254660	-0.040350318
75	0xbc3c8f6f	-0.011508807
76	0x3d1a911b	0.03773604
77	0x3d15aa64	0.03653945
78	0x3c9264ba	0.017870296
79	0x3d5a19bd	0.053247202
80	0xbb47c0fe	-0.0030480023
81	0xbbd56d21	-0.0065132533
82	0xbcff039b	-0.031129649
83	0x3dcf05bb	0.10108515
84	0x3d874af5	0.06606094
85	0xbd3ad473	-0.045612764
86	0x3cc02a7f	0.023457764
87	0xbc67bc12	-0.014143961
88	0xbd12b4cc	-0.035816953
89	0xbc652031	-0.013984726
90	0x3dbc224a	0.091862276
91	0xbd4d8c2d	-0.05018251
92	0x3c71faa7	0.014769233
93	0x3cf6428f	0.030061034
94	0x3c5b548c	0.013386857
95	0xbc476776	-0.012170663
96	0xbc1acc70	-0.009448156
97	0xbd4243a1	-0.047427777
98	0xbd8c5b47	-0.06853347
99	0xbc05cf01	-0.008167029
100	0x3da8933e	0.08231209
101	0x3d650c5e	0.055919997
102	0x3d976973	0.0739316
103	0x3d841a3e	0.06450318
104	0x3cc7be56	0.024382751
105	0x3cb3d818	0.021953627
106	0xbdbd54c8	-0.09244686
107	0xbd68a09a	-0.056793787
108	0x3c9b25e5	0.018938968
109	0x3dd2fa36	0.1030163
110	0x3d0497d4	0.032371357
111	0xbd39ec7f	-0.045391556
112	0x3b8b4bd1	0.0042509814
113	0xbd4656cf	-0.04842263
114	0xbd87915b	-0.06619521
115	0x3d358f1a	0.044325925
116	0x3d05dbe0	0.032680392
117	0xbdba97d2	-0.09110989
118	0x3d2ac1a2	0.04168857
119	0xbd9fa7c6	-0.07795672
120	0xbc3bfef0	-0.011474356
121	0xbcd802ce	-0.026368525
122	0xbb2e6c09	-0.0026614687
123	0xbd8bc3d2	-0.06824459
124	0x3dc1bce4	0.09459856
125	0xbce39ac4	-0.027783759
126	0x3c1675bb	0.009183343
127	0x3da2e151	0.07953132
128	0xbd95f06f	-0.0732125
129	0xbcc887b7	-0.024478776
130	0xbb93fa2f	-0.004515908
131	0x3cec2fcf	0.02883139
132	0x3c4320fa	0.011909718
133	0x3de00a6f	0.1093949
134	0x3da9e11c	0.08294889
135	0x3ce53067	0.027977182
136	0x3db9edf2	0.090785876
137	0x3ce94523	0.02847535
138	0x3dbc72b5	0.09201566
139	0xbdb843ab	-0.08997282
140	0x3aff3789	0.0019471507
141	0x3d7eca82	0.062204845
142	0x3d1da1bd	0.038484324
143	0xbda1dbda	-0.079032615
144	0xbbf4823a	-0.0074618133
145	0xbda4f87f	-0.08055209
146	0x3c591ac8	0.013251014
147	0x3d02a3c1	0.03189445
148	0xbd361fee	-0.044464044
149	0xbd46fb72	-0.04857964
150	0xbd68b87c	-0.056816563
151	0xbd242125	-0.04007067
152	0xbc9a588c	-0.01884105
153	0x3d7239c5	0.059137125
154	0xbdd7bd9d	-0.10534213
155	0xbc9862a4	-0.018601723
156	0xbd2581c6	-0.040406965
157	0x3d0c802f	0.034301933
158	0x3d9e1933	0.0771965
159	0x3d827543	0.06370022
160	0x3d7c0680	0.061529636
161	0x3d1085b0	0.035283744
162	0xbd6e362f	-0.058157142
163	0x3b86d5ef	0.0041148583
164	0xbcbbc103	-0.022919184
165	0xbdaee71a	-0.08540173
166	0xbdafa171	-0.085757144
167	0x3d9b79c0	0.07591581
168	0x3cbda5b5	0.023150304
169	0x38d6eea3	0.00010248765
170	0xbdb8dec0	-0.09026861
171	0xbb03e99e	-0.002012826
172	0xbdd31f7a	-0.10308738
173	0xbd96c704	-0.07362178
174	0x3d5cdbd8	0.053920597
175	0xbdaaf50b	-0.083475195
176	0x3db3821c	0.08765051
177	0xbd202b93	-0.039104056
178	0xbc8a2afd	-0.016866202
179	0x3d2bf410	0.041980803
180	0x3cb49278	0.022042498
181	0x3d288f3e	0.04115223
182	0xbc59bef7	-0.0132901585
183	0xbca161f0	-0.01970002
184	0x3da53ce1	0.08068252
185	0xbd638027	-0.055542137
186	0xbd8e7f99	-0.06957931
187	0x3d60ee5d	0.05491482
188	0xbb9d5733	-0.0048016547
189	0x3d6815e6	0.05666151
190	0x3ca158fc	0.019695751
191	0x3d50908a	0.050919093
192	0xbd474b0f	-0.048655566
193	0xbcc95c51	-0.024580153
194	0xbcf61600	-0.030039787
195	0x3c464844	0.01210219
196	0xbd684ef0	-0.056715906
197	0x3de2574c	0.11051807
198	0x3d2ae93c	0.041726336
199	0xbca6e0ab	-0.020370802
200	0x3cc3dff5	0.023910502
201	0x3d81222f	0.06305348
202	0xbcc87caa	-0.024473507
203	0x3d1d588d	0.038414527
204	0x3daec5ca	0.08533819
205	0xbccc4405	-0.024934778
206	0x3c83d1b3	0.016091203
207	0xbc1cc009	-0.009567269
208	0xbd907d3f	-0.07055139
209	0xbc1338b9	-0.008985692
210	0xbcb11b30	-0.02161941
211	0x3de5fb40	0.11229563
212	0x3d8500cd	0.06494293
213	0x3ddd8ef6	0.10818283
214	0x3d84dff2	0.06488027
215	0xbcb14df1	-0.02164361
216	0x3da86348	0.082220614
217	0x3d752a0f	0.059854563
218	0xbcbb1ea6	-0.022841763
219	0x3dcf9a50	0.10136855
220	0x3cc47b02	0.023984436
221	0xbd87be82	-0.06628133
222	0xbd0d5a56	-0.03450998
223	0xbd2fbb92	-0.04290349
224	0x3d149f8a	0.03628496
225	0x3cdd5645	0.027018676
226	0x3d808e11	0.06277097
227	0xbda82bae	-0.08211456
228	0x3c94bcca	0.018156428
229	0x3de1c888	0.110245764
230	0xbd1c0dea	-0.038099207
231	0x3cf3da26	0.029767107
232	0x3da43672	0.08018197
233	0x3cc8a0a1	0.024490656
234	0xbd8ae453	-0.06781831
235	0xbc759548	-0.014989205
236	0x3d0159ab	0.031579655
237	0xbca40095	-0.020019809
238	0xbd3f5046	-0.046707414
239	0x3d9109cc	0.07081947
240	0x3cfcc8a3	0.03085739
241	0x3d968399	0.07349319
242	0x3ced0232	0.02893171
243	0x3d50513c	0.05085872
244	0xbb1787e4	-0.0023121769
245	0x3d659c5d	0.056057323
246	0x3c72db80	0.014822841
247	0xbd66897b	-0.056283455
248	0x3d94830f	0.0725156
249	0xbd202749	-0.039099965
250	0xbd7b5e83	-0.06136943
251	0xbc5ad72b	-0.013356964
252	0xbd280f9c	-0.04103051
253	0xbc0c4fdd	-0.008563963
254	0xbd2bc213	-0.04193313
255	0x3da183c8	0.078864634

bias_ih_l0 f4 [512]
0	0x3db04e9b	0.08608743
1	0x3ced9314	0.029000796
2	0xbd567dea	-0.052366175
3	0xbc0c5e07	-0.00856734
4	0x3dcd54ac	0.100259155
5	0x3be0ef67	0.0068644765
6	0x3da33381	0.07968808
7	0x3bb673af	0.00556799
8	0x3c9abcf4	0.018888928
9	0xbb8efc1a	-0.004363549
10	0xbbe1296e	-0.006871394
11	0x3c93a560	0.018023193
12	0x3b617938	0.0034404527
13	0xbd976f20	-0.07394242
14	0xbd37de14	-0.044889525
15	0xbdbb0d27	-0.09133368
16	0x3c041a97	0.00806298
17	0x3d21b38d	0.039477874
18	0xbbf33696	-0.0074222786
19	0xbcbc4e0e	-0.022986438
20	0x3c802ceb	0.015646419
21	0xbda5eb8b	-0.08101567
22	0x3d34c021	0.04412854
23	0xbd37560e	-0.044759803
24	0x3c1231ab	0.008922975
25	0x3d298745	0.04138877
26	0xbccb9453	-0.024851
27	0x3d1cac14	0.038250044
28	0x3dd35ce9	0.103204556
29	0x3d92f03e	0.07174729
30	0xbd88d11b	-0.06680509
31	0xbd78bd80	-0.060727596
32	0xbba1a820	-0.004933372
33	0xbd79c5ec	-0.06097977
34	0x3d9efbed	0.07762895
35	0xbd633f98	-0.05548057
36	0xbb5866c8	-0.0033020247
37	0x3d8cef97	0.06881636
38	0xbdb4ea03	-0.08833697
39	0x3b77a410	0.0037786998
40	0xbcc3c2ca	-0.023896594
41	0xbd64474c	-0.055732056
42	0xbd3e2f9a	-0.046432115
43	0x3ddf7d00	0.10912514
44	0xbd42fc8c	-0.04760413
45	0xbbd638e6	-0.0065375445
46	0x3da9eabd	0.08296726
47	0xbd02c7cc	-0.031928822
48	0xbdc6c7e8	-0.09706098
49	0xbce32635	-0.02772818
50	0x3cdfd199	0.027321624
51	0xbdc6691d	-0.096880175
52	0x3dae036e	0.08496748
53	0xbcab7b20	-0.020932734
54	0x3d29a8d2	0.041420765
55	0xbd4fb4ac	-0.05070941
56	0x3d4d25a9	0.050084744
57	0xbd833585	-0.064066924
58	0xbd6b23f5	-0.05740734
59	0xbd1c09fe	-0.038095467
60	0xbcc77b37	-0.024350746
61	0x3d00499c	0.0313202
62	0x3ca4f72f	0.020137398
63	0xbd60dbad	-0.054897
64	0x3cae9c59	0.021314787
65	0xbcd942e6	-0.026521157
66	0x3d90f47d	0.070778824
67	0xbd3915b0	-0.0451867
68	0x3d8f1d18	0.06987971
69	0x3da9677e	0.08271693
70	0xbca8391d	-0.020535046
71	0x3cc52db9	0.024069654
72	0x3de88c45	0.11354879
73	0x3d8920ff	0.06695747
74	0x3d81e59a	0.06342621
75	0xbdb327fd	-0.087478615
76	0x3dda2444	0.10651448
77	0x3d782a7a	0.060587384
78	0x3a1972ad	0.0005853575
79	0xbba144e3	-0.004921542
80	0xbc89e882	-0.016834501
81	0xbd3a160d	-0.045431186
82	0xbd8f189c	-0.06987116
83	0xbd01baa8	-0.03167215
84	0xbc2e9b0c	-0.010657083
85	0xbda36345	-0.079779185
86	0xbcb88975	-0.022526482
87	0xbdb5b8d5	-0.088731445
88	0x3d92ce5c	0.07168266
89	0x3dc8d42f	0.09806096
90	0xbd48d736	-0.049033366
91	0xbd9cb721	-0.076521166
92	0xbd342fa8	-0.04399076
93	0xbc28c274	-0.0103002675
94	0x3d0ba935	0.034096915
95	0xbd89e4cc	-0.06733093
96	0x3d88a5a6	0.0667222
97	0xbd18fd37	-0.03735086
98	0xbd8fe0a7	-0.07025271
99	0x3dc23f62	0.094847456
100	0x3d8d4031	0.06897009
101	0x3d55758c	0.052114055
102	0xbd488aed	-0.048960615
103	0xbc6b6066	-0.014366245
104	0x3d263248	0.040575296
105	0x3d7c1db0	0.06155175
106	0x3cdc383a	0.02688228
107	0xbd3e8a99	-0.046518896
108	0x3da36f49	0.0798021
109	0x3d6ec9d5	0.05829795
110	0x3d590169	0.05297986
111	0x3d8816b0	0.06644952
112	0x3ad1ab04	0.0015996401
113	0x3d2ae7e2	0.041725047
114	0x3d493da5	0.049131054
115	0x3c0a0fc2	0.0084266085
116	0xbd49810c	-0.049195334
117	0xbd03ae22	-0.032148488
118	0xbd11f259	-0.03563151
119	0x3db4cc7b	0.08828064
120	0x3d3349b6	0.043771468
121	0xbb43b218	-0.002986079
122	0xbabaf6f4	-0.0014264272
123	0x3b92ea9f	0.0044835354
124	0x3c697b06	0.0142505225
125	0x3d50da30	0.05098933
126	0x3cfd286b	0.030903062
127	0xbda4bc7d	-0.08043764
128	0xbdbe8226	-0.093021676
129	0x3bd7698e	0.0065738624
130	0xbd223750	-0.03960353
131	0x3d84a6da	0.06477137
132	0xbdc9f7b6	-0.098617
133	0xbc7d0f90	-0.015445605
134	0xbdda2d78	-0.10653204
135	0xbc247328	-0.010037221
136	0x3ceabce1	0.028654518
137	0xbd40c691	-0.047064368
138	0xbd53fd54	-0.051755264
139	0xbd8b08b6	-0.06788771
140	0xbc93a2db	-0.018021991
141	0xbb0b8563	-0.0021289221
142	0x3d2d7d30	0.042355716
143	0x3d4c6be5	0.049907584
144	0xbc8a88b8	-0.016910896
145	0xbcb6967a	-0.02228855
146	0x3d2c9ce8	0.042141825
147	0xbdc2c3e5	-0.0951002
148	0xbca00e36	-0.019538026
149	0xbd0bb348	-0.034106523
150	0xbdb10d08	-0.08645064
151	0xbd1f1238	-0.038835734
152	0xbd45b509	-0.04826835
153	0xbde1ad72	-0.1101941
154	0x3d53452f	0.05157965
155	0xbcc59a1b	-0.024121335
156	0xbd1fe5b2	-0.039037414
157	0x3d1c4753	0.038153958
158	0xbd75918b	-0.059953254
159	0xbca4fe74	-0.020140864
160	0x3d2a687c	0.04160355
161	0x3d24a721	0.04019845
162	0xbd951516	-0.072794124
163	0x3d0bcd52	0.034131356
164	0x3cf74d0f	0.030188112
165	0xbd868739	-0.065687604
166	0xbd70d2f2	-0.058794923
167	0xbde20648	-0.11036354
168	0xbdce48e7	-0.10072499
169	0xbda6edd1	-0.08150829
170	0xbc7e7a42	-0.015532078
171	0xbdfd8ad9	-0.12379999
172	0xbd96cf3b	-0.07363745
173	0xbd08cebf	-0.033400293
174	0xbd87b6ed	-0.06626687
175	0xbd8ea5e1	-0.06965233
176	0x3d1e8630	0.03870219
177	0x3cb725dc	0.02235692
178	0xbd237986	-0.039910816
179	0xbd0c1c27	-0.034206536
180	0xbdcc5ebe	-0.09979008
181	0x3d66c99b	0.05634461
182	0xbdac40d1	-0.084108
183	0xbc7f4139	-0.015579515
184	0x3d1c6474	0.038181737
185	0xbcd1f26c	-0.025628291
186	0xbbf02b72	-0.007329398
187	0xbd747a79	-0.05968711
188	0x3d9ee731	0.0775894
189	0xbda5921b	-0.08084508
190	0xbd61ccb2	-0.055126853
191	0xbdb01f33	-0.08599701
192	0xbd9e4663	-0.07728269
193	0xbdbb3084	-0.09140113
194	0xbd225680	-0.039633274
195	0x3b99451d	0.0046774284
196	0xbd8e1001	-0.06936646
197	0xbddb34a9	-0.107034035
198	0x3b8ef609	0.004362826
199	0x3d5ed470	0.054401815
200	0x3c986133	0.018601036
201	0xbbde4219	-0.006782782
202	0xbcc7a6b8	-0.02437149
203	0xbda515a2	-0.08060767
204	0xbd680530	-0.056645572
205	0xbc90c30c	-0.01767113
206	0xbd2e50e5	-0.042557616
207	0x3d4c6b97	0.049907293
208	0xbd441d7d	-0.047879685
209	0x3d1eccb8	0.038769454
210	0xbcbc91c7	-0.02301873
211	0xbd32776f	-0.043570932
212	0xbdeb4496	-0.11487691
213	0x3d1686fe	0.036749832
214	0xbd99ed10	-0.07515919
215	0x3d14e3c6	0.036350034
216	0x3d25144c	0.04030256
217	0x3d549a51	0.05190498
218	0x3b8729f0	0.0041248724
219	0x3d866f97	0.06564253
220	0xbd9ec4b6	-0.077523634
221	0xbc7b6a6a	-0.015345195
222	0xbc2cb42c	-0.010541003
223	0x3d8466be	0.06464909
224	0xbdc833e9	-0.09775526
225	0xbdcacab2	-0.09901942
226	0xbd40aecc	-0.0470417
227	0x3d903b79	0.070425935
228	0xbcf5c0c4	-0.029999144
229	0xbdc2267b	-0.09479996
230	0xbdca2710	-0.09870732
231	0xbd069cb2	-0.03286428
232	0xbb0c7f34	-0.0021438124
233	0x3d63c107	0.055604007
234	0xbda0f1c3	-0.078586124
235	0xbd5e8edb	-0.054335456
236	0xbd999333	-0.07498779
237	0xbc90801b	-0.01763921
238	0xbdf1759f	-0.117900126
239	0x3ce029f6	0.027363759
240	0x3cdff566	0.027338695
241	0xba460948	-0.00075544836
242	0x3d41aa29	0.047281418
243	0xbd70904f	-0.058731373
244	0xb97638cb	-0.00023481545
245	0xbb9e73d2	-0.004835584
246	0xbd91bdda	-0.071162894
247	0xbd50416c	-0.05084364
248	0xbcac6ffe	-0.021049496
249	0xbdce7e50	-0.10082686
250	0xbd857ca1	-0.06517912
251	0xbd6f8571	-0.05847687
252	0x3da1dbb4	0.07903233
253	0xbde23a88	-0.1104632
254	0xbc87f24e	-0.016595032
255	0x3cb6512c	0.022255503

bias_hh_l0 f4 [512]
0	0xbbf59faa	-0.00749584
1	0x3b02bbf5	0.0019948457
2	0x3d619970	0.05507797
3	0xbd96a30a	-0.07355316
4	0x3d4c41b3	0.049867343
5	0x3d4821c9	0.048860345
6	0xbd0e963a	-0.034811236
7	0xbb6ac45b	-0.0035822603
8	0x3cc46f35	0.023978809
9	0x3da0753d	0.078348614
10	0xbca9983d	-0.020702476
11	0xbd43c1d6	-0.04779228
12	0x3d0a3785	0.033744354
13	0xbdac3eb4	-0.08410397
14	0x3dc47f51	0.09594596
15	0xbd8208c7	-0.063493304
16	0x3b4a3ae4	0.0030857855
17	0xbd4c2f0f	-0.049849566
18	0xbd6db4c8	-0.058033735
19	0x3d6f313b	0.05839656
20	0xbcebcba8	-0.028783634
21	0xbbe6ca85	-0.007043185
22	0x3dc33a61	0.09532619
23	0x3d8a4190	0.06750786
24	0xbd48b047	-0.048996236
25	0x3d1baa10	0.03800398
26	0xbdac741c	-0.084205836
27	0xbb8eaf81	-0.004354418
28	0x3db087d9	0.08619661
29	0xbc895f2b	-0.016769012
30	0x3c71ba14	0.014753837
31	0xbc6d420b	-0.014481078
32	0x3d411664	0.047140494
33	0x3d5c7dd1	0.053830925
34	0xbd5a43d4	-0.053287342
35	0x3ba2d1e5	0.004968869
36	0xbd27d84c	-0.04097776
37	0x3b9d0a7d	0.00479251
38	0x3d8a6da5	0.06759194
39	0xbbaba2d5	-0.005237917
40	0xbd4daf29	-0.050215874
41	0x3d9778ee	0.073961124
42	0xbd454fc0	-0.04817176
43	0x3d643e6c	0.055723593
44	0xbd62cdf3	-0.05537219
45	0x3dc98aab	0.09840902
46	0x3ce71c99	0.028211879
47	0x3d4d3aaf	0.050104793
48	0xbdaeef3c	-0.08541724
49	0xbc8834d1	-0.016626747
50	0xba8442e3	-0.0010090735
51	0xbd30097b	-0.04297779
52	0xbd11a601	-0.035558704
53	0x3d404ca7	0.0469481
54	0x3d9dd432	0.07706489
55	0xbd70ee40	-0.058820963
56	0x3df0bd2d	0.117548324
57	0x3daa3a8e	0.0831195
58	0xbdb14372	-0.08655442
59	0xbcc4eb5b	-0.024038007
60	0xbd84f590	-0.0649215
61	0x3c052a54	0.008127768
62	0xbcff0729	-0.031131344
63	0x3d85862e	0.06519733
64	0xbd75d583	-0.060018074
65	0x3d338cf6	0.043835603
66	0x3d4c8cdb	0.049939018
67	0x3d2cf1be	0.04222273
68	0x3b54eb32	0.003248882
69	0xbbf3467c	-0.007424174
70	0x3d094fdf	0.033523437
71	0xbda1e1ef	-0.079044215
72	0xbcd5284b	-0.02602019
73	0x3dafc82d	0.085831024
74	0x3d02a78d	0.03189807
75	0xbd86b32c	-0.06577143
76	0x3db88f3a	0.09011693
77	0x3d3e957b	0.046529274
78	0xbd94e969	-0.07271082
79	0x3d9e9703	0.07743647
80	0xbd754629	-0.059881363
81	0x3b6cdeed	0.0036143616
82	0xbd8557d9	-0.06510896
83	0x3d87042d	0.06592593
84	0xbd8cb1b5	-0.068698324
85	0x3db04cb1	0.08608378
86	0x3d7b0acd	0.061289597
87	0x3daeac66	0.08528976
88	0x3c5a760f	0.013333811
89	0x3dcf0b00	0.1010952
90	0x3dbac726	0.09120016
91	0x3d8115fd	0.06303022
92	0xbc0114f6	-0.007878533
93	0x3d62b158	0.05534491
94	0xbd7f0ab0	-0.06226605
95	0x3cbb7cd9	0.02288668
96	0xbd8a553c	-0.067545384
97	0xbc2864cf	-0.010277941
98	0xbd1f0cf8	-0.038830727
99	0x3d529df0	0.051420152
100	0x3dead605	0.11466602
101	0xbd89e061	-0.0673225
102	0x3cc73fb9	0.024322378
103	0xbdb33e26	-0.08752088
104	0x3d036208	0.03207591
105	0xbd3a65e6	-0.045507334
106	0x3d52b554	0.05144246
107	0xbc04dadb	-0.00810882
108	0x3d878d49	0.06618745
109	0x3ca415f1	0.020029994
110	0x3db4c019	0.08825702
111	0xbd883a6d	-0.06651769
112	0x3b07feb1	0.0020751173
113	0xbcca8648	-0.024722233
114	0x3d8ff063	0.07028272
115	0xbd441913	-0.047875475
116	0x3c1e7e7b	0.00967371
117	0x3da147f0	0.07875049
118	0x3dae7dd1	0.08520091
119	0x3d4b7b2e	0.04967802
120	0x3d9fe002	0.07806398
121	0xbd72601d	-0.059173692
122	0x3dc2bb23	0.0950835
123	0x3d8b9b70	0.06816757
124	0xbce5c82a	-0.028049547
125	0x3d986b6a	0.074423626
126	0x3ccd9300	0.02509451
127	0x3da31055	0.079620995
128	0x3d800be9	0.06252272
129	0xbd9d9dc5	-0.07696108
130	0x3d8859ca	0.06657751
131	0x3d89451b	0.06702634
132	0x3b2a0cef	0.002594765
133	0x3b50a494	0.0031836377
134	0x3b9f442c	0.0048604216
135	0x3c638d42	0.013888659
136	0xbd71d83b	-0.059044104
137	0xbcc906d8	-0.024539396
138	0x3d626571	0.055272523
139	0xbd50f18a	-0.0510116
140	0x3d53a107	0.05166724
141	0x3d4833fb	0.048877697
142	0xbd8ab0ab	-0.06771978
143	0xbdbf62e1	-0.093450315
144	0xbdbf3bb0	-0.09337556
145	0x3d71f709	0.05907348
146	0x3d8840fb	0.06653019
147	0x3ca6cf1a	0.020362426
148	0xbdc0ae34	-0.094082266
149	0x3c3ba0d9	0.011451923
150	0xbd7c8282	-0.0616479
151	0x3b1fdb66	0.0024392246
152	0xbd9719fd	-0.07378004
153	0xbbc5eae2	-0.006039963
154	0x3c9b0964	0.018925376
155	0x3d94b8dd	0.072618224
156	0x3cf5c5f5	0.03000162
157	0xbdfb243b	-0.1226277
158	0x3bd45895	0.0064802864
159	0x3d2ebc2e	0.04265993
160	0xbd132aa9	-0.035929356
161	0xbd32ab17	-0.043620195
162	0xbdc84a9a	-0.09779854
163	0xbded91e3	-0.11600091
164	0x3c608432	0.013703393
165	0x3d03248c	0.032017276
166	0xbd1cadf3	-0.03825183
167	0xbd65ff1b	-0.05615149
168	0xbd1fa531	-0.0389759
169	0x3c94542a	0.018106539
170	0x3cb0c8bb	0.02158009
171	0xbd8ea498	-0.069649875
172	0x3d861d56	0.06548564
173	0xbd6b8eb6	-0.057509147
174	0xbdd4a3bb	-0.103827916
175	0xbd68ce4f	-0.056837376
176	0xbd885e92	-0.06658663
177	0x3bbb7b7c	0.0057215076
178	0xbdb53d82	-0.08849622
179	0x3be04edf	0.0068453397
180	0xbdb476e1	-0.08811737
181	0xbda76251	-0.08173049
182	0x3d2efbe1	0.04272068
183	0xbcf3bab7	-0.029752119
184	0xbd89e368	-0.067328274
185	0xbd81b2e9	-0.063329525
186	0xbd99367e	-0.07481097
187	0xbdb73d4a	-0.08947237
188	0x3d16fb70	0.036860883
189	0xbd740f66	-0.059584998
190	0x3d73bd2c	0.05950658
191	0xbd5a4782	-0.05329085
192	0xbdcaa203	-0.098941825
193	0x3d890666	0.066906735
194	0xbdb5bb71	-0.08873642
195	0x3713adb1	8.8023235e-06
196	0xbd83fe3f	-0.06444978
197	0x3a8d264b	0.0010768858
198	0xbc06357b	-0.008191462
199	0xbd08a910	-0.033364356
200	0x3ca40b15	0.020024816
201	0xbcf73ee4	-0.030181356
202	0xbdd6d9cc	-0.1049076
203	0x3d382735	0.044959266
204	0x3c347574	0.011014331
205	0xbda4df8d	-0.080504514
206	0xbd504fcb	-0.050857347
207	0x3d584cd7	0.052807655
208	0x3cb42f04	0.021995075
209	0xbd1228de	-0.035683505
210	0xbc8555f2	-0.016276333
211	0xbdc8cb7e	-0.09804438
212	0xbdec882f	-0.115494125
213	0xbd3e5274	-0.046465352
214	0xbd07648a	-0.033054866
215	0x3ccac4e6	0.024752092
216	0xbdce97a7	-0.10087519
217	0x3cfb78cc	0.030697249
218	0x3ce57c8a	0.028013486
219	0xbd452438	-0.048130244
220	0xbdeb31a8	-0.114840806
221	0xbd8e4cbc	-0.0694823
222	0xbb65632e	-0.0035001743
223	0x3d321be5	0.043483634
224	0xbddf1dee	-0.108943805
225	0x3ab60930	0.0013888236
226	0xbdcfee20	-0.101528406
227	0xbd5245e9	-0.051336203
228	0xbd8042ce	-0.06262742
229	0xbdd2d00a	-0.102935866
230	0xbd348142	-0.044068582
231	0xbc9027f8	-0.017597184
232	0x3cb9d001	0.022682192
233	0xbccf941a	-0.025339175
234	0xbb58aa1f	-0.0033060384
235	0x3d893def	0.06701266
236	0x3b830a1d	0.0039990083
237	0x3d106a30	0.03525752
238	0x3c5ad858	0.013357244
239	0x3d42d7e9	0.04756919
240	0x3d1d2846	0.038368486
241	0xbd23d374	-0.03999658
242	0xbd201a21	-0.03908742
243	0xbdde8991	-0.108660825
244	0x3d2872f4	0.041125253
245	0x3ca5a768	0.020221427
246	0xbdb45d28	-0.08806831
247	0xbdbd779f	-0.092513315
248	0xbd6b0f45	-0.05738761
249	0x3d0c5758	0.034262985
250	0xbccd39e2	-0.025052015
251	0xbd8c2cf4	-0.06844512
252	0x3dba3b53	0.090933464
253	0xbd522a7d	-0.05131005
254	0xbdda1ab5	-0.10649625
255	0xbd4ad4ed	-0.049519468

weight f4 [32, 128]
0	0x3d2f85a1	0.042852048
1	0xbc4923d0	-0.012276605
2	0x3d9abfa2	0.07556082
3	0xbd5b95d1	-0.053609673
4	0x3da8742e	0.082252845
5	0x3d7c3761	0.06157625
6	0xbc7bbcd4	-0.015364844
7	0x3d535541	0.051594976
8	0x3de96e84	0.11398032
9	0xbdbe66e1	-0.09296966
10	0xbdc98c4b	-0.09841212
11	0x3e0a92b6	0.13532528
12	0x3d4eae2f	0.050459083
13	0x3d439aaf	0.04775494
14	0xbded1d96	-0.11577909
15	0xbd743311	-0.059619013
16	0x3e0c3091	0.13690402
17	0x3c4acab1	0.012377427
18	0xbbd1042c	-0.006378671
19	0xbce08827	-0.027408672
20	0xbbbfe213	-0.0058558076
21	0x3d3bef03	0.045882236
22	0xb9e81afa	-0.00044270587
23	0xbdd3b6f2	-0.103376284
24	0x3de3a2de	0.11115049
25	0xbdb32e8f	-0.08749115
26	0x3d209b44	0.039210573
27	0xbda5e1b0	-0.08099687
28	0x3972a446	0.00023140115
29	0xbdeabdf4	-0.11462012
30	0xbd398169	-0.04528943
31	0xbd8eb315	-0.06967751
32	0xbb526351	-0.0032102654
33	0x3e061260	0.13092947
34	0xbc0ee245	-0.008720939
35	0xbd794893	-0.060860228
36	0xbd95d809	-0.07316596
37	0x3d5b242e	0.0535013
38	0x3df19671	0.117962725
39	0x3d4ac80b	0.049507182
40	0xbdf15873	-0.117844485
41	0x3ccf0515	0.025270978
42	0x3e0b575c	0.13607544
43	0x3e08d84a	0.13363758
44	0x3c4b0305	0.012390857
45	0x3c59eb03	0.01330066
46	0x3c315273	0.01082288
47	0x3dabcba6	0.08388452
48	0xbd1b4b6a	-0.037913717
49	0xbdea47b2	-0.11439456
50	0x3d5bae48	0.053633004
51	0x3caa476e	0.020786013
52	0xbcdb47a7	-0.026767565
53	0x3de17352	0.11008324
54	0x3e049b71	0.12949921
55	0x3d45e1d9	0.04831109
56	0x3df9143a	0.12162061
57	0x3d31008b	0.04321341
58	0x3c202ce1	0.009776325
59	0xbc7edb08	-0.015555151
60	0xbd8921a8	-0.066958725
61	0xbe345c74	-0.17613393
62	0x3d8f542c	0.069984764
63	0xbd857fae	-0.065184936
64	0xbd215949	-0.03939179
65	0x3d9003d7	0.070319824
66	0x3d6a564e	0.057211213
67	0x3d5f92e5	0.05458345
68	0x3dfdea77	0.12398236
69	0xbe11ce36	-0.1423882
70	0x3a9405e0	0.0011293255
71	0x3ddbff42	0.10742046
72	0x3d147dd5	0.036252815
73	0xbe09e372	-0.1346567
74	0x3cf8c717	0.030368371
75	0xbcde77a7	-0.027156664
76	0x3cf8753d	0.030329341
77	0x3cd4a18b	0.025955936
78	0x3d13c19a	0.036073305
79	0x3cc3b7d9	0.023891376
80	0xbd472830	-0.04862231
81	0xbdc52522	-0.09626223
82	0x3dbc455c	0.09192917
83	0xbd12672f	-0.035742935
84	0x3d9ed612	0.077556744
85	0x3c9d073a	0.019168485
86	0x3bbdcfd2	0.0057925964
87	0x3cfa9579	0.030588852
88	0x3df51b92	0.11968149
89	0xbdb9736f	-0.0905522
90	0x3da21746	0.07914595
91	0x3da2031d	0.0791075
92	0x3cc3d983	0.023907429
93	0x3db7a99c	0.08967897
94	0x3d19f087	0.0375829
95	0xbb8ce62c	-0.0042998996
96	0x3df1fc7c	0.11815736
97	0xbdbd3a36	-0.092396185
98	0xbdee724c	-0.11642894
99	0x3d4b0742	0.04956747
100	0xbcbed908	-0.023296848
101	0xbda81f31	-0.08209074
102	0x3dc562e4	0.096380025
103	0xbd7fea79	-0.06247947
104	0x3d1bbe8a	0.03802351
105	0xbdf5ad0b	-0.11995896
106	0x3d2b2f05	0.04179289
107	0xbc9c4613	-0.019076383
108	0xbdf4580c	-0.11930856
109	0x3d274e34	0.040846065
110	0x3d1b2ee4	0.037886515
111	0x3dbe49f3	0.092914484
112	0xbd9b4e29	-0.07583267
113	0xbc631bd4	-0.013861615
114	0xbd93feea	-0.072263554
115	0xbda5155c	-0.080607146
116	0x3d991e58	0.07476491
117	0x3dbad7dd	0.09123204
118	0xbda0499e	-0.07826541
119	0x3df26b22	0.1183684
120	0x3df74e3b	0.12075468
121	0xbdbfc774	-0.093642145
122	0x3da3fffa	0.08007808
123	0x3d68064a	0.056646623
124	0xbc28ab5e	-0.010294763
125	0x3def5b9a	0.116873935
126	0xbbc38f87	-0.0059680375
127	0x3ce21c64	0.027601428
128	0x3d94cda9	0.07265789
129	0xbcf2b6c5	-0.029628167
130	0xbd4c0eea	-0.04981891
131	0xbcc4d3fe	-0.024026867
132	0xbbf9f43d	-0.0076279924
133	0xbd103b42	-0.035212763
134	0xbd68c2d5	-0.05682643
135	0x3bb43664	0.005499648
136	0xbc82fdd6	-0.015990179
137	0xbd888cf0	-0.06667507
138	0xbd649e73	-0.05581517
139	0xbce11749	-0.027476924
140	0x3d3e9983	0.04653312
141	0xbdba3bdc	-0.090934485
142	0x3ce8d385	0.028421173
143	0xbbf35ae7	-0.007426608
144	0x3d0e8265	0.034792323
145	0x3da0b5f5	0.078472055
146	0x3bc76d61	0.006086037
147	0xbd5c0612	-0.053716727
148	0x3dc45e04	0.095882446
149	0xbcf6f892	-0.030147824
150	0x3db64e0a	0.089016035
151	0xb96c36f8	-0.00022527191
152	0x3daadda0	0.08343053
153	0xbcd0bb7c	-0.025480025
154	0x3d85d122	0.065340295
155	0x3c4bdbda	0.012442553
156	0x3af5a7a2	0.0018741975
157	0xbd596c1b	-0.053081613
158	0xbd857a4d	-0.06517468
159	0xbdb2ea41	-0.08736087
160	0x3d65d098	0.056107134
161	0x3ce3dc7b	0.027815094
162	0x3d60e13e	0.054902308
163	0x3d275bf6	0.040859185
164	0xbdfc209c	-0.12310907
165	0x3d362bbb	0.0444753
166	0x3dcaf3b7	0.09909766
167	0xbbb5978e	-0.0055417484
168	0xbcd165c7	-0.025561227
169	0xbd49a32c	-0.04922788
170	0x3dbf0fcc	0.09329185
171	0x3aaa118c	0.00129752
172	0x3bcbcfa9	0.0062198234
173	0x3d7e55cd	0.062093545
174	0xbca9004e	-0.020630028
175	0xbc958af2	-0.01825473
176	0xbd0387ee	-0.032112055
177	0xbdc6e844	-0.0971227
178	0x3ba1d237	0.0049383896
179	0x3b45282b	0.0030083756
180	0xbd96f840	-0.07371569
181	0x3df20ff8	0.11819452
182	0x3d1c9744	0.038230196
183	0x3d8cd50d	0.06876574
184	0x3d8b8adc	0.06813595
185	0xbd321221	-0.04347432
186	0xbaebf8fd	-0.0018003281
187	0x3caeb240	0.02132523
188	0xbd662b34	-0.056193545
189	0xbe005c27	-0.12535153
190	0xbd858e69	-0.06521303
191	0x3d0fb9df	0.03508937
192	0x3d9e8e1c	0.07741949
193	0xbc493434	-0.012280513
194	0x3c1c4237	0.009537271
195	0x3d295271	0.041338388
196	0x3d6fb488	0.058521777
197	0xbd913333	-0.070898436
198	0xbd7813b9	-0.060565684
199	0x3b0156f7	0.0019735673
200	0xbdc379b0	-0.095446944
201	0x3cd3cd69	0.025854783
202	0xbd95dffd	-0.07318113
203	0xbd16f7d9	-0.03685746
204	0x3dc22b33	0.09480896
205	0xbcd791be	-0.026314612
206	0x3d8e0fb2	0.069365874
207	0x3ca5fc8a	0.020262022
208	0x3d0895bc	0.033345923
209	0xbd14df0a	-0.03634552
210	0x3cb842c9	0.022492783
211	0xbd05efdf	-0.032699462
212	0x3d3be963	0.04587687
213	0x3d813145	0.063082255
214	0x3a1ee49a	0.0006061286
215	0x3d8552f3	0.06509962
216	0xbcd4fad0	-0.025998503
217	0xbd415201	-0.047197346
218	0x3ce3d9a8	0.027813748
219	0xbd9f74b8	-0.07785934
220	0x3ca1bb3b	0.019742599
221	0x3da829e9	0.08211119
222	0x3da7db0a	0.08196075
223	0xbd3ffcc2	-0.046871908
224	0xbbd8b5f6	-0.0066134883
225	0x3d25b6e1	0.04045761
226	0xbd5c0690	-0.053717196
227	0x3cb27192	0.02178267
228	0x3bb028b4	0.005375946
229	0xbdaa3d56	-0.0831248
230	0x3c96be7d	0.018401379
231	0xbd37a8ed	-0.044838835
232	0x3bdd86eb	0.0067604682
233	0x3d240b44	0.040049806
234	0xbc09de5e	-0.008414833
235	0xbcfbb00c	-0.030723594
236	0xbddb5287	-0.107091
237	0x3c9eebdb	0.019399574
238	0xbd802714	-0.062574536
239	0xbcc4181b	-0.023937276
240	0x3b99fb69	0.00469916
241	0x3cd635d2	0.02614871
242	0x3da95ffb	0.0827026
243	0xbc19136d	-0.00934301
244	0x3d662260	0.056185126
245	0xbd0e6867	-0.034767535
246	0xbdad36c6	-0.08457713
247	0xbacbedd4	-0.0015558549
248	0x3da37017	0.07980364
249	0xbd6b690d	-0.05747323
250	0x3d8a6aa8	0.06758624
251	0xbcaf9536	-0.021433454
252	0x3bf33431	0.007421993
253	0x3ddb6e3b	0.10714384
254	0x3d34f84b	0.044182103
255	0x3d873c9e	0.06603359

bias f4 [32]
0	0x3d306b90	0.04307133
1	0x3c24aef6	0.01005148
2	0x3d689e4a	0.05679158
3	0xbc857ef7	-0.016295893
4	0x3baac825	0.0052118474
5	0x3c5dd397	0.0135392165
6	0xbe0b2a25	-0.13590296
7	0x3d083fa3	0.033263814
8	0x3dbc34c5	0.091897525
9	0x3d57014d	0.052491475
10	0x3d4ea5cc	0.050451085
11	0xbd094711	-0.03351504
12	0x3d69999d	0.057031263
13	0xbc8ff289	-0.017571704
14	0xbabdc5ec	-0.0014478541
15	0x3db30200	0.08740616
16	0x3d5338e4	0.051567927
17	0x3d565d17	0.05233487
18	0xbc81b2c7	-0.015832318
19	0x3c593422	0.013257058
20	0xbe61a65f	-0.22036122
21	0x3ab29a60	0.001362633
22	0xbd1744d0	-0.03693086
23	0x3c5ca694	0.01346745
24	0x3ca8fd6d	0.020628655
25	0x3abe1b59	0.0014504
26	0xbe4575b5	-0.19283183
27	0x3d50fcec	0.051022455
28	0x3d7e0c93	0.06202371
29	0x3d0b6258	0.034029335
30	0xbc46e832	-0.012140321
31	0xbd11c90d	-0.035592128

weight f4 [1, 32]
0	0x3c6951df	0.014240711
1	0x3cd8f93f	0.026486037
2	0xbd4de290	-0.050264895
3	0xbd918812	-0.071060315
4	0x3d21faef	0.03954595
5	0x3d30e22e	0.04318445
6	0x3e063d2b	0.13109271
7	0xbd2319a9	-0.039819393
8	0xbc483949	-0.012220689
9	0x3d957b7e	0.07298945
10	0xbd969b6b	-0.073538624
11	0x3d3e3d95	0.046445448
12	0xbcfd5691	-0.030925067
13	0x3d6db146	0.05803039
14	0xbd049ee9	-0.03237811
15	0x3ca7ed6c	0.020498954
16	0x3ca405d0	0.020022303
17	0xbc568ecb	-0.013095568
18	0x3d93e631	0.0722164
19	0x3d8eaf4b	0.06967028
20	0x3b09aa0d	0.00210059
21	0x3cbcc908	0.023045078
22	0xbd8efabc	-0.069814175
23	0x3d84c010	0.064819455
24	0xbd3fca02	-0.04682351
25	0x3c70609a	0.014671469
26	0x3e09cc81	0.13456918
27	0x3ca3ce20	0.019995749
28	0x3cc67b99	0.024228858
29	0xbdd452b8	-0.1036734
30	0xbcdafab5	-0.026730875
31	0x3d39b128	0.045334965
