data/Erie/erie_lstm.pt (torch, 338417 bytes, 7 tensors)

weight_ih_l0 f4 [512, 24]
0	0xbd3d165c	-0.0461639
1	0x3ce5826c	0.028016292
2	0xbd921991	-0.07133783
3	0xbd6ad1a9	-0.057328854
4	0x3db63f90	0.08898842
5	0x3d1d411c	0.03839217
6	0x3ce51b34	0.027967073
7	0x3da317d6	0.07963531
8	0x3dab9905	0.083787955
9	0xbda7e6c4	-0.08198312
10	0xbd623fd6	-0.05523666
11	0xbcba7ee7	-0.02276559
12	0x3cd13531	0.025538059
13	0xbbad2617	-0.0052840817
14	0xbcfceffa	-0.030876148
15	0x3d72d05e	0.059280746
16	0xbc635fa5	-0.013877784
17	0xbd7d649e	-0.061863534
18	0x3bd3d12b	0.0064641437
19	0x3d1c5912	0.03817088
20	0x3dbaf069	0.09127886
21	0x3cba893c	0.022770517
22	0x3cdcabca	0.026937384
23	0x3daf1a81	0.08549977
24	0x3d9cd2bd	0.07657383
25	0x3d587eeb	0.052855413
26	0xbd3e0186	-0.04638817
27	0x3d6b24b5	0.057408053
28	0xbcbd0148	-0.0230719
29	0xbd777351	-0.06041271
30	0xbd4de6fb	-0.05026911
31	0xbd742b80	-0.059611797
32	0xbd936e2d	-0.07198749
33	0x3d9e6677	0.07734387
34	0x3d0f2e86	0.034956478
35	0xbcef692e	-0.029224958
36	0xbd87cb20	-0.0663054
37	0xbd777ce1	-0.06042183
38	0x3bcabecf	0.006187297
39	0xbd3db4f7	-0.04631516
40	0x3d8d3d5d	0.0689647
41	0x3da37161	0.0798061
42	0x3d361202	0.044450767
43	0x3d1406c7	0.036139276
44	0x3d601554	0.05470784
45	0xbd8aaa9d	-0.06770823
46	0x3db43d06	0.08800702
47	0xbc8c1e58	-0.017104313
48	0x3d63b185	0.055589218
49	0xbdb8b1b4	-0.09018269
50	0x3d2281d1	0.039674584
51	0xbd184a08	-0.037179977
52	0xbc63cc10	-0.013903633
53	0x3cb3552c	0.021891199
54	0x3c5a2f49	0.013316938
55	0xbdb18299	-0.08667488
56	0x3cdab21a	0.026696254
57	0xbd713945	-0.058892507
58	0xbdbd063d	-0.092297055
59	0x3bdef503	0.00680411
60	0x3c311a74	0.01080953
61	0xbd8d1982	-0.06889631
62	0x39bbffed	0.000358581
63	0x3d5b578f	0.0535503
64	0x3c4af827	0.012388266
65	0x3d18b89f	0.037285443
66	0xbd8eb113	-0.06967368
67	0x3d0fe9c2	0.03513504
68	0xbbd730ed	-0.0065671117
69	0x3c99f597	0.018793864
70	0x3ce6faa7	0.028195692
71	0x3a490c3e	0.0007669366
72	0x3ccf5087	0.025306953
73	0x3d58d17a	0.052934147
74	0x3d9018ab	0.07035955
75	0x395a851a	0.00020839684
76	0xbd9e66f3	-0.0773448
77	0x3d453baa	0.048152603
78	0xbd251f00	-0.040312767
79	0x3c1e2d00	0.0096542835
80	0xbcdbab91	-0.026815208
81	0xbdbb0428	-0.09131652
82	0x3d542c87	0.051800277
83	0x3d8c5460	0.06852031
84	0x3d31e62b	0.043432396
85	0x3cf8d848	0.030376568
86	0x3d445273	0.047930192
87	0xbd10ce35	-0.035352904
88	0x3d8692bb	0.06570955
89	0x3c79885e	0.015230266
90	0x3b3065e2	0.0026916196
91	0xbdbd1147	-0.09231811
92	0xbd20f237	-0.039293494
93	0xb9cfda50	-0.00039644772
94	0xbc24211e	-0.010017661
95	0xbd6ec82a	-0.05829636
96	0xbd91119d	-0.070834376
97	0xbc0b4526	-0.008500373
98	0xbd7d5acc	-0.06185417
99	0x3d76f9cd	0.060296822
100	0xbcef59e8	-0.029217675
101	0xbd9960f8	-0.074891984
102	0x3d386099	0.045013998
103	0x3cbbafdb	0.022911003
104	0xbbe289c8	-0.0069133975
105	0xbd9fe888	-0.07808024
106	0x3c484143	0.012222591
107	0xbd89a1ac	-0.067202896
108	0xbcdc60e0	-0.026901662
109	0x3b7e5f37	0.0038814077
110	0xbd310c0a	-0.043224372
111	0xbda0fd10	-0.07860768
112	0x3c1252a7	0.008930839
113	0xbda0bae9	-0.0784815
114	0x3d899036	0.06716959
115	0xbd70ba43	-0.058771383
116	0xbcf3ff5d	-0.029784853
117	0x3cd4031d	0.02588039
118	0xbd225a52	-0.039636917
119	0x3d7ab2c0	0.061205626
120	0x3d4338d9	0.047661636
121	0x3c3d7e27	0.011565722
122	0xbd982c36	-0.074303076
123	0x3dcf6843	0.10127308
124	0xbcbcb835	-0.023037056
125	0x3d6a5bd2	0.057216473
126	0x3c81ad4c	0.015829705
127	0x3cdb3f9c	0.02676373
128	0x3d9c3fa3	0.07629325
129	0x3b377522	0.00279934
130	0x3d0b37a8	0.033988625
131	0x3dce9f48	0.10088974
132	0xbd8ea135	-0.069643416
133	0xbc74c9ec	-0.01494072
134	0x3b3e844e	0.002907056
135	0xbcb336b6	-0.021876674
136	0x3d8ee437	0.06977122
137	0x3db365b7	0.08759635
138	0x3dce5c64	0.10076216
139	0x3d7afe75	0.061277825
140	0x3d809b14	0.06279579
141	0x3dc20f5e	0.09475587
142	0x3db6ff05	0.0893536
143	0x3d910047	0.07080131
144	0x3d472349	0.048617635
145	0xbba3ae93	-0.004995176
146	0x3d4afb1f	0.049555894
147	0xbd8c3af4	-0.06847182
148	0x3d47f6f9	0.048819516
149	0xbd2fd6c4	-0.042929426
150	0x3ca59886	0.02021433
151	0x3cfda001	0.030960085
152	0x3dbd46b9	0.09242005
153	0x3af462e3	0.0018645193
154	0x3db8b957	0.09019726
155	0x3c73534c	0.0148514025
156	0xbc896ba5	-0.016774962
157	0x3c0b6fc3	0.008510533
158	0xbd144c62	-0.036205657
159	0xbd7e2d9b	-0.06205521
160	0x3bb2660f	0.0054442952
161	0xbd91c8ab	-0.071183525
162	0xbda7cd5b	-0.08193465
163	0x3d5feb42	0.05466772
164	0x3d3cac7a	0.046062924
165	0x3d7abaad	0.061213184
166	0x3c14e0e5	0.009086822
167	0xbcb7a14c	-0.02241578
168	0x3da9e0f2	0.08294858
169	0x3cea6849	0.02861418
170	0xbd8ef6db	-0.06980678
171	0xbb58e996	-0.0033098212
172	0x3cadd275	0.021218518
173	0xbccac9bd	-0.0247544
174	0x3d66c9e1	0.05634487
175	0x3da33828	0.07969695
176	0x3d363fe0	0.04449451
177	0xbd053f0b	-0.032530826
178	0x3d9603fa	0.07324977
179	0xbc85d6bb	-0.016337743
180	0x3d6f995f	0.058495875
181	0xbd7044ad	-0.058659244
182	0x3d3ec453	0.046573948
183	0x3c9aeb59	0.01891105
184	0x3d82f296	0.06393926
185	0xbd7b6602	-0.06137658
186	0xbd0cff28	-0.034423023
187	0xbcc61a69	-0.024182515
188	0xbd429765	-0.047507662
189	0x3d701574	0.05861421
190	0x3d53cbf4	0.051708177
191	0x3d8dac3c	0.06917617
192	0x3d9ea847	0.0774694
193	0x3d9b28e6	0.0757616
194	0x3dbaec50	0.09127104
195	0xbc941ef1	-0.01808116
196	0x3d90fac0	0.07079077
197	0xbcad96be	-0.021190044
198	0x3da96367	0.082709126
199	0xbc26a678	-0.010171525
200	0x3d5e5813	0.054283213
201	0x3d91e083	0.071229
202	0x3dc2d0ba	0.09512468
203	0xbd22ce0c	-0.039747283
204	0xbbc5feb6	-0.006042327
205	0xbd817d20	-0.06322694
206	0xbd21f74b	-0.039542478
207	0x3d181326	0.037127636
208	0xbd822ed2	-0.063565865
209	0x3cd07a5f	0.025448976
210	0xbd9f88f6	-0.07789795
211	0x3dbe38f6	0.09288208
212	0xbcc85ab7	-0.024457319
213	0xbd8ec695	-0.0697147
214	0xbd11a53c	-0.03555797
215	0xbd83a111	-0.06427205
216	0x3d8674bf	0.06565236
217	0x3cec4fc6	0.028846633
218	0x3d0ed558	0.03487143
219	0xbd021d4a	-0.031766213
220	0x3dc89246	0.097935244
221	0xbd0a9860	-0.033836722
222	0xbd90d98c	-0.07072744
223	0x3db14e27	0.086574845
224	0xbd851e59	-0.06499929
225	0x3d375b6f	0.044764932
226	0x3d8b49a9	0.06801159
227	0xbd2b2a05	-0.04178812
228	0x3dc36449	0.09540612
229	0x3ccf5bf2	0.025312398
230	0x3ca47fbb	0.020080438
231	0x3d017033	0.031601142
232	0x3dad2cee	0.08455835
233	0x3da0b22c	0.078464836
234	0x3db53cf8	0.088495195
235	0x3d8e7f88	0.069579184
236	0x3d14a62e	0.036291294
237	0x3d8d46f5	0.068982996
238	0x3d659f00	0.056059837
239	0x3beaf170	0.007169895
240	0x3d57983b	0.052635413
241	0xbd315d4b	-0.04330186
242	0x3db2d8f8	0.0873279
243	0x3c9f9740	0.019481301
244	0x3d5a9a34	0.053369716
245	0xbc9d31cc	-0.019188784
246	0xbd71aaf9	-0.059000943
247	0x3d8703c3	0.06592514
248	0x3cb75101	0.022377493
249	0xbd73e9fa	-0.05954931
250	0x3dc06053	0.093933724
251	0xbcd63b95	-0.026151458
252	0xbd1db745	-0.038504858
253	0xbc826f37	-0.015922172
254	0xbd02ee61	-0.031965617
255	0x3da63024	0.08114651

weight_hh_l0 f4 [512, 128]
0	0xbb899a00	-0.0041992664
1	0x3cd4ceeb	0.025977572
2	0xbd58d17e	-0.052934162
3	0x3d628553	0.05530293
4	0x3db2bbb8	0.08727211
5	0x3d9db84e	0.07701169
6	0x3d70a1da	0.058748104
7	0x3d36efc2	0.044662245
8	0x3cdeade4	0.027182527
9	0x3da786f6	0.08180039
10	0xbcd03a08	-0.025418296
11	0xbd7c31f2	-0.06157107
12	0xbcd182ec	-0.025575124
13	0xbb28a28e	-0.0025731656
14	0x3d80374a	0.062605456
15	0x3d52499c	0.05133973
16	0x3c9258b5	0.017864564
17	0x3cb31d27	0.021864487
18	0xbd245796	-0.04012259
19	0x3c0edba7	0.008719361
20	0xbc9b1d25	-0.018934796
21	0xbd2c77f8	-0.0421066
22	0x3c2e3a49	0.010634013
23	0xbc832b5b	-0.016011884
24	0xbd447ec8	-0.04797247
25	0x3b508fbc	0.0031823954
26	0x3cee3752	0.029079113
27	0x3d60162a	0.054708637
28	0xbd86ce47	-0.06582313
29	0xbd145652	-0.036215134
30	0x3d91d2f4	0.07120314
31	0x3b7f3de9	0.0038946813
32	0x3d6e9baf	0.05825394
33	0x3d351e88	0.04421857
34	0x3c8f802c	0.017517172
35	0xbd4a69c3	-0.04941727
36	0x3dbdcb6d	0.09267316
37	0xbcc7ecf9	-0.02440499
38	0xbd1b4a60	-0.037912726
39	0xbd1833da	-0.037158825
40	0x3d49942a	0.049213566
41	0x3d2fc614	0.04291351
42	0xbd8b0a8f	-0.06789123
43	0x3ccf8a39	0.025334464
44	0xbd87a12f	-0.0662254
45	0x3c96ad31	0.018393131
46	0x3d84a985	0.06477646
47	0x3d4b0163	0.04956187
48	0x3d1a8ca4	0.03773178
49	0x3d908cf4	0.07058135
50	0xbd989ea1	-0.07452131
51	0xbcd47e4b	-0.025939127
52	0xbcd125ea	-0.025530774
53	0x3c8b178b	0.016979
54	0x3d5a2ffa	0.05326841
55	0xbce655d4	-0.028117098
56	0xbd7fe39c	-0.062472925
57	0x3d9cd382	0.076575294
58	0x3d2dc8db	0.04242788
59	0x3c9cccd5	0.01914064
60	0xbb40b084	-0.0029402087
61	0x3d8bd3ab	0.06827482
62	0xbd6a5fe8	-0.05722037
63	0xbd920487	-0.0712977
64	0x3c1bd4bf	0.009511172
65	0x3cad4b65	0.021154115
66	0xbd544a1d	-0.051828492
67	0x3d11bea6	0.035582207
68	0xbd2016c5	-0.039084215
69	0xbd07d6f9	-0.033164
70	0x3b917100	0.0044385195
71	0xbd2550ac	-0.040360138
72	0x3d71e840	0.05905938
73	0x3cf6266e	0.030047622
74	0xbd105d2d	-0.03524511
75	0x3c8c2dfc	0.01711177
76	0x3d657289	0.056017432
77	0xbdb89bd9	-0.090141006
78	0x3d79b060	0.06095922
79	0x3d10eb77	0.035380807
80	0x3d95e11c	0.07318327
81	0x3ca9d8a3	0.020733183
82	0xbc5be1fa	-0.013420576
83	0xbc7a8d75	-0.015292515
84	0x3d8c7f7b	0.068602525
85	0x3d9613c9	0.073279925
86	0x3c1a629d	0.009422925
87	0xbc98fce9	-0.018675284
88	0xbd78d8a8	-0.060753495
89	0x3db518ed	0.08842645
90	0xbbbe6253	-0.005810061
91	0xbba15075	-0.0049229213
92	0xbd57f5fd	-0.052724827
93	0xbc7897a7	-0.0151728755
94	0x3d14c44f	0.036320027
95	0xbbed4bb8	-0.0072416924
96	0x3dace31a	0.08441754
97	0x3d5d19b7	0.0539796
98	0xbc3f7130	-0.011684701
99	0xbb9fc5c0	-0.0048758686
100	0xbd9bf95b	-0.0761592
101	0xbd86b572	-0.06577577
102	0xbdbcc582	-0.09217359
103	0xbd3388dc	-0.04383169
104	0x3d49b087	0.049240615
105	0x3d817fc3	0.06323197
106	0xbd1a8627	-0.037725594
107	0x3c253ad5	0.010084827
108	0xbd5bb479	-0.05363891
109	0xbb67f6ef	-0.0035394987
110	0x3af836fd	0.0018937286
111	0x3cc1a964	0.023640342
112	0x3d3a6f5b	0.045516353
113	0x3b02f17d	0.0019980364
114	0xbd1a2095	-0.03762873
115	0x3c3a7a12	0.011381643
116	0xbb79a138	-0.0038090479
117	0xbd93bd97	-0.07213896
118	0xbd141631	-0.036153976
119	0x3c319140	0.010837853
120	0x3b3ecaab	0.0029112499
121	0xbca9749b	-0.020685485
122	0xbce852ba	-0.02835976
123	0x3d6fac03	0.058513653
124	0x3dc87dfc	0.097896546
125	0x3d673fc7	0.056457307
126	0x3ce1b8f9	0.027554022
127	0xbdb8caed	-0.0902308
128	0xbda5ebf5	-0.08101646
129	0x3d1e0e8a	0.038588084
130	0x3d437c07	0.047725704
131	0x3d94eaea	0.07271369
132	0xb7cdcbd5	-2.4532821e-05
133	0xbd783354	-0.060595825
134	0x3db35937	0.08757251
135	0x3c279e59	0.010230624
136	0xbd900f77	-0.070342
137	0x3d229ae2	0.03969849
138	0x3d562bc7	0.052287843
139	0xbc092ee2	-0.008372994
140	0x3d0e68db	0.034767967
141	0xbca138fc	-0.019680493
142	0x3d976b1a	0.07393475
143	0xbda372e1	-0.07980896
144	0xbd931dab	-0.07183393
145	0x3d75fb60	0.060054183
146	0xbdb9c4f5	-0.0907077
147	0xbd5d38f8	-0.054009408
148	0xbd380ed1	-0.044936005
149	0xbd7de7fd	-0.06198882
150	0xbcc88675	-0.024478177
151	0x3c175f58	0.00923904
152	0x3d9423f1	0.07233418
153	0x3c86be37	0.016448123
154	0x3dbd6ffd	0.09249876
155	0xbd18c666	-0.037298582
156	0x3d376f33	0.044783782
157	0x3d923653	0.07139268
158	0x3d340d6f	0.043958124
159	0x3d90f448	0.07077843
160	0xbd511854	-0.05104859
161	0xbd181b4f	-0.03713542
162	0x3d219924	0.039452687
163	0xbccfef5d	-0.025382692
164	0xbd7e20ee	-0.062043123
165	0x3d926381	0.07147885
166	0x3d172726	0.03690257
167	0x3d88ad2d	0.06673656
168	0x3b8e49a0	0.004342273
169	0x3da0f5cf	0.07859384
170	0x3d050dc9	0.03248385
171	0xbda8959e	-0.08231662
172	0x3da29af8	0.07939714
173	0x3c6f81de	0.014618365
174	0xbdada81b	-0.08479329
175	0xbaa545f3	-0.0012609347
176	0x3d33fa21	0.043939713
177	0x3b9f571f	0.0048626806
178	0xbda69f3a	-0.08135839
179	0xbd7d653b	-0.06186412
180	0xbd9ce111	-0.076601155
181	0xbdb07b4f	-0.08617269
182	0x3a40fd72	0.0007361985
183	0x3c81f049	0.015861647
184	0x3d907718	0.07053965
185	0x3daa0c5d	0.08303139
186	0xbd19d836	-0.03755971
187	0x3d7a75ef	0.061147626
188	0xbd76ab0f	-0.060221728
189	0xbd05bf0a	-0.032652892
190	0xbd613a76	-0.054987393
191	0x3d293896	0.04131373
192	0xbd7c284a	-0.06156186
193	0x3d81d4f6	0.06339447
194	0x3afb2bda	0.0019162849
195	0x39d2ea61	0.00040228947
196	0xbd15deae	-0.036589317
197	0x3d50042e	0.050785236
198	0x3cfe585f	0.031047998
199	0x3d0a9907	0.033837344
200	0x3da68bc8	0.0813213
201	0x3d86c306	0.065801665
202	0x3d0d60d4	0.03451617
203	0xbd4301c3	-0.047609102
204	0xbdb13242	-0.08652164
205	0x3d1bb758	0.038016647
206	0x3d77a570	0.060460508
207	0x3d88ee76	0.06686108
208	0xbd4829e9	-0.048868094
209	0x3b7942b7	0.003803415
210	0xbc97f023	-0.018547123
211	0xbcae56c2	-0.021281604
212	0x3d8e4129	0.06946022
213	0x3d426537	0.047459807
214	0xbd95fc88	-0.07323557
215	0xbd30a537	-0.04312631
216	0x3d280684	0.04102184
217	0x3de96d74	0.1139783
218	0xbd0fd32c	-0.0351135
219	0xbd86d882	-0.06584264
220	0xbd3948b8	-0.045235366
221	0x3d746fd5	0.059676964
222	0xbd56895e	-0.052377097
223	0xbc932bf4	-0.017965294
224	0x3d97f13b	0.07419058
225	0x3cc40980	0.023930311
226	0xbd494808	-0.04914096
227	0x3b3dcd0c	0.0028961329
228	0xbdb1bb73	-0.08678331
229	0x3d9d2146	0.07672362
230	0x3bc97706	0.006148222
231	0x3d1da30c	0.03848557
232	0x3c88c097	0.016693396
233	0x3cf109b7	0.029423578
234	0x3d90ee66	0.07076721
235	0x3d92abb2	0.071616545
236	0x3ca55eb8	0.020186767
237	0xbb1c3e07	-0.0023840682
238	0xbd73ae7d	-0.059492577
239	0xbd6b3dbe	-0.05743193
240	0xbcabc982	-0.02097011
241	0x3d4cfef5	0.050047833
242	0xbc61a5ae	-0.013772411
243	0xbd72597b	-0.059167366
244	0x39b7c9d9	0.00035054868
245	0x3c62e591	0.013848678
246	0x3db66d65	0.08907584
247	0x3daacf57	0.08340328
248	0xbdb9ef41	-0.09078837
249	0xbdba5c59	-0.09099645
250	0x3c37316b	0.011181216
251	0x3ce9238d	0.028459335
252	0xbd07dacb	-0.03316764
253	0x3d3a650d	0.045506526
254	0xbda87be9	-0.08226759
255	0x3b9f9891	0.0048704823

bias_ih_l0 f4 [512]
0	0xbcfc65c6	-0.030810248
1	0xbd0da07d	-0.03457688
2	0x3dd8ae05	0.105800666
3	0x3d5f0605	0.0544491
4	0xbd90f731	-0.07078398
5	0x3de2be6d	0.11071477
6	0x3d5ad3b4	0.053424552
7	0x3d20583b	0.039146643
8	0xbbbf40c5	-0.0058365786
9	0x3c8331ea	0.016015012
10	0x3d9783ed	0.0739821
11	0x3d4f96e0	0.050680995
12	0xbc68a208	-0.0141987875
13	0x3d00bdfb	0.03143118
14	0xbd572fb3	-0.052535724
15	0xbcbf0e5d	-0.023322279
16	0x3d81210f	0.063051336
17	0x3d51a28c	0.051180407
18	0x3a883c19	0.0010393887
19	0xbcc2f17c	-0.02379679
20	0x3c52c8a5	0.01286522
21	0xbd320dc9	-0.043470178
22	0xbd88df68	-0.06683236
23	0x3d588a35	0.05286618
24	0x3cc067ed	0.023487056
25	0xbd53905a	-0.051651336
26	0x3b5482d4	0.0032426612
27	0xbd0b78b6	-0.034050666
28	0x3d07eed5	0.033186752
29	0xbbb24228	-0.0054400153
30	0x3d7a5e79	0.061125252
31	0xbdacf1b0	-0.08444536
32	0x3dd5427f	0.10413074
33	0xbc05a561	-0.008157105
34	0x3d96beae	0.07360588
35	0xbbb2a03b	-0.00545123
36	0x3d3f333e	0.046679728
37	0x3da92b9e	0.082602724
38	0xbc50e82e	-0.012750668
39	0xbd99af1b	-0.07504102
40	0xbb68821a	-0.0035477937
41	0x3dc17dc0	0.09447813
42	0x3da37df8	0.07983011
43	0xbca12b01	-0.019673826
44	0xbc288ae6	-0.010287022
45	0x3d2fd5be	0.04292845
46	0x3d26d304	0.040728584
47	0x3d0c7ea7	0.034300473
48	0xbd874092	-0.06604113
49	0xbd443576	-0.047902547
50	0xbd13c193	-0.03607328
51	0x3cd3de34	0.02586279
52	0xbd4ee6ae	-0.050512962
53	0xbc89c29a	-0.016816426
54	0xbba14d2f	-0.004922531
55	0x3d1f4e98	0.038893312
56	0x3c1ea38d	0.009682548
57	0xbd25d2f2	-0.040484376
58	0xbb9e7776	-0.004836018
59	0x3da37bb2	0.079825774
60	0xbd4b440b	-0.049625438
61	0xbd4ab4c7	-0.04948881
62	0x3d9375cc	0.07200202
63	0xbd80e813	-0.06294265
64	0xbd739e94	-0.059477404
65	0x3c8db9c0	0.017300487
66	0xbd37e6ba	-0.044897772
67	0x3cc6fab5	0.024289468
68	0x3b48866f	0.0030597707
69	0x3cc80b91	0.024419578
70	0x3d836f0e	0.064176664
71	0xbcb706e3	-0.022342151
72	0x3d6d340b	0.05791096
73	0x3c161a47	0.009161538
74	0xbacbab30	-0.0015538689
75	0x3da91606	0.08256154
76	0xbc5ee27c	-0.013603803
77	0x3de7b14d	0.11313114
78	0x3d9a6265	0.075382985
79	0xbd05a0ef	-0.03262418
80	0xbbba08fc	-0.0056773406
81	0xbd8187bf	-0.0632472
82	0xbd3f4181	-0.04669333
83	0xbc4b2fb5	-0.012401511
84	0xbcd43ed3	-0.025908863
85	0x3d961b0c	0.073293775
86	0xbc8dff04	-0.017333515
87	0x3da446d3	0.08021321
88	0xbd34421f	-0.04400837
89	0x3d8b2bed	0.067954876
90	0x3d1301d2	0.035890408
91	0x3db9944d	0.09061489
92	0x3c975f6a	0.018478114
93	0x3b934021	0.0044937287
94	0xbce849e5	-0.028355548
95	0xbd156114	-0.036469534
96	0xbd3d58c3	-0.046227228
97	0x3d052bfd	0.032512654
98	0xbd40267c	-0.0469117
99	0xbd378db9	-0.04481289
100	0x3d87f36f	0.06638228
101	0x3d3cfd0d	0.046139766
102	0xbd866705	-0.06562618
103	0x3cace8e4	0.021107145
104	0xbd4433ba	-0.047900893
105	0xbd5f8ffe	-0.05458068
106	0xbd72b8ef	-0.059258398
107	0x3daa02e4	0.083013326
108	0xbd885ace	-0.066579446
109	0x3d544e93	0.051832747
110	0xbcf18abf	-0.029485105
111	0xbd632aab	-0.055460613
112	0xbcacc29d	-0.021088893
113	0x3d234a1b	0.039865594
114	0xbc45b9fc	-0.012068268
115	0xbd8415f3	-0.06449499
116	0xbc12b382	-0.008953931
117	0xbb967758	-0.0045918636
118	0x3cea578d	0.0286062
119	0xbd19cf70	-0.037551343
120	0x3db693cf	0.08914911
121	0xbc80464f	-0.015658526
122	0x3d6e6c4f	0.05820876
123	0xbd4497a0	-0.047996163
124	0xbd6a79fb	-0.057245236
125	0x3d732c39	0.059368346
126	0xbd1c4ce1	-0.038159255
127	0x3d83de79	0.06438918
128	0x3dabdd28	0.083917916
129	0xbd14939d	-0.036273587
130	0x3bdadff8	0.006679531
131	0x3d61d99d	0.055139173
132	0x3d2943af	0.041324314
133	0xbdb49f14	-0.08819404
134	0xbdb7cbd8	-0.08974427
135	0x3d181f44	0.037139192
136	0x3c838729	0.01605566
137	0xbd19004b	-0.037353795
138	0xbd49b47b	-0.049244385
139	0xbd871fd5	-0.06597868
140	0x3d26ee13	0.04075439
141	0xbda74333	-0.08167114
142	0xbdd387be	-0.10328625
143	0x3d733bb6	0.059383117
144	0xbd92a946	-0.071611926
145	0x3c8d8ac7	0.017278088
146	0xbc9d010e	-0.019165542
147	0xbd8718ca	-0.06596525
148	0xbd49df86	-0.049285434
149	0xbd4ad7c9	-0.049522195
150	0xbd47e766	-0.048804663
151	0x3d873b04	0.06603053
152	0x3daeefff	0.08541869
153	0x3c10519d	0.008808521
154	0xbdf4b3b5	-0.11948339
155	0x3bf20da2	0.007386879
156	0xbd2ef5ab	-0.042714756
157	0xbd692616	-0.056921087
158	0xbd3151e1	-0.043290976
159	0xbd501959	-0.050805423
160	0x3d481238	0.0488455
161	0xbd01f625	-0.031728882
162	0x3d1e4d9c	0.038648233
163	0xbd81115d	-0.0630214
164	0xbd56adb7	-0.05241176
165	0xbdcbf80d	-0.09959421
166	0xbdc3a98b	-0.09553822
167	0x3ce5e565	0.028063485
168	0xbd9c627f	-0.07635974
169	0xbcf20057	-0.029541178
170	0xbd0edd00	-0.03487873
171	0x3d96c90a	0.07362564
172	0xbdaa2403	-0.0830765
173	0x3c455606	0.012044435
174	0x3dae3761	0.085066564
175	0xbcf63bae	-0.030057754
176	0xbdbe1b79	-0.09282584
177	0x38f1dbbf	0.000115327064
178	0xbd7bed5c	-0.06150566
179	0xbdbfb90b	-0.09361466
180	0xbdbe1e02	-0.09283067
181	0xbc609031	-0.013706253
182	0xbcdf5d49	-0.027266162
183	0x3d7e336a	0.06206075
184	0xbcb037a7	-0.021510912
185	0xbcec9b37	-0.028882606
186	0xbd08f1d1	-0.03343374
187	0x3dbfb21a	0.09360142
188	0x3d825000	0.06362915
189	0x3d410738	0.047126025
190	0xbc892fa6	-0.016746353
191	0xbc8be82d	-0.017078483
192	0x3d8d1f96	0.0689079
193	0x3d577c18	0.05260858
194	0x3d5012bc	0.050799116
195	0x3c8d582f	0.017253963
196	0xbc5b11c3	-0.013370934
197	0xbcd06df5	-0.025443057
198	0xbc7cfb23	-0.015440735
199	0xbdbbbd39	-0.09166951
200	0x3cd5c878	0.026096568
201	0xbda6cd7b	-0.08144661
202	0x3d9036cd	0.070417024
203	0xbcd8427b	-0.026398888
204	0x3d28e829	0.04123703
205	0x3d257402	0.040393837
206	0x3d86bc6e	0.06578909
207	0x3d5f6ff1	0.054550115
208	0xbdaa5f9e	-0.08319019
209	0xbb91d509	-0.0044504446
210	0x3b040953	0.002014716
211	0xbc6bde32	-0.014396237
212	0xbdaac893	-0.08339038
213	0x3cf783c9	0.030214207
214	0x3c7036a4	0.014661465
215	0xbae33bfa	-0.00173366
216	0xbce416be	-0.027842876
217	0xbd31f009	-0.043441806
218	0x3c8f0dc5	0.01746262
219	0xbce34b2d	-0.027745808
220	0x3b378a65	0.0028006074
221	0xbdbefad5	-0.09325186
222	0xbd610fff	-0.054946896
223	0x3d839876	0.06425564
224	0x3d5ce1a5	0.05392613
225	0x3da21255	0.07913653
226	0x3dba447e	0.09095095
227	0x3d74bc34	0.059749797
228	0xbd74d7ad	-0.059775997
229	0x3bab0dd9	0.0052201566
230	0x3c36612f	0.011131569
231	0x3d3ba1dd	0.04580866
232	0x3ac109a0	0.00147276
233	0x3d0cd557	0.034383144
234	0x3d9f5c62	0.077812925
235	0xbccc58f3	-0.024944758
236	0xbc9ded27	-0.019278122
237	0x3d318600	0.043340683
238	0x3d79f5f0	0.06102556
239	0x3b8df3e7	0.004332054
240	0x3b87fa45	0.0041497075
241	0xbd9e128c	-0.07718381
242	0x3a1141bf	0.0005541108
243	0x394156b4	0.00018438214
244	0x3d1a29de	0.037637584
245	0x3d966789	0.073439665
246	0xbd62fec3	-0.05541874
247	0x3d3f02d8	0.04663357
248	0xbdc07ffa	-0.093994096
249	0xbcc2268d	-0.023700023
250	0x3d103b8b	0.035213035
251	0xbdb78e54	-0.08962694
252	0x3d540a80	0.051767826
253	0x3cf85093	0.030311858
254	0xbdaeae1d	-0.08529303
255	0xbd7c8e8d	-0.061659385

bias_hh_l0 f4 [512]
0	0x3d7dd70a	0.061972655
1	0xbd3c96b2	-0.04604215
2	0x3dc45bc9	0.09587819
3	0xbd1916a8	-0.037375122
4	0xbd150dcb	-0.036390107
5	0xbd79e2a1	-0.061007146
6	0xbd121d56	-0.03567251
7	0x3d9e7e67	0.07738953
8	0x3d6210ec	0.05519192
9	0xbc91c8aa	-0.01779588
10	0xbd4cd43d	-0.050007094
11	0xbcdd36b5	-0.027003625
12	0xbd464e10	-0.04841429
13	0x3dd0bbe8	0.1019209
14	0xbd22947f	-0.0396924
15	0xbbfe06b7	-0.0077522653
16	0xbd8c816d	-0.068606235
17	0x3d282e32	0.04105968
18	0xbd132132	-0.03592033
19	0xbda1c411	-0.07898725
20	0xbb271503	-0.0025494702
21	0x3dbb87d1	0.09156764
22	0x3c249024	0.010044131
23	0xbd7f5cea	-0.06234447
24	0xbd83e627	-0.064403825
25	0x3d1abdbf	0.037778612
26	0x3da19de2	0.07891442
27	0x3c9ed170	0.019386977
28	0x3d9bd265	0.07608489
29	0xbd80a65c	-0.062817305
30	0x3c917e35	0.017760376
31	0x3d927efb	0.07153126
32	0xbd727760	-0.059195876
33	0xbd08873f	-0.033332106
34	0x3d3c011c	0.045899495
35	0xbcdea7ff	-0.027179716
36	0xbcc283bd	-0.023744458
37	0x3c82f470	0.015985698
38	0x3d507006	0.050888084
39	0x3ba915cd	0.0051600696
40	0xbd61a98f	-0.055093344
41	0x3c6abbda	0.014327014
42	0x3dc08fdf	0.09402441
43	0x3d72ceb0	0.059279144
44	0x3ce3774c	0.027766846
45	0xbd4dfa34	-0.05028744
46	0x3df0a222	0.117496744
47	0xbd5025eb	-0.05081741
48	0xba69dba2	-0.00089209725
49	0x3cf3cd6e	0.029761042
50	0xbc70b4f9	-0.014691585
51	0xbd605ae9	-0.0547742
52	0x3dccf1be	0.10007046
53	0xbc4b0997	-0.012392423
54	0xbcbfcddd	-0.023413593
55	0x3d4b0066	0.049560927
56	0x3d9df379	0.07712454
57	0x3cdd2842	0.026996735
58	0x3da44273	0.08020487
59	0x3c8351d2	0.016030226
60	0xbc04942c	-0.008091968
61	0xbda56144	-0.080751926
62	0x3d84a32d	0.06476436
63	0x3d9d84d2	0.07691349
64	0x3d239c9d	0.03994428
65	0xbd8c431e	-0.06848739
66	0xbd7821c6	-0.060579084
67	0xbdb68204	-0.08911517
68	0x3dd10a55	0.10207049
69	0x3c8af75f	0.016963659
70	0xbd468f7c	-0.04847668
71	0xbb4c8252	-0.0031205607
72	0x3d72318b	0.05912928
73	0x3bb3d45a	0.0054879608
74	0xbd2e841e	-0.042606466
75	0x3dc19b54	0.094534546
76	0x3dc33366	0.09531288
77	0x3d878316	0.066167995
78	0xbd62a082	-0.055328853
79	0x3d7d706b	0.06187479
80	0xbd828b49	-0.06374223
81	0x3d705976	0.058679067
82	0xbd83487c	-0.0641031
83	0x3b15d3cf	0.0022861843
84	0xbb67615d	-0.0035305836
85	0x3d045b64	0.03231372
86	0xbb6507d8	-0.0034947302
87	0x3d531388	0.0515323
88	0xbc25534d	-0.010090661
89	0xbc49866b	-0.012300114
90	0x3c9bcdd6	0.019019049
91	0xbbc65b0d	-0.0060533346
92	0xbcd7cbb2	-0.026342247
93	0x3dec6a76	0.11543743
94	0x3d9515e0	0.07279563
95	0xbb3fe1eb	-0.0029278945
96	0x3d45218c	0.048127696
97	0xbd0f9b59	-0.03506026
98	0x3d8fd397	0.070227794
99	0xbd57f133	-0.05272026
100	0xbd83a17f	-0.06427287
101	0xbb90e69d	-0.0044220225
102	0x3da17bca	0.07884939
103	0xbd9f0b8d	-0.07765875
104	0xbc987df8	-0.018614754
105	0x3c8d8a48	0.017277852
106	0xbae0ae62	-0.0017141814
107	0xbce2a3db	-0.027666023
108	0xbd2f4d3c	-0.042798266
109	0xbd8b9dc6	-0.06817202
110	0x3d71092e	0.058846645
111	0x3dc0f887	0.09422403
112	0xbd0a8a8d	-0.03382354
113	0x3c86125d	0.016366178
114	0xbd9c4b65	-0.07631568
115	0x3ce5375c	0.027980499
116	0xbd90bf79	-0.070677705
117	0xbd3f4ef6	-0.046706162
118	0x3daf2974	0.085528284
119	0x3da2fab7	0.07957976
120	0x3da91871	0.08256615
121	0x3c19f909	0.0093977535
122	0xbd602af9	-0.054728482
123	0x3becaddd	0.0072228746
124	0xbcee4fc9	-0.029090779
125	0x3c0c4c88	0.008563168
126	0x3de50788	0.11183077
127	0xbc0c29a3	-0.008554849
128	0xbd9426ef	-0.072339885
129	0x3d13bfe1	0.03607166
130	0xbd6db488	-0.058033496
131	0xbdb43e6c	-0.088009685
132	0xbdb4edd1	-0.088344224
133	0x3d6b923f	0.057512518
134	0x3d45ff1e	0.048339
135	0xbda8b9f4	-0.08238593
136	0xbcec0f94	-0.028816022
137	0xbdd015c3	-0.10160401
138	0x3d4cc934	0.04999657
139	0xbd369395	-0.04457434
140	0xbda4c556	-0.08045451
141	0xbbe91de0	-0.007114157
142	0xbda0142c	-0.078163475
143	0xbd8b663b	-0.06806608
144	0x3cb92737	0.022601707
145	0x3cd4efd6	0.025993269
146	0xbd66b574	-0.05632539
147	0xbd5d521c	-0.054033384
148	0x3c146a75	0.009058584
149	0xbce7de84	-0.028304346
150	0xbbf6908e	-0.0075245565
151	0x3d3b928b	0.04579405
152	0xbcb9e82d	-0.022693718
153	0x3cdc4c92	0.02689198
154	0xbdbd695a	-0.0924861
155	0x3d26506f	0.04060405
156	0x3c0c4885	0.008562212
157	0xbd58822e	-0.052858524
158	0x3d908a3b	0.07057615
159	0x3cd3121b	0.02576547
160	0x3b56ee7d	0.0032795959
161	0xbd0cad74	-0.034345105
162	0x3d5f173d	0.05446552
163	0xbd867cd1	-0.065667756
164	0xbdc2b819	-0.0950777
165	0xbdcaf94b	-0.0991083
166	0x3d3e8ce9	0.0465211
167	0xbb2f9eca	-0.0026797527
168	0x3cb3b26b	0.021935662
169	0xbda5c2d9	-0.08093805
170	0xbd94a06c	-0.072571605
171	0x3bbdc6e9	0.005791534
172	0x3d7ec9c3	0.062204134
173	0xbda6a6eb	-0.08137306
174	0xbd55e3d7	-0.052219238
175	0xbc001530	-0.0078175515
176	0xbba39420	-0.004992023
177	0xbce2a77f	-0.027667759
178	0xbd87dbf4	-0.066337496
179	0xbd8e22c7	-0.06940227
180	0x3d1ff021	0.039047364
181	0xbdba813b	-0.0910668
182	0xbcfc7eaa	-0.030822117
183	0xbd108c71	-0.035290185
184	0x3d8f29ef	0.0699042
185	0x3cc10db4	0.023566104
186	0x3d283fdb	0.041076522
187	0xbd059ef9	-0.03262231
188	0x3d08b5af	0.033376392
189	0xbda64ce9	-0.08120138
190	0xbcd16df7	-0.02556513
191	0xbbaa9c0a	-0.0052065896
192	0x3c47be1b	0.012191321
193	0xbd5283db	-0.05139528
194	0xbde50a4f	-0.11183607
195	0xbcacdac6	-0.021100413
196	0xbcf458b1	-0.029827448
197	0x3a28ba1f	0.00064364256
198	0xbda67907	-0.08128553
199	0xbdc136a1	-0.09434248
200	0xbcf740c1	-0.030182244
201	0xbb9ab504	-0.004721286
202	0x3ce626d7	0.028094692
203	0x3d57cb23	0.05268396
204	0x3d26f33e	0.040759318
205	0x3d3093bb	0.043109637
206	0xbda1a7a9	-0.07893307
207	0x3d62be13	0.05535705
208	0xbda125d9	-0.07868547
209	0xbd8baabb	-0.06819674
210	0x3caf222d	0.021378601
211	0xbcc295dc	-0.0237531
212	0xbd996c22	-0.07491328
213	0xbc82a218	-0.015946433
214	0x3d428e57	0.047499027
215	0xbd5224c8	-0.05130461
216	0x3c0608f8	0.008180849
217	0xbde56577	-0.112009935
218	0xbd593f04	-0.053038612
219	0x3c00c60b	0.007859717
220	0x3d3bac66	0.04581871
221	0x3d435ae2	0.047694094
222	0x3d5ab04a	0.05339078
223	0xbd7b63ab	-0.061374348
224	0xbd791a87	-0.060816314
225	0x3b82484c	0.0039759036
226	0x3d52703a	0.05137656
227	0x3da91390	0.082556844
228	0xbcac0d18	-0.021002337
229	0xbd99c14b	-0.07507571
230	0xbc82ff84	-0.01599098
231	0x3ca8640b	0.020555517
232	0x3d85051b	0.064951144
233	0x3c194d9a	0.009356881
234	0x3d4fdc39	0.05074713
235	0xbd586fdd	-0.052841056
236	0x3d65a5c3	0.056066286
237	0x3d80b0e3	0.062837385
238	0x3daa969e	0.08329509
239	0xbb095ad4	-0.0020958679
240	0x3d66bd65	0.056332964
241	0x3d4c6cbb	0.04990838
242	0xba89d80b	-0.0010516656
243	0xbd191a27	-0.037378456
244	0x3ba9dbfb	0.0051836944
245	0xbca3a34d	-0.019975329
246	0x3c94f4d5	0.018183151
247	0x3cbd7b14	0.023129977
248	0xbdbbdf9c	-0.091735095
249	0xbcaa57f5	-0.020793894
250	0xbdb57d17	-0.088617496
251	0x3d40518f	0.04695278
252	0x3cc37a58	0.023862049
253	0x3ca6f31f	0.020379601
254	0xbde30648	-0.110851824
255	0xbdbdd101	-0.0926838

weight f4 [32, 128]
0	0xbc945894	-0.018108644
1	0x3d4f7536	0.05064889
2	0x3daaba31	0.083362944
3	0xbcaa4de3	-0.020789092
4	0x3dac5074	0.08413783
5	0xbd1c58f3	-0.038170766
6	0x3d05876d	0.032599855
7	0x3c9d5d0d	0.01920941
8	0x3a2292b7	0.0006201672
9	0x3d344064	0.04400672
10	0xbd441096	-0.04786738
11	0x3dcf92af	0.101353996
12	0xbdab5fa6	-0.08367853
13	0xbc847b61	-0.016172113
14	0xbcfbe3b0	-0.030748218
15	0xbd41eafc	-0.04734324
16	0x3de801ea	0.1132849
17	0xbc6b5620	-0.0143637955
18	0x3d56115b	0.052262645
19	0xbd9a3ada	-0.07530756
20	0x3d838f2a	0.06423791
21	0xbdc12107	-0.094301276
22	0x3d02b29e	0.031908624
23	0xba86e51b	-0.0010291667
24	0xbcb40d7d	-0.021979088
25	0x3c8b6403	0.017015463
26	0x3dc233b6	0.09482519
27	0x3d6a185a	0.05715213
28	0xbbf4ec7c	-0.00747448
29	0x3cb4f164	0.02208776
30	0x3dbcbb7d	0.09215448
31	0x3cf94b80	0.030431509
32	0x3bd53f08	0.006507758
33	0xbc07528a	-0.008259425
34	0x3d46cc2e	0.048534565
35	0x3d88d9a6	0.06682138
36	0x3dcd7bb2	0.10033359
37	0xbaa88f31	-0.0012860057
38	0x3d129021	0.035781983
39	0x3d2b4855	0.041817028
40	0x3d2de56c	0.042455122
41	0x3db5d651	0.08878768
42	0x3db2f373	0.087378405
43	0x3ca57c31	0.02020082
44	0x3d98fe3c	0.07470366
45	0x3dbf894a	0.09352358
46	0x3b9f7dce	0.004867292
47	0xbd341024	-0.043960705
48	0xbd9bb089	-0.07602031
49	0xbcca39a1	-0.024685683
50	0xbdcdece5	-0.1005495
51	0xbb3d6335	-0.0028898243
52	0xbd90d53f	-0.070719235
53	0x3d038684	0.032110706
54	0x3d55eb9a	0.05222664
55	0x3d1fa8fa	0.038979508
56	0xbd9fa51b	-0.07795163
57	0xbcf8f4dd	-0.030390197
58	0x3ce71338	0.028207406
59	0x3d130bc0	0.035899878
60	0x3cbf43e2	0.023347799
61	0x3d33bcb9	0.04388115
62	0x3d9e2a72	0.077229396
63	0xbd72ae23	-0.0592481
64	0xbd8bcf9d	-0.068267085
65	0x3a9aa958	0.0011799736
66	0x3be43158	0.00696389
67	0xbd307f2e	-0.043090038
68	0xbb3b68b1	-0.0028596336
69	0xbc9f0ca7	-0.019415213
70	0x3c685956	0.014181456
71	0x3d0f99d3	0.035058808
72	0xbd24ad2d	-0.040204216
73	0xbd277724	-0.040885106
74	0xbd05b227	-0.032640602
75	0x3cb4e06d	0.02207967
76	0xbc92b94c	-0.017910622
77	0xbd503904	-0.050835624
78	0xbd7e03b1	-0.06201524
79	0x3d29053c	0.041264758
80	0xbdc1fdc6	-0.094722316
81	0xbcfc6083	-0.03080774
82	0xbb0514e9	-0.0020306653
83	0xbd9458bb	-0.072434865
84	0xbd599090	-0.05311638
85	0x3dc44833	0.095840834
86	0x3d194b6c	0.037425444
87	0x3d0c1ae1	0.03420532
88	0x3cc330aa	0.023826916
89	0xbccca6df	-0.024981914
90	0xbdad75d4	-0.084697396
91	0x3c71b3bb	0.014752324
92	0x3d7655d0	0.06014043
93	0x3d8b2cc1	0.067956455
94	0xbda04d97	-0.07827299
95	0xbd8aa05a	-0.06768866
96	0x3cc048c7	0.023472203
97	0xbaeb967b	-0.0017973924
98	0x3c585a59	0.013205134
99	0xbd109bed	-0.035304952
100	0x3c1d8811	0.00961496
101	0x3c1f67de	0.009729354
102	0xbd08ee24	-0.033430234
103	0xbd437c89	-0.047726188
104	0xbd677e53	-0.056516957
105	0xbd225873	-0.039635133
106	0xbc1cf75c	-0.009580459
107	0x3c8a667a	0.016894568
108	0xbd6f1e49	-0.05837849
109	0x3dccd645	0.10001806
110	0xbc90fd3e	-0.01769888
111	0x3d00e6ff	0.031470295
112	0xbd5ceeb1	-0.05393857
113	0xbd0d665c	-0.034521446
114	0x3cf92251	0.030411871
115	0x3c48ae2a	0.012248555
116	0xbd2d23b7	-0.04227039
117	0xbd069b9f	-0.032863256
118	0xbc3734de	-0.011182038
119	0x3c2a6c05	0.01040173
120	0xbd738948	-0.059457093
121	0xbc622528	-0.013802804
122	0xbd2e30ba	-0.042526938
123	0x3dd6ec9f	0.10494351
124	0x3cd94e81	0.026526691
125	0xbd14d26f	-0.036333498
126	0xbc903365	-0.017602632
127	0xbbb701ca	-0.00558493
128	0xbd133172	-0.035935827
129	0x3da027a0	0.07820058
130	0x3d899c27	0.06719237
131	0xbc9c6677	-0.019091828
132	0xbd4f3c38	-0.05059454
133	0x3d1e3395	0.03862341
134	0x3d6186c1	0.055060152
135	0x3da5f583	0.08103468
136	0xbd5d8802	-0.054084785
137	0x3d3ccdff	0.04609489
138	0xbd472ed3	-0.04862864
139	0x3d48a680	0.04898691
140	0x3c1548ac	0.009111565
141	0x3d12a008	0.03579715
142	0x3d1299ce	0.03579121
143	0xbd843d60	-0.06457019
144	0x3cd078ac	0.025448166
145	0xbd7c3861	-0.061577205
146	0xbd2c472a	-0.042060055
147	0xbb8c62fc	-0.004284261
148	0x3caeb231	0.021325203
149	0xbcc88959	-0.024479555
150	0x3d455850	0.048179924
151	0xbda0bd7e	-0.07848643
152	0xbd916c10	-0.071006894
153	0x3b772628	0.0037711952
154	0x3db7f5fc	0.08982465
155	0x3d3eb015	0.046554644
156	0x3d1228d4	0.035683468
157	0xbbf00c30	-0.0073256716
158	0x3d835d70	0.06414306
159	0xbd55901a	-0.05213938
160	0xbca093e5	-0.019601772
161	0xbd038df0	-0.032117784
162	0x3c80e2e9	0.0157332
163	0x3d9796c4	0.07401803
164	0x3ddc5333	0.107580565
165	0x3d0b5ab4	0.034022048
166	0xbc71e75d	-0.014764634
167	0xbcd82ae9	-0.026387649
168	0xbca512ea	-0.02015062
169	0x3b5421b8	0.003236873
170	0x3df1bf5b	0.11804076
171	0xbd8444a6	-0.06458406
172	0x3d2f2eae	0.042769127
173	0x3d086701	0.033301357
174	0xbdc27eff	-0.09496879
175	0xbd3e721e	-0.04649555
176	0xbc8f4431	-0.01748857
177	0xbccddbde	-0.025129255
178	0xbde47a5a	-0.11156149
179	0xbd86f403	-0.0658951
180	0x3c765542	0.0150349755
181	0x3dc5e5ca	0.096629694
182	0xbcadf979	-0.021237122
183	0xbcc59487	-0.024118675
184	0x3bcee524	0.006313937
185	0x3d4c35eb	0.049856108
186	0x3c1ee7c7	0.009698815
187	0x3cbaa0df	0.022781787
188	0xbd4d45ea	-0.050115503
189	0xbd7e16a5	-0.062033314
190	0x3da65442	0.0812154
191	0x3c8b9bca	0.01704206
192	0xbd14b6fa	-0.036307313
193	0xbd8b5a79	-0.06804366
194	0xbd86cde4	-0.06582239
195	0x3c91e03d	0.01780712
196	0x3d65a6cc	0.056067273
197	0xbd5435b0	-0.051809013
198	0x3d6b066d	0.057379175
199	0xbd237c37	-0.039913382
200	0xbcf6761a	-0.030085612
201	0xbdb7072f	-0.08936917
202	0x3d52e2af	0.051485714
203	0xbd2d2518	-0.042271703
204	0xbd8b1b2b	-0.06792291
205	0x3cf67aa0	0.030087769
206	0x3cb22be1	0.021749439
207	0x3d260c9d	0.040539373
208	0xbd08e66f	-0.033422884
209	0x3d9b3cf7	0.075799875
210	0x3d694951	0.056954686
211	0x3c474f50	0.012164906
212	0xbcd8699e	-0.02641755
213	0xbc087a5f	-0.008329957
214	0x3d410d62	0.047131903
215	0xbd351747	-0.044211652
216	0x3ce68f60	0.028144538
217	0x3d85d371	0.0653447
218	0x3b643a80	0.0034824908
219	0xbdd1fe3b	-0.10253569
220	0xbd9d3a7a	-0.07677169
221	0x3d16bd86	0.036801837
222	0x3c05c840	0.008165419
223	0x3d7a51a6	0.061113022
224	0x3c31ec94	0.010859627
225	0xbd52da17	-0.051477518
226	0xbd1f2d7b	-0.038861733
227	0xbcb95aaf	-0.02262625
228	0x3d0dde4f	0.034635838
229	0xbdb4b5bc	-0.088237256
230	0x3a06ce30	0.00051424187
231	0x3d691a17	0.056909647
232	0x3dd23387	0.10263734
233	0xbda9dd2d	-0.08294139
234	0xbd5f312a	-0.054490246
235	0x3d4a1852	0.0493396
236	0xbdcf2140	-0.10113764
237	0xbcf4c061	-0.02987689
238	0x3cf26266	0.029587936
239	0x3d58c281	0.05291987
240	0x3a7e8e25	0.0009710512
241	0xbdb07918	-0.08616847
242	0xbdc930f2	-0.09823789
243	0xbd82952a	-0.06376107
244	0x3d0c0157	0.034180965
245	0xbc9b3594	-0.018946446
246	0xbbc0daf1	-0.005885475
247	0x3df2f04f	0.118622415
248	0xbcbd3dc5	-0.023100743
249	0xbc086e97	-0.008327148
250	0x3c860383	0.016359096
251	0x3dcf1b00	0.10112572
252	0xbce2a857	-0.027668161
253	0x3cb0c18c	0.021576665
254	0xbda9bc17	-0.082878284
255	0xbda9db8b	-0.082938276

bias f4 [32]
0	0xbbc27eef	-0.005935542
1	0xbd0e1d7f	-0.0346961
2	0x3d3fe387	0.046847846
3	0x3d83afd7	0.06430023
4	0xbdcb4a66	-0.099263
5	0x3d48feaa	0.04907099
6	0xbe0fb0a5	-0.14032228
7	0xbdf15589	-0.11783893
8	0x3d8ddc23	0.06926753
9	0xbd32c30f	-0.043643054
10	0x3d73e1af	0.0595414
11	0x3bee88af	0.0072794775
12	0x3d5bb312	0.05363757
13	0x3c5120c9	0.012764164
14	0xbdf5ee6d	-0.12008367
15	0xbcfaf9e7	-0.03063674
16	0x3b858832	0.0040750736
17	0x3b2aa878	0.0026040357
18	0xbd3866aa	-0.045019783
19	0x3d820bd3	0.063499115
20	0xbdb146d8	-0.086560905
21	0x3d2b7342	0.041857965
22	0xbd3535ab	-0.044240635
23	0x3d933fa5	0.071898736
24	0x3d7f63a0	0.06235087
25	0x3d2ead13	0.042645525
26	0x3c8d53da	0.017251898
27	0x3cb71a45	0.022351393
28	0xbcf06c37	-0.029348476
29	0x3c046273	0.008080113
30	0x3db5aede	0.08871244
31	0x3cc10b74	0.023565032

weight f4 [1, 32]
0	0xbd1f14e8	-0.038838297
1	0xbd133b89	-0.03594545
2	0x3d3a5d13	0.04549892
3	0xbdf68c2b	-0.12038454
4	0x3de49477	0.1116113
5	0xbdf9c17d	-0.12195108
6	0x3dc4d112	0.096101895
7	0xbd50a9e4	-0.05094327
8	0xbc45144a	-0.012028763
9	0x3d5952a1	0.053057317
10	0x3dd90fe7	0.10598736
11	0x3de74b76	0.1129369
12	0xbd58475d	-0.052802432
13	0xbc9753b0	-0.018472522
14	0xbc071440	-0.008244574
15	0x3d3b7460	0.04576528
16	0x3d8cfa05	0.06883625
17	0xbdc87c92	-0.09789385
18	0x3d98a678	0.074536264
19	0x3b1eec74	0.0024249824
20	0x3c3ee624	0.0116515495
21	0xbce4c53e	-0.027926084
22	0x3dbc33cf	0.09189569
23	0xbce0fc94	-0.027464189
24	0x3d163c20	0.036678433
25	0x3dab5ea2	0.08367659
26	0xbd02bb4b	-0.031916898
27	0xbd70a555	-0.058751423
28	0x3c6b2f49	0.014354535
29	0x3d963696	0.0733463
30	0x3c220ac3	0.009890261
31	0xbd101630	-0.03517741
