data/Erie/sens_erie.pt (torch, 338417 bytes, 7 tensors)

weight_ih_l0 f4 [512, 24]
0	0xbdb85a2e	-0.090015754
1	0x3d8730f5	0.06601135
2	0xbd2776e3	-0.040884864
3	0x3ccdcb04	0.02512122
4	0x3d2411f7	0.040056195
5	0xbd5226df	-0.0513066
6	0x3c952fe8	0.01821132
7	0xbd83bef7	-0.06432908
8	0x3ca5bdeb	0.020232162
9	0xbd39c571	-0.04535431
10	0xbcb1562b	-0.021647533
11	0xbdac3fa9	-0.0841058
12	0xbbed8d99	-0.007249546
13	0xbcbf4d8d	-0.023352409
14	0xbcc716ad	-0.024302805
15	0x3da531d9	0.08066148
16	0x3d0d34ae	0.034474067
17	0x3adc921e	0.0016828214
18	0x3d0710d8	0.032975048
19	0x3c4ed1d1	0.012623266
20	0xbda540dc	-0.080690116
21	0xbccc82ce	-0.024964716
22	0x3d1cfad7	0.038325157
23	0x3d189ac5	0.037256975
24	0xbd9076c9	-0.070539065
25	0xbcc97c29	-0.024595337
26	0xbd21b12b	-0.0394756
27	0xbd30abd4	-0.043132618
28	0x3d52f050	0.05149871
29	0xbddc0d8c	-0.10744771
30	0xbd4c6ac9	-0.049906526
31	0xbdba2a4b	-0.09090098
32	0xbd5737cf	-0.052543458
33	0x3d798a87	0.060923126
34	0xbd4c9c63	-0.04995383
35	0xbda7d15e	-0.081942305
36	0xbdb9872d	-0.09058986
37	0x3cf1fe97	0.029540343
38	0xbdcd8145	-0.10034422
39	0xbd4ca99c	-0.04996644
40	0x3c290b71	0.010317669
41	0xbdcdee94	-0.10055271
42	0x3d62810f	0.05529886
43	0xbd88203d	-0.06646774
44	0x3d5896f9	0.052878354
45	0xbb0f4079	-0.0021858497
46	0xbd726302	-0.059176452
47	0xbd43822a	-0.047731556
48	0xbd9d4559	-0.07679243
49	0x3cb724fc	0.022356503
50	0xbcbb5e57	-0.022872133
51	0x3dadf519	0.08494014
52	0xbda3dfc9	-0.08001668
53	0xbb7bad9f	-0.0038403047
54	0xbcbe2cbf	-0.023214696
55	0xbc908446	-0.017641198
56	0x3d6638da	0.05620656
57	0xbcf13968	-0.029446319
58	0x3d550505	0.05200674
59	0xbcb5bf1b	-0.022185853
60	0x3d1dbad0	0.038508236
61	0x3ccffe53	0.025389826
62	0xbd0b7ba3	-0.034053456
63	0x3d3441c8	0.044008046
64	0x3c1a631b	0.009423043
65	0x3db7f836	0.08982889
66	0x3d02ed08	0.031964332
67	0x3c87a03b	0.016555896
68	0x3db26ada	0.087117866
69	0xbda1cac5	-0.07900003
70	0x3cc7efce	0.02440634
71	0x3db07444	0.08615926
72	0x3d257b41	0.040400747
73	0x3d111182	0.035417087
74	0xbc564a95	-0.013079305
75	0xbc260cae	-0.010134859
76	0xbd6e2541	-0.058140997
77	0x3bf09333	0.0073417663
78	0x39ed3c4c	0.00045249087
79	0x3d798c3e	0.06092476
80	0x3cf82795	0.030292312
81	0xbd86b3f1	-0.0657729
82	0xbd9ab389	-0.07553775
83	0x3cd51758	0.026012108
84	0x3d0355f5	0.032064397
85	0x3cd50964	0.026005454
86	0x3c3064a6	0.010766184
87	0xbbce1c71	-0.0062900116
88	0x3c326a40	0.01088959
89	0xbd9942d3	-0.07483449
90	0x3d4b15b6	0.049581252
91	0xbc84a979	-0.016194092
92	0x3d59f9e9	0.05321685
93	0xbd32e21a	-0.04367266
94	0xbdd43402	-0.10361482
95	0xbbb39b9d	-0.005481197
96	0xbcf06cf3	-0.029348826
97	0x3c16e4a0	0.009209782
98	0xbb6b2e16	-0.0035885624
99	0x3c619284	0.013767842
100	0xbc844595	-0.01614646
101	0xbd3d60f1	-0.04623503
102	0xbce91010	-0.028450042
103	0x3d55dfc9	0.05221537
104	0x3d276bb7	0.04087421
105	0x3bc5d55c	0.0060373973
106	0x3c956dd2	0.018240843
107	0xbc87e44c	-0.016588353
108	0x3d12222a	0.035677113
109	0x3cc2aefe	0.023765083
110	0xbcc7ebef	-0.024404494
111	0x3d2fdb06	0.042933486
112	0xbd049545	-0.032368917
113	0x3d183295	0.037157614
114	0x3d4e2228	0.050325543
115	0xbcaec624	-0.021334715
116	0xbc6db1e7	-0.014507747
117	0xbbf6ce85	-0.0075319433
118	0x3dc5f2fe	0.09665488
119	0xbd49f42b	-0.049305122
120	0xbdb9b3b4	-0.09067479
121	0x3d02268b	0.03177504
122	0x3cd25e95	0.025679866
123	0x3b3114f4	0.0027020546
124	0x3c33a7f9	0.010965341
125	0x3d845638	0.064617574
126	0x3d32f8f3	0.043694448
127	0x3ce0008a	0.027344007
128	0x3da36c52	0.07979645
129	0x3c2e761e	0.0106482785
130	0x3d4669df	0.04844081
131	0x3d470800	0.048591614
132	0xbda603d8	-0.08106202
133	0xbc5ed849	-0.013601371
134	0xbda4b17e	-0.080416664
135	0x3d7ec33b	0.062197905
136	0xbdb933dc	-0.090430945
137	0xbdbaa1c1	-0.09112883
138	0x3c9dc1bf	0.019257424
139	0x3d3600df	0.044434424
140	0x3d86a5dd	0.06574605
141	0xbc004d3a	-0.007830912
142	0x399aab63	0.00029500862
143	0x3d12c953	0.03583653
144	0x3ab18a7f	0.0013545303
145	0x3b5d3b89	0.003375741
146	0x3c21338a	0.009838948
147	0x3d59e8fd	0.05320071
148	0x3cfc93f1	0.030832263
149	0x3d2fc010	0.042907774
150	0x3d88afec	0.066741794
151	0xbd69a480	-0.057041645
152	0x3d19a0e9	0.03750697
153	0xbd2ae47e	-0.041721813
154	0xbdb4abd2	-0.088218346
155	0xbb4cfdbf	-0.0031279174
156	0x3c9f091f	0.019413529
157	0xbce9f887	-0.02856089
158	0x3c3883fe	0.011261938
159	0x3d61114e	0.054948144
160	0xbcb93e0a	-0.02261259
161	0xbd3ef156	-0.046616875
162	0xbda5c1d6	-0.08093612
163	0x3d722b72	0.059123464
164	0x3d1a654d	0.037694264
165	0xbda805f2	-0.08204259
166	0x3baf3c50	0.005347766
167	0xbd45965b	-0.048239093
168	0x3ca547c0	0.020175815
169	0x3c1ab0de	0.0094415825
170	0xbd072637	-0.03299543
171	0x3dac5a34	0.084156424
172	0x3d95a8bf	0.073075764
173	0xbdb690b2	-0.08914317
174	0x3d9d35e4	0.076762944
175	0x3d3cbc27	0.046077874
176	0xbd039e12	-0.03213317
177	0xbd8a5cf6	-0.06756012
178	0x3a40f157	0.0007360181
179	0x3cf62c47	0.03005041
180	0xbd42aa01	-0.04752541
181	0xbcc7759f	-0.024348078
182	0x3d204b8a	0.03913454
183	0x3d2c8a7f	0.042124268
184	0x3bd5921d	0.006517662
185	0xb8a3d152	-7.8114346e-05
186	0x3caa7876	0.020809393
187	0xbd2387f0	-0.039924562
188	0x3da630eb	0.08114799
189	0x3c5fe543	0.0136655
190	0x3d0532bd	0.03251909
191	0xbd6132c7	-0.054980066
192	0x3d5d01ea	0.053956904
193	0xbd86f503	-0.06589701
194	0x3d0cec96	0.034405313
195	0x3d18a06b	0.03726236
196	0xbd1a6791	-0.037696425
197	0xbd1fc07f	-0.039001938
198	0xbd223a0d	-0.039606143
199	0x3c3cd7b6	0.011526039
200	0x3d83c96f	0.06434905
201	0xbcd3487c	-0.0257914
202	0x3d7ad94e	0.061242394
203	0x3d886889	0.066605635
204	0xbc9c6024	-0.019088812
205	0x3dbc4e95	0.09194676
206	0x3d63d208	0.055620223
207	0xbc4b56a7	-0.012410796
208	0x3d90d51d	0.07071898
209	0x3da81f12	0.08209051
210	0x3dbb606f	0.091492526
211	0x3dce8bc0	0.10085249
212	0x3d07f484	0.033192173
213	0x3dcdf606	0.10056691
214	0xbcae472e	-0.021274175
215	0xbd388505	-0.045048732
216	0x3c3c07ed	0.011476499
217	0x3da5676a	0.08076365
218	0x3d90710b	0.07052811
219	0xbc464d92	-0.012103455
220	0x3cf290e4	0.029610105
221	0x3db5670c	0.08857545
222	0x3d33b9eb	0.043878477
223	0x3d01433b	0.031558257
224	0xbcc31edb	-0.023818424
225	0x3d8984f3	0.06714811
226	0x3d94440f	0.07239544
227	0xbccd6914	-0.02507452
228	0x3d37e4ab	0.04489581
229	0x3c519b5a	0.012793386
230	0x3d232113	0.039826464
231	0x3d74c3ee	0.059757166
232	0x3ceb47d9	0.028720783
233	0xbd9da704	-0.07697871
234	0xbd215dd6	-0.03939613
235	0x3c9f12d1	0.019418152
236	0xbd89c2eb	-0.06726631
237	0xbd4b46aa	-0.049627937
238	0xbcedb117	-0.029015107
239	0xbc613952	-0.013746576
240	0xbd4e7d99	-0.050412748
241	0x3b74d8fb	0.0037360776
242	0xbd43ae98	-0.047773927
243	0x3d5a8fa7	0.053359654
244	0x3c384bc3	0.011248532
245	0x3c4e68e0	0.012598246
246	0x3af4725a	0.0018649802
247	0xbd4aadb3	-0.04948206
248	0xbccd807b	-0.025085678
249	0x3d49180d	0.049095202
250	0x3d4f5b26	0.050624035
251	0xbb6c06c7	-0.0036014782
252	0x3c21b714	0.009870309
253	0x3d3cc95a	0.04609046
254	0x3d3df729	0.04637829
255	0x3b2fa972	0.0026803878

weight_hh_l0 f4 [512, 128]
0	0x3da9733b	0.082739316
1	0x3d8a3a13	0.06749358
2	0xbd023b8e	-0.031795077
3	0x3d39fca8	0.045406967
4	0xbb95778c	-0.0045613702
5	0xbd43269c	-0.047644243
6	0x3da51a9e	0.080617175
7	0xbda98983	-0.082781814
8	0x3db13d66	0.08654289
9	0x3b32bca2	0.0027273078
10	0xbd5b506f	-0.053543504
11	0xbd96684a	-0.0734411
12	0xbd788fa9	-0.06068388
13	0xbd154309	-0.036440883
14	0xbcb82dc5	-0.022482762
15	0x3cfeb370	0.031091422
16	0x3d9283cd	0.07154045
17	0x3d5b046b	0.05347101
18	0xbd603476	-0.05473753
19	0xbcaa4503	-0.02078486
20	0xbda7c494	-0.08191791
21	0xbdaa65f1	-0.08320225
22	0xbd8a6fbf	-0.06759595
23	0xbd5a589e	-0.05330717
24	0x3b7c40f2	0.003849086
25	0xb9b21a6a	-0.00033970486
26	0xbd3a5dc8	-0.045499593
27	0xbd521d6b	-0.051297586
28	0x3c816b73	0.015798306
29	0xbd973444	-0.07383016
30	0x3cc492d0	0.023995787
31	0xbd5d5845	-0.05403926
32	0xbc857ec7	-0.016295804
33	0x3d3da5c2	0.046300657
34	0x3c3c023d	0.011475143
35	0xbd9a8328	-0.07544547
36	0x3cf2de1f	0.029646931
37	0x3c722394	0.01477899
38	0x3bdf457d	0.0068137036
39	0x3ce5642e	0.028001871
40	0x3da11154	0.07864633
41	0x3b8dbbf5	0.0043253847
42	0x3d7a67e9	0.061134253
43	0xbd75eadb	-0.06003843
44	0xbdbdc027	-0.09265166
45	0x3c229c4d	0.00992496
46	0xbc705582	-0.014668824
47	0xba779c72	-0.00094456144
48	0x3d81a854	0.06330934
49	0xbcb41519	-0.021982716
50	0x3d3ff255	0.046861965
51	0x3d39435d	0.04523026
52	0xbdc467a6	-0.09590082
53	0x3d36579d	0.04451715
54	0xbdac9f9d	-0.08428881
55	0x3c72e5a8	0.014825262
56	0xbcd8bde1	-0.026457729
57	0x3d055c99	0.03255901
58	0xbd6ce36b	-0.05783407
59	0xbd357a33	-0.04430599
60	0x3dbeab1f	0.093099825
61	0x3d8ce3f9	0.0687942
62	0x3da1f086	0.07907204
63	0xbd9876d5	-0.074445404
64	0xbd859a03	-0.06523516
65	0xbd45970c	-0.048239753
66	0xbd40a790	-0.0470348
67	0xbb920f6e	-0.004457406
68	0x3da1a482	0.078927055
69	0x3c876075	0.016525486
70	0xbcdaa03b	-0.026687732
71	0x3d571d25	0.05251803
72	0x3d3758ee	0.044762544
73	0xbdabf0e5	-0.08395556
74	0xbc2a04d5	-0.010377129
75	0x3d72d65d	0.059286464
76	0x396bfbf6	0.00022505209
77	0xbb9f8770	-0.0048684403
78	0x3d85ac5b	0.06527015
79	0xbd1f4e88	-0.038893253
80	0xbd54b592	-0.05193097
81	0xbd12e6f2	-0.035864778
82	0xbc98a45c	-0.01863306
83	0x39044039	0.00012612426
84	0xbd3c2ed1	-0.045943085
85	0x3d9ef87e	0.0776224
86	0xbdb019f2	-0.08598699
87	0xbc513e6b	-0.012771229
88	0x3c936cca	0.01799621
89	0x3d8aadf9	0.06771464
90	0xbd4ac336	-0.049502574
91	0xbd19636a	-0.037448324
92	0xbd77d91f	-0.060509797
93	0x3b28abc5	0.0025737148
94	0x3d2a9d92	0.041654177
95	0x3cec25cf	0.028826622
96	0xba9d25e6	-0.0011989444
97	0xbd1cbef0	-0.03826803
98	0x3cb2e869	0.021839337
99	0x3d9c433e	0.07630013
100	0xbda07ed2	-0.07836689
101	0x3d8ea44e	0.069649324
102	0x3da55e8b	0.08074673
103	0xbb734137	-0.0037117728
104	0xbd092847	-0.033485677
105	0xbc9611c9	-0.018319027
106	0x3d6ee517	0.058323946
107	0x3d94246e	0.07233511
108	0xbd911e4f	-0.07085859
109	0xbdbaf47d	-0.09128664
110	0x3cdaa323	0.026689118
111	0x3d054e88	0.032545596
112	0x3d878281	0.066166885
113	0x3d928d59	0.07155866
114	0x3dc8b5e7	0.0980032
115	0x3ca6fdda	0.020384718
116	0xbd54c24c	-0.05194311
117	0xbbf420d0	-0.0074502006
118	0x3be27173	0.006910497
119	0x3d838520	0.06421876
120	0x3bea80b6	0.007156457
121	0xbbe542a0	-0.0069964677
122	0xbd066339	-0.03280947
123	0xbdbdb1d1	-0.092624314
124	0x3c750718	0.014955305
125	0x3d468565	0.04846706
126	0x3c2d0d26	0.010562217
127	0x3d985507	0.07438093
128	0x3ddfb465	0.109230794
129	0x3d3a88d0	0.04554063
130	0xbd9a9170	-0.07547271
131	0x3dca89bd	0.09889553
132	0xbd5c6e0e	-0.053815894
133	0x3d542def	0.05180162
134	0xbcebdf27	-0.02879293
135	0xbdad70f6	-0.08468811
136	0xbd793bf0	-0.060848176
137	0x3d934791	0.071913846
138	0x3cad7b83	0.021177059
139	0x3c92cac1	0.017918946
140	0x3c12578b	0.008932005
141	0xbcbacb8e	-0.02280214
142	0x3d354142	0.044251688
143	0x3d5adb74	0.053431943
144	0x3d43d048	0.047806054
145	0x3d61594a	0.055016793
146	0xbd806c01	-0.062706
147	0xbd6c7c68	-0.05773583
148	0xbd873519	-0.066019244
149	0xbd81d530	-0.063394904
150	0xbceb80ec	-0.028747998
151	0x3d0e1617	0.034689035
152	0xbd21138c	-0.039325282
153	0x3d8baa18	0.06819552
154	0x3d0a7d6c	0.033811018
155	0x3d79683b	0.060890418
156	0x3d1492d7	0.03627285
157	0x3bff8d8d	0.0077988566
158	0x3ce8521a	0.028359462
159	0x3d6aa525	0.0572864
160	0x3b3dd62d	0.002896677
161	0x3d8001cb	0.06250342
162	0xbd08b0b3	-0.03337164
163	0xbcfc9215	-0.030831376
164	0xbd49f959	-0.049310062
165	0xbd2609b1	-0.040536586
166	0x3d931797	0.07182234
167	0x3d1fec2f	0.0390436
168	0xbc6cfa4b	-0.014463971
169	0x3d54b383	0.05192901
170	0xbd0b8009	-0.03405765
171	0x3d83ee2e	0.064419135
172	0x3d5a68f3	0.053322744
173	0x3d09659a	0.03354416
174	0xbcfa4339	-0.030549632
175	0x3da8300e	0.08212291
176	0xbd25fc2d	-0.040523697
177	0x3dc48cfa	0.09597202
178	0xbd0a03a0	-0.033694863
179	0xbc258cbb	-0.010104354
180	0x3bcd7976	0.006270583
181	0xbdb361db	-0.08758899
182	0xbd205002	-0.0391388
183	0xbc32eb7f	-0.010920404
184	0xbd2a1cd3	-0.041531395
185	0xbd982a21	-0.074299105
186	0x3d461646	0.048361085
187	0xbdb7a2cf	-0.089666
188	0xbb89797b	-0.00419539
189	0xbd56e94c	-0.052468583
190	0xbdbdc4b5	-0.092660345
191	0x3d23756e	0.03990691
192	0xbd5efa0b	-0.05443768
193	0x3d1ddd9c	0.03854142
194	0x3d5c1357	0.05372938
195	0x3da04574	0.07825747
196	0x3c822ca2	0.015890423
197	0xbca4659f	-0.020067988
198	0x3dbcb833	0.09214821
199	0xbd528ae6	-0.051401995
200	0xbce4e1ed	-0.027939761
201	0xbdbff99a	-0.093737796
202	0x3dd73605	0.1050835
203	0xbc9df15a	-0.019280124
204	0xbd8ed2e7	-0.0697382
205	0x3d0f4fdc	0.03498827
206	0x3d5360e5	0.051606078
207	0x3d0bf476	0.034168683
208	0xbd3369eb	-0.043802183
209	0x3a61860b	0.0008603043
210	0x3d3fefad	0.046859432
211	0xbd1e10d6	-0.038590275
212	0x3d871479	0.06595702
213	0x3d8f0176	0.069827005
214	0x3c9d6402	0.019212727
215	0xbd960194	-0.0732452
216	0xbcc2512e	-0.02372035
217	0x3bf8cc78	0.007592734
218	0xbd35f0cf	-0.044419106
219	0xbc6d990b	-0.01450182
220	0xbd643926	-0.055718563
221	0x3d099612	0.033590384
222	0x3b6d621b	0.0036221805
223	0x3ce16a08	0.02751638
224	0x3d24be83	0.04022075
225	0x3dd70825	0.104996
226	0x3d948797	0.07252424
227	0xbc57cc53	-0.013171273
228	0x3d439bf4	0.04775615
229	0x3dbcda90	0.09221375
230	0x3d63c047	0.05560329
231	0x3c4ed939	0.012625032
232	0x3d6b500b	0.05744938
233	0xbd6d8469	-0.057987604
234	0x3c448626	0.011994874
235	0xbc84b3af	-0.016198961
236	0xbc3df593	-0.011594194
237	0xbd7f5405	-0.062335987
238	0x3db49f07	0.088193946
239	0xbcd0415b	-0.025421789
240	0x3d110b67	0.035411265
241	0xbd0fa7e9	-0.03507224
242	0xbc0b72f2	-0.008511292
243	0x3c7bebdb	0.015376057
244	0xbdc26287	-0.09491449
245	0x3d26534f	0.040606793
246	0xbd585622	-0.052816518
247	0x3d579445	0.052631635
248	0x3d17520c	0.03694348
249	0x3cfa1805	0.030529032
250	0x3d9ee6f2	0.07758893
251	0xbd62944f	-0.05531722
252	0xbdab3fed	-0.08361802
253	0xbd2821f4	-0.041048005
254	0x3d9b80dc	0.07592937
255	0xbc35a04d	-0.011085582

bias_ih_l0 f4 [512]
0	0xbda8f5d1	-0.08250011
1	0x3aa41922	0.0012519697
2	0x3d284602	0.04108239
3	0x3d7bf436	0.061512195
4	0xbd51eb0c	-0.05124955
5	0x3d3d23cf	0.046176728
6	0x3d129d3a	0.035794474
7	0x3ce43616	0.027857821
8	0x3db6ff82	0.08935453
9	0xbd838168	-0.06421167
10	0xbcd71363	-0.026254361
11	0x3dd986a5	0.106213845
12	0xbd91a41c	-0.071113795
13	0x3de6b21a	0.11264439
14	0x3db0c0ce	0.086305246
15	0x3db9b991	0.09068597
16	0x3d11647f	0.03549623
17	0xbd0a3424	-0.03374113
18	0xbd5830d8	-0.052780956
19	0x3d0e84de	0.03479468
20	0x3d84b921	0.06480623
21	0xbda6fa84	-0.08153251
22	0xbd3fe170	-0.046845853
23	0xbdbe4e28	-0.09292251
24	0x3c059a2e	0.008154435
25	0xbace69e8	-0.0015748115
26	0x3d928674	0.07154551
27	0xbcc10e53	-0.0235664
28	0xbd21a2b8	-0.03946182
29	0x3dacf638	0.084454
30	0xbd7670b1	-0.060166065
31	0xbd23fc22	-0.040035374
32	0xbd27b9df	-0.040948745
33	0x3b64e155	0.0034924347
34	0x3cb44292	0.0220044
35	0xbd32b5ce	-0.043630414
36	0x3da8c8c1	0.08241416
37	0xbd09873c	-0.033576235
38	0x3dc1bb69	0.09459574
39	0x3d74bb16	0.05974873
40	0x3d0cb998	0.034356683
41	0xbdab74f0	-0.083719134
42	0x3daa5e6b	0.0831879
43	0xbdbb49cf	-0.09144937
44	0xbd066b56	-0.032817207
45	0xbd54dd1a	-0.05196867
46	0xbdba2b9a	-0.090903476
47	0xbc402ece	-0.011729909
48	0x3d6bb75b	0.05754791
49	0x3d3ebbee	0.046565942
50	0x3d746b82	0.05967284
51	0xbcb419d1	-0.021984966
52	0x3dbad8c0	0.09123373
53	0x3d3e8952	0.046517678
54	0x3d25b2ab	0.040453594
55	0x3d30ba3a	0.04314635
56	0x3d3155cb	0.04329471
57	0x3d35f0ca	0.044419087
58	0x3c3d149b	0.011540557
59	0xbd98ccd4	-0.07460943
60	0xbc92dc62	-0.017927352
61	0x3dac1059	0.084015556
62	0x3d7e8dd2	0.06214697
63	0x3d77335f	0.060351726
64	0xbca022d8	-0.019547865
65	0x3d1a194a	0.037621774
66	0x3c6d5382	0.014485242
67	0x3cd8b7ee	0.026454892
68	0x3d9dd7ed	0.077072
69	0x3d197350	0.037463486
70	0x3c6523f4	0.013985623
71	0x3d7b408c	0.061340854
72	0xbd2aa965	-0.041665453
73	0x3dc42c81	0.09578801
74	0x3c9b4d20	0.018957675
75	0x3d04c092	0.03241021
76	0x3d975094	0.07388416
77	0x3d7fefbe	0.062484495
78	0x3aa61c89	0.0012673299
79	0xbcd16a3f	-0.025563357
80	0x3c29f5a8	0.01037351
81	0x3d0fab83	0.035075676
82	0xbc3f0fcc	-0.011661481
83	0x3d24cba4	0.04023327
84	0x3d492898	0.04911098
85	0x3cd03b4e	0.025418904
86	0x3dc411be	0.095736966
87	0x3d6a4b4a	0.057200707
88	0xbdadcdf5	-0.08486549
89	0x3d7264b5	0.059178073
90	0xbd3d3100	-0.04618931
91	0x3da319bc	0.07963893
92	0x3db86bb7	0.0900492
93	0xbd3f943b	-0.046772223
94	0xbd85e16e	-0.06537138
95	0xbc1d34fc	-0.009595152
96	0x3d05be63	0.03265227
97	0x3cda95a0	0.026682675
98	0xbd73e5d6	-0.05954536
99	0x3d527b53	0.051387142
100	0xbc896f93	-0.016776836
101	0x3da866dd	0.082227446
102	0x3d4c8db1	0.049939815
103	0x3d86b1d7	0.06576889
104	0xbb04e83b	-0.0020280022
105	0x3cb683e0	0.02227968
106	0xbcaf6a3d	-0.021412963
107	0x3cdc11f5	0.026864031
108	0xbdb9bfc0	-0.090697765
109	0xbd339a59	-0.04384837
110	0xbd6ac81f	-0.057319757
111	0xbabc80b9	-0.0014381624
112	0x3c0d1e97	0.00861325
113	0x3cdd2e81	0.026999714
114	0xbcb6857c	-0.022280447
115	0x3d2da049	0.042389188
116	0x3dbb67bf	0.09150647
117	0xbd89e44f	-0.067329995
118	0x3d85f56f	0.06540953
119	0x3d388ae1	0.04505432
120	0x3d0960f7	0.03353974
121	0xba57aab3	-0.0008227035
122	0x3d8067bf	0.06269788
123	0xbd2e1f0a	-0.04251007
124	0x3d9dfee3	0.077146314
125	0xbd58b20b	-0.05290417
126	0x3d42dec7	0.04757574
127	0x3c9c1ae4	0.019055791
128	0x3bc50dbe	0.006013601
129	0xbb674a1d	-0.0035291978
130	0xbdadcbb0	-0.08486116
131	0xbd69a949	-0.05704621
132	0x3d6a53ca	0.057208814
133	0x3d820cc9	0.06350095
134	0xbdc58481	-0.09644414
135	0xbc86a496	-0.016435903
136	0x3d7c4ace	0.061594777
137	0xbcc238d1	-0.023708733
138	0xbd352fd8	-0.04423508
139	0x3c3f483a	0.011674935
140	0x3c233a61	0.009962649
141	0xbda9679e	-0.082717165
142	0x3d7540e2	0.05987633
143	0x3cd8b2ef	0.02645251
144	0x3d44c75f	0.048041698
145	0x3cc2fe13	0.023802793
146	0xbda5de8a	-0.080990866
147	0xbd87db82	-0.06633665
148	0xbda83d73	-0.082148455
149	0x3c7d900a	0.015476236
150	0xbdb3392a	-0.087511376
151	0xbc87eb9f	-0.016591845
152	0x3d5c59d2	0.053796597
153	0x3d438675	0.04773565
154	0xbd8cfa91	-0.06883729
155	0x3d8739c8	0.06602818
156	0x3d436d53	0.04771168
157	0xbdc2a98e	-0.09504996
158	0x3c46c36a	0.012131551
159	0x3d58e534	0.05295296
160	0xbdb97fe6	-0.09057598
161	0xbcaf7c2f	-0.02142152
162	0x3d0826ae	0.033240013
163	0x3cc18e84	0.023627527
164	0xbd5f4ccd	-0.054516602
165	0x3d5c9298	0.05385074
166	0xbdf2888f	-0.11842453
167	0xbda1a2f3	-0.07892408
168	0xbcd1b1a8	-0.025597408
169	0xbd9f70cf	-0.077851884
170	0xbd7ffc8b	-0.062496703
171	0xbd54b876	-0.05193373
172	0x3c5dba0e	0.013533128
173	0xbd2c4191	-0.042054716
174	0xbd41b51c	-0.04729186
175	0x3d566bbc	0.052348837
176	0xbcc50baf	-0.024053423
177	0xbcc23bcf	-0.02371016
178	0x3c4563d0	0.012047723
179	0xbd265d4a	-0.04061631
180	0xbdc22b84	-0.09480956
181	0xbd16a91d	-0.036782373
182	0x3c439e3b	0.011939581
183	0xbdb45d3b	-0.08806845
184	0xbd99f891	-0.075181134
185	0x3d24833f	0.04016423
186	0x3d7e8675	0.062139947
187	0xbd9da6dd	-0.07697842
188	0xbcd59741	-0.0260731
189	0x3bbbf9b1	0.0057365526
190	0xbd9e1c08	-0.0772019
191	0xbd8f85af	-0.0700792
192	0xbdc0fe16	-0.09423463
193	0xbdbcdd82	-0.09221937
194	0xbcc97c15	-0.0245953
195	0xbd497ab0	-0.04918927
196	0x3d80eb6d	0.06294904
197	0x3be8cc4b	0.0071044317
198	0x3cfa9570	0.030588835
199	0x3b831179	0.0039998856
200	0xbd3b8a67	-0.045786288
201	0x3ccb2d97	0.024802012
202	0x3d32ff0c	0.043700263
203	0x3d863892	0.06553759
204	0xbc76aa5d	-0.015055266
205	0xbcf328bc	-0.02968251
206	0xbd6f9ce4	-0.058499232
207	0xbd80c228	-0.06287032
208	0xbd9a9a9d	-0.075490214
209	0xbd8baca7	-0.0682004
210	0xbc4025e6	-0.011727786
211	0x3d9852fc	0.07437703
212	0xbce921e7	-0.028458549
213	0xb9d9637e	-0.00041463593
214	0xbdc3b033	-0.09555092
215	0x3d092648	0.033483773
216	0x3d4493b2	0.047992416
217	0xbd8b1dd5	-0.067927994
218	0xbbf4f4e2	-0.0074754814
219	0xbdce7108	-0.10080153
220	0xbdf0ae3b	-0.11751982
221	0xbc1b3953	-0.009474116
222	0xbd0b9942	-0.034081705
223	0x3bfede42	0.00777796
224	0xbd829fe6	-0.063781545
225	0xbdce7064	-0.100800306
226	0xbd952940	-0.072832584
227	0x3d8dda1d	0.069263674
228	0xbc8d5419	-0.017252015
229	0xbdcd2625	-0.10017041
230	0xbbdd0e50	-0.006746091
231	0xbce1a59e	-0.027544793
232	0xbd8d7a33	-0.06908073
233	0xbcbefb18	-0.02331309
234	0xbdb216c4	-0.086957484
235	0xbd8e989d	-0.069627024
236	0x3d08814c	0.033326432
237	0xbc459999	-0.012060546
238	0xbd820751	-0.06349052
239	0xbbcf1d95	-0.006320665
240	0xbd0ec18b	-0.034852546
241	0xbd228b70	-0.03968376
242	0x3be8d894	0.0071058962
243	0xbcdf3113	-0.02724508
244	0xbdbeeda9	-0.09322674
245	0xbd488a90	-0.04896027
246	0xbd653b3f	-0.055964705
247	0x3ad58b70	0.0016292166
248	0xbdcc4f19	-0.09976024
249	0x3d0085f8	0.031377763
250	0x3d3e6e8d	0.04649215
251	0xbccbe84c	-0.024891041
252	0x3b221212	0.002473001
253	0xbd81c0c0	-0.06335592
254	0x3c2b6862	0.0104618985
255	0xbcd18c8f	-0.025579719

bias_hh_l0 f4 [512]
0	0xbda9c71c	-0.0828993
1	0x3cd1c249	0.025605338
2	0x3cc4b2f1	0.024011107
3	0xbd8d46d0	-0.06898272
4	0xbdc97d20	-0.09838319
5	0x3d7248d4	0.059151486
6	0x3d84797a	0.06468482
7	0xbd5fee9d	-0.05467092
8	0x3db97a30	0.090565085
9	0xbce5a317	-0.028031869
10	0x3cc5ec65	0.024160573
11	0x3dc342c8	0.09534222
12	0xbd6b629c	-0.057467088
13	0x3ddb8fec	0.1072081
14	0x3bf9f95e	0.007628604
15	0xbd95bd7f	-0.07311534
16	0xbc9ca4ac	-0.01912149
17	0xbd7f4630	-0.062322795
18	0xbd6bd2b9	-0.057574008
19	0xbc8edb2e	-0.017438497
20	0x3cc175d9	0.023615764
21	0x3d3a8c07	0.045543697
22	0xbceae1a6	-0.02867205
23	0x3d477966	0.04869976
24	0xbd026dcf	-0.031843003
25	0x3ccc446a	0.024934966
26	0x3dc58cb1	0.096459754
27	0x3d7754ec	0.060383722
28	0xbdaa2e3f	-0.08309602
29	0xbd0cfc46	-0.034420274
30	0x3db18359	0.08667631
31	0xbca20f7e	-0.019782778
32	0x3d679f6d	0.056548525
33	0x3cb5ea5b	0.022206476
34	0xbd69639d	-0.056979764
35	0x3ce3f838	0.02782832
36	0x3c6cae41	0.014445842
37	0x3ca5524a	0.02018084
38	0xbd6d9033	-0.057998847
39	0xbc996a9b	-0.018727591
40	0x3d89e53e	0.067331776
41	0xbda43b6d	-0.08019147
42	0xbd6a18ac	-0.057152435
43	0xbdb6383b	-0.08897444
44	0x3d98e5d6	0.07465713
45	0x3bcf7872	0.006331497
46	0xbd57ae69	-0.052656565
47	0x3cdb5278	0.026772723
48	0xbc1ed676	-0.009694686
49	0x3dbaba9a	0.09117623
50	0x3ccef5d4	0.025263704
51	0x3cf6ef4d	0.030143404
52	0x3df1e4d4	0.118112236
53	0x3d94205a	0.07232733
54	0x3d752d7c	0.05985783
55	0x3c44c9c2	0.012010993
56	0xbd3a9d28	-0.045560032
57	0xbc7a5380	-0.015278697
58	0xbd327b0b	-0.043574374
59	0xbd596ff3	-0.05308528
60	0x3ca1f520	0.019770205
61	0x3cb1f704	0.021724232
62	0x3a0a4024	0.000527384
63	0x3d8be973	0.06831636
64	0xbcc14a9f	-0.023595152
65	0xbd3ef2ee	-0.046618395
66	0xbd2612bc	-0.04054521
67	0xbd36862a	-0.044561543
68	0xbdb70aa2	-0.08937575
69	0xbca9f370	-0.020745963
70	0xbd5ee3ea	-0.054416575
71	0x3d804bde	0.062644705
72	0xbd8958ba	-0.067063764
73	0x3d567741	0.052359823
74	0xbd5d70f7	-0.05406281
75	0x3db1ec03	0.08687594
76	0xbd803658	-0.06260365
77	0xbc1ae3f1	-0.0094537595
78	0xbdb84263	-0.08997037
79	0x3d43d706	0.047812484
80	0xbd8996c4	-0.067182094
81	0x3c120f94	0.008914847
82	0x3d5ca041	0.053863768
83	0x3d43edb2	0.047834106
84	0x3cf4ce76	0.029883604
85	0x3d048001	0.032348637
86	0x3d29609f	0.04135191
87	0x3b8143d9	0.0039448556
88	0x3daabb42	0.08336498
89	0x3ca7b919	0.020474004
90	0x3c950f30	0.018195719
91	0xbcd8a618	-0.026446387
92	0x3dd014de	0.1016023
93	0xbd3fa1ae	-0.04678505
94	0xbc14f6a7	-0.00909201
95	0x3daf53d7	0.08560913
96	0x3d5ca60e	0.0538693
97	0xbc2c9b6d	-0.010535103
98	0x3d2ab82e	0.041679554
99	0x3dae7421	0.085182436
100	0x3d050817	0.03247842
101	0xbd8b10e5	-0.06790332
102	0xbdb4de9d	-0.088315226
103	0x3d8a80a5	0.06762818
104	0xbd254194	-0.040345743
105	0x3d168bef	0.036754545
106	0xbda5fc8d	-0.08104811
107	0xbd74bb01	-0.059748653
108	0xbd928aa4	-0.0715535
109	0xbb8731b4	-0.004125798
110	0xbce6d196	-0.02817611
111	0xbcb1d9d9	-0.021710323
112	0x3d188086	0.037231945
113	0xbbbf9d99	-0.0058476445
114	0xbd5a03e3	-0.053226363
115	0x3c8433bb	0.016137948
116	0x3c8dab53	0.017293608
117	0x3d3b5587	0.045735862
118	0xbcfb2f3c	-0.030662172
119	0xbc5eaf92	-0.013591664
120	0x3d95f5e2	0.07322289
121	0x3db1675d	0.08662293
122	0x3d82491f	0.06361603
123	0x3cadad8f	0.021200923
124	0xbd2e9942	-0.042626627
125	0xbd805b2b	-0.06267389
126	0x3d90514a	0.07046755
127	0x3d4fb286	0.050707363
128	0xbc1d5a1f	-0.009604006
129	0x3d48030c	0.04883103
130	0xbc217592	-0.009854691
131	0x3cb181af	0.021668283
132	0xbb9474de	-0.004530533
133	0xbce1d6ed	-0.027568305
134	0xbd8e8ef3	-0.06960859
135	0x3d3bd886	0.04586079
136	0xbd577e49	-0.05261067
137	0x3d43a699	0.0477663
138	0x3d86608a	0.06561382
139	0xbdd6627d	-0.10468004
140	0x3cd4855f	0.025942503
141	0xbd50b1c5	-0.050950784
142	0x3d6d032f	0.057864364
143	0xbd92f60b	-0.07175835
144	0xbd994a1a	-0.07484837
145	0x3a31f948	0.000678916
146	0x3cfa5266	0.030556869
147	0x3d88d990	0.06682122
148	0xbdd69f9b	-0.10479661
149	0xbdca0883	-0.09864905
150	0xbd98590e	-0.07438861
151	0x3ca666a7	0.02031262
152	0xbd4ddefe	-0.05026149
153	0xbd42bc59	-0.047542904
154	0xbda8c5b1	-0.08240832
155	0x3d91f440	0.07126665
156	0xbd210d02	-0.039319046
157	0xbdbb429b	-0.09143563
158	0xbd7dfbed	-0.062007833
159	0xbcfb1281	-0.030648472
160	0xbd7abe01	-0.061216358
161	0xbd712325	-0.058871407
162	0xbd820373	-0.06348314
163	0x3cede25c	0.0290386
164	0xbcb24ad8	-0.021764204
165	0xbd1bcbdd	-0.038036216
166	0xbda1e0cb	-0.07904204
167	0xbd063400	-0.032764435
168	0x3b1b736b	0.0023719918
169	0x3d4c9d1f	0.04995453
170	0xbd3e9c26	-0.046535634
171	0x3c292b81	0.010325314
172	0xbe14d9fe	-0.14536282
173	0x3d293cdb	0.041317802
174	0xbc9618ea	-0.018322427
175	0xbd1f2d2a	-0.03886143
176	0xbcfbfae6	-0.030759286
177	0xbcecadda	-0.028891493
178	0xbda6e8a2	-0.0814984
179	0xbd28c272	-0.041201063
180	0xbdc5c9e8	-0.09657651
181	0xbbdec6ae	-0.006798587
182	0xbcecdf0f	-0.028914956
183	0x3c078eac	0.008273762
184	0x3d21a43c	0.039463267
185	0xbd3159ed	-0.04329865
186	0xbcc3743b	-0.023859134
187	0xbd8d0407	-0.06885534
188	0xbdb2af45	-0.08724836
189	0xbdc3c3ea	-0.09558852
190	0xbdb52a0f	-0.08845913
191	0xbd995006	-0.074859664
192	0xbd961587	-0.07328325
193	0x3d3a9d3f	0.045560118
194	0xbcba6c32	-0.02275667
195	0x3b182baa	0.0023219385
196	0x3cea1a80	0.02857709
197	0x3caff319	0.021478223
198	0x3d42f2bf	0.047594782
199	0xbcfbb006	-0.030723583
200	0xbd88f669	-0.06687624
201	0xbda0461b	-0.078258716
202	0x3c5d86df	0.013520925
203	0x3d22905e	0.03968846
204	0x3d648667	0.05579224
205	0xbda88409	-0.08228309
206	0xbd52cf7c	-0.051467404
207	0x3c8be679	0.017077671
208	0xbcc9ec37	-0.024648769
209	0xbdbdef01	-0.09274102
210	0x3d4aa6c9	0.049475465
211	0x3ccb0b26	0.02478559
212	0x3d3bd3c6	0.04585626
213	0xbd5490d2	-0.051895924
214	0xbd478703	-0.04871274
215	0x3ce2c98e	0.027684
216	0xbc9b3e81	-0.018950703
217	0x3b55609e	0.003255881
218	0xbd5e05fe	-0.054204933
219	0xbd3625b5	-0.044469554
220	0x3b1c3fbb	0.0023841697
221	0xbd1bc60f	-0.03803068
222	0xbd2ccb5e	-0.042186134
223	0xbd019801	-0.031639103
224	0xbdce5a61	-0.10075832
225	0xbcdfdec5	-0.027327904
226	0xbd6bb9cc	-0.057550237
227	0x3d5be186	0.053681873
228	0x3d3ac4f6	0.045597993
229	0xbbd15b9e	-0.0063890954
230	0xbd2340c9	-0.039856706
231	0xbda97601	-0.082744606
232	0xbd4cbe2b	-0.049986046
233	0xbdd4de3f	-0.103939526
234	0xbd2ddd80	-0.042447567
235	0x3c85a966	0.016316127
236	0xbdafc7fa	-0.085830644
237	0xbcbac81d	-0.0228005
238	0xbcd9f4ce	-0.02660599
239	0xbded7911	-0.11595357
240	0xbd247e37	-0.04015943
241	0xbdc55763	-0.09635808
242	0xbde45872	-0.11149682
243	0x3c3e5824	0.011617694
244	0x3d520c65	0.05128135
245	0xbd3207e2	-0.04346455
246	0x3c434464	0.011918161
247	0x3c2e41be	0.010635791
248	0xbdbf8d0d	-0.09353075
249	0xbd0e6375	-0.03476282
250	0xbc3b5f89	-0.011436352
251	0x3d2b2270	0.04178089
252	0x3bc97919	0.006148469
253	0x3d604fa8	0.054763466
254	0x3b6728bf	0.003527209
255	0xbd019cbc	-0.031643614

weight f4 [32, 128]
0	0xbbd31809	-0.006442074
1	0xbdb14319	-0.08655376
2	0xbb822c2b	-0.0039725504
3	0x3da7bf56	0.08190791
4	0x3b7647e2	0.0037579467
5	0x3d192051	0.037384335
6	0x3dba50ac	0.09097418
7	0xbd848fc4	-0.064727336
8	0xbba5ee2e	-0.0050637936
9	0xbd3ca1c5	-0.046052713
10	0x3d674b5b	0.05646835
11	0x3d8ea180	0.069643974
12	0xbdbad788	-0.091231406
13	0x3adb94a5	0.0016752674
14	0x3cb83e0e	0.022490527
15	0xbb906933	-0.004407072
16	0xbcd9ef11	-0.026603254
17	0xbdf14735	-0.1178116
18	0x3d9a9a34	0.07548943
19	0x3b87e8d6	0.0041476293
20	0xbc4eccb2	-0.012622045
21	0x3c5c07ab	0.013429563
22	0x3da80d78	0.08205694
23	0xbd4766fb	-0.048682194
24	0xbc5c832d	-0.013459009
25	0x3aa5fc03	0.0012663606
26	0x3dd58f66	0.10427742
27	0xbd2bedcb	-0.041974824
28	0xbbff710d	-0.007795459
29	0x3d4ca940	0.049966097
30	0xbd0b9d08	-0.034085304
31	0xbd2130fa	-0.03935335
32	0xbd15a8bd	-0.036537874
33	0xbcd68a32	-0.026188944
34	0x3b90067a	0.0043953033
35	0x3d1c2f31	0.038130943
36	0xbceca227	-0.028885914
37	0x3db684d5	0.089120544
38	0xbdcc95b6	-0.099894926
39	0xbd677c4a	-0.056515016
40	0xbdbe78ea	-0.09300406
41	0x3d32d6f4	0.043662027
42	0xbcf913f1	-0.030405017
43	0xbd118d38	-0.035535067
44	0xbdc39737	-0.09550326
45	0x3d9413ac	0.072303146
46	0x3c384f74	0.011249412
47	0x3d9eaa8b	0.07747372
48	0x3d05c749	0.032660756
49	0x3d28e807	0.041236904
50	0xbd2313d0	-0.039813817
51	0x3cc10351	0.023561152
52	0xbbde3d63	-0.00678222
53	0xbc8f7f9f	-0.01751691
54	0xbd4f3720	-0.05058968
55	0xbd442a7a	-0.04789207
56	0xbdb4317d	-0.08798502
57	0xbd2efac1	-0.042719606
58	0x3d12f84d	0.03588133
59	0x3d756ecd	0.05992012
60	0x3dda24f6	0.10651581
61	0xbdaf4534	-0.08558121
62	0x3c555829	0.013021507
63	0xbcc305c8	-0.023806468
64	0xbd90b621	-0.07065988
65	0xbb0cb4f4	-0.002147016
66	0x3dafa4f8	0.08576387
67	0xbccdd0c1	-0.025123956
68	0x3d9e2f8c	0.077239126
69	0xbd63e5ef	-0.055639204
70	0x3d4787df	0.04871356
71	0xbdc22222	-0.094791666
72	0xbdae90e6	-0.08523731
73	0xbde3ccf8	-0.11123079
74	0x3d79d0cb	0.060990136
75	0x3da79b33	0.08183899
76	0xbd8df831	-0.069321044
77	0xbdd79437	-0.105263166
78	0xbd38cc99	-0.045116995
79	0xbb43357a	-0.0029786513
80	0x3d55fd82	0.052243717
81	0xbd133998	-0.035943598
82	0xbca90989	-0.02063443
83	0xbd078bef	-0.033092435
84	0x3d1ba3bc	0.037997946
85	0xbdcc4826	-0.09974699
86	0x3cda4d0e	0.02664807
87	0x3cf41479	0.029794918
88	0xbd705bfd	-0.058681477
89	0xbd279d11	-0.040921275
90	0x3da12acf	0.07869493
91	0xbc0b402b	-0.008499186
92	0x3c614cbb	0.013751204
93	0xbcfafe52	-0.030638848
94	0x3ccab730	0.024745554
95	0x3c6f15de	0.014592616
96	0x3d2c4f16	0.04206761
97	0x3ce5568a	0.027995367
98	0xbd6380b8	-0.055542678
99	0xbd0bc510	-0.03412348
100	0xbd18e8c8	-0.037331372
101	0x3d9518c9	0.07280118
102	0xbca5dde6	-0.020247411
103	0x3c8b171b	0.016978791
104	0xbd069cd1	-0.032864396
105	0x3d31d0a0	0.04341185
106	0xbd2fed58	-0.042950958
107	0xbb979b4f	-0.0046266685
108	0xbd3930eb	-0.045212667
109	0x3c088f0b	0.008334885
110	0xbcd0a74f	-0.025470404
111	0x3cfc376f	0.030788152
112	0x3c8df07e	0.01732659
113	0x3dd81de8	0.10552579
114	0x3cdaabbf	0.026693223
115	0xbd33377e	-0.043754093
116	0xbd54d933	-0.05196495
117	0x3c88ede6	0.016715001
118	0x3d6ae302	0.057345398
119	0x3d8115e7	0.06303006
120	0xbcabb382	-0.02095962
121	0x3d6123c9	0.054965768
122	0xbdb517a5	-0.088424005
123	0xbdb38dc4	-0.08767274
124	0xbc5e6c49	-0.013575622
125	0xbd5a8975	-0.053353745
126	0xbd46de8c	-0.04855208
127	0xbd090377	-0.03345057
128	0xbbbf341f	-0.0058350707
129	0xbd8cbdbc	-0.068721265
130	0xbd177445	-0.036976118
131	0x3d91832a	0.07105096
132	0x3a517c09	0.00079912
133	0x3c4a167d	0.012334463
134	0xbc1f3a55	-0.009718497
135	0xbd25349a	-0.040333368
136	0xbb6596cd	-0.0035032511
137	0x3c27437f	0.010208963
138	0xbd21b88d	-0.039482642
139	0x3db10d75	0.08645145
140	0xbd33a520	-0.043858647
141	0x3ad6f6a5	0.001640041
142	0x3b2bf5d5	0.0026239057
143	0xbc0c1459	-0.008549773
144	0x3c8c39ca	0.0171174
145	0xbbf59596	-0.0074946387
146	0x3d1e1fbd	0.038604487
147	0x3c1c54a3	0.009541663
148	0xbda23951	-0.079210885
149	0x3ba66f54	0.0050791893
150	0x3d31a23b	0.043367606
151	0xbd28d1ad	-0.041215587
152	0x3d4e0256	0.050295196
153	0x3dafa41a	0.08576222
154	0x3caf1df8	0.021376595
155	0xbd75b108	-0.059983283
156	0x3d0bc045	0.03411891
157	0x3ca1b823	0.019741124
158	0x3d2a58e2	0.04158867
159	0x3d384aee	0.044993334
160	0xbd8019d8	-0.06254929
161	0x3c18f9f8	0.009336941
162	0xbc659679	-0.014012926
163	0xbdb27c55	-0.08715121
164	0x3d4291da	0.047502376
165	0x3d45e189	0.04831079
166	0xbd26cd10	-0.040722907
167	0xbd9ae04d	-0.07562313
168	0xbdc3e2c1	-0.09564734
169	0xbcf4e638	-0.029894933
170	0xbd11cbef	-0.035594877
171	0x3c6c1b70	0.0144108385
172	0x3c395ad2	0.011313157
173	0x3d9656b1	0.07340754
174	0xbdd107d1	-0.10206569
175	0x3d9b95e7	0.07596951
176	0x3d40ba3e	0.047052614
177	0xbd350208	-0.04419139
178	0x3cd6b6fe	0.026210304
179	0x3d74b9ba	0.059747435
180	0xbd05957f	-0.032613274
181	0xbdaf22ad	-0.08551536
182	0xbdb38a3d	-0.08766601
183	0xb9b93178	-0.00035322807
184	0x3c8c55bb	0.017130723
185	0xbd935cff	-0.07195472
186	0x3d179aa8	0.037012726
187	0xbd34993e	-0.044091456
188	0xbcc44bc4	-0.02396191
189	0x3d14e22d	0.03634851
190	0x3ceb5542	0.028727178
191	0x3d1d904a	0.038467683
192	0x3d1f7732	0.038932033
193	0xbd2ddf89	-0.042449508
194	0x3d6a707c	0.05723618
195	0x3d9095ac	0.07059798
196	0x3d8f09ef	0.069843166
197	0x3c95160a	0.018198986
198	0x3d8764f8	0.06611055
199	0xbd4b6ac3	-0.049662363
200	0xbcf422b6	-0.029801708
201	0xbd912f2c	-0.070890754
202	0x3ae9c4ae	0.0017835104
203	0x3d53e84b	0.051735204
204	0x3d582285	0.052767295
205	0xbdb3132e	-0.087438926
206	0x3d6cd392	0.057818957
207	0xbd9ae58b	-0.07563313
208	0x3c75ff71	0.015014515
209	0xbd88dae7	-0.06682377
210	0x3d81a9f1	0.06331242
211	0xbc959a4b	-0.01826205
212	0x3d6529bc	0.055948004
213	0x3c8994f7	0.016794665
214	0x3b2fa9ff	0.0026804206
215	0x3d2189c0	0.03943801
216	0xbacdc4f7	-0.0015698959
217	0x3ccd9f7e	0.025100466
218	0x3d89962f	0.06718098
219	0xbda8f5a6	-0.08249979
220	0xbc4eab85	-0.012614136
221	0xbd9ca4aa	-0.07648595
222	0xbd73eb49	-0.059550557
223	0x3d625363	0.055255305
224	0x3c33739c	0.010952856
225	0x3cb31389	0.021859901
226	0xbd03e342	-0.03219915
227	0xbd8e4203	-0.069461845
228	0xbd6cd9ed	-0.057825018
229	0x3d7d6f2a	0.061873592
230	0xbd47567f	-0.048666473
231	0x3ca6ce04	0.020361908
232	0xbd47b73f	-0.04875874
233	0x3d580ab2	0.052744575
234	0xbd1622dd	-0.036654342
235	0xbdc15753	-0.09440484
236	0xbccbe3b9	-0.02488886
237	0x3d280aea	0.041026033
238	0xbb05b9d5	-0.0020404954
239	0xbd56d151	-0.052445713
240	0xbc5e4059	-0.013565146
241	0x3da4488b	0.08021649
242	0xbc0f1ab1	-0.008734391
243	0xbdd72d8d	-0.10506735
244	0xbd3a7e40	-0.045530558
245	0xbd08f3e3	-0.033435713
246	0xbcae8de9	-0.021307902
247	0xbcc8fce8	-0.024534658
248	0x3d3ffcb5	0.04687186
249	0xbc500cd8	-0.012698375
250	0xbcd9b4b9	-0.026575433
251	0xbda96df4	-0.08272925
252	0x3da92cf3	0.082605265
253	0x3d0cef1e	0.034407727
254	0x3da209f1	0.079120524
255	0x3ccf7d76	0.02532838

bias f4 [32]
0	0x3d126a50	0.03574592
1	0x3c4266c5	0.0118653225
2	0xbc5dcf1d	-0.013538149
3	0xbd19e43a	-0.03757117
4	0x3bf83b1b	0.0075754053
5	0xbb5cbab5	-0.0033680622
6	0x3cea4047	0.028595103
7	0x3d6b0667	0.057379153
8	0x3c9aa914	0.01887945
9	0x3d0ee7c4	0.034888998
10	0x3d8e4287	0.06946283
11	0xbe396510	-0.18104959
12	0xbd388c29	-0.045055542
13	0xbc85575e	-0.016277011
14	0xbd5e7209	-0.05430797
15	0xbe01a49c	-0.1266045
16	0x3cc460db	0.023971966
17	0x3d510cd3	0.05103762
18	0xbe3f11b6	-0.186591
19	0x3db446ce	0.088025674
20	0x3d0eb7be	0.0348432
21	0x3cde64ca	0.02714767
22	0x3c8482a1	0.01617557
23	0xbd918212	-0.07104887
24	0x3d870725	0.065931596
25	0xbc800fe4	-0.015632577
26	0x3ceb5810	0.028728515
27	0x3c87895e	0.016544994
28	0x3c721ffb	0.014778133
29	0x3d1a6a3e	0.037698977
30	0xbc6cde36	-0.014457276
31	0x3dc42ba2	0.09578635

weight f4 [1, 32]
0	0xbd394e88	-0.04524091
1	0xbdac8e7b	-0.084256135
2	0x3d4af237	0.0495474
3	0x3d6dd0ab	0.05806033
4	0xbdc71c46	-0.097221896
5	0x3d7865af	0.060643848
6	0xbde128bf	-0.109941
7	0xbd6ebc8f	-0.058285292
8	0xbd2b7f0b	-0.041869204
9	0xbd6a77c2	-0.057243116
10	0x3cacd448	0.021097317
11	0xbd7460de	-0.059662692
12	0x3d8a98f8	0.06767458
13	0x3cbf30c1	0.023338677
14	0xbdc99685	-0.098431624
15	0x3db37bf9	0.0876388
16	0xbdb89bc3	-0.09014084
17	0xbd4ec28b	-0.0504785
18	0xbd8d7c54	-0.06908479
19	0xbc58847f	-0.013215183
20	0x3d94f814	0.0727388
21	0x3d7152cb	0.05891685
22	0x3daa6631	0.08320273
23	0x3d20707f	0.039169785
24	0x3cb3eddb	0.021964004
25	0x3d34d20a	0.04414562
26	0xbcfeedf6	-0.031119328
27	0xbdcd00b9	-0.100099035
28	0x3da9da39	0.08293576
29	0xbd48fe45	-0.049070615
30	0x3d4cb18f	0.04997402
31	0x3ca97649	0.020686286
