data/Huron/miHuron_meta.pt (torch, 338353 bytes, 7 tensors)

weight_ih_l0 f4 [512, 24]
00000000: 0be0 29bb 7c9d b3bd bda2 a73d 7c84 05bd
00000010: d4b8 dabc 3d5a 343b def8 02bd 474b 903d
00000020: eb45 57bd 0b13 263d 1763 5cbd cd35 a8bd
00000030: 1b5c 2dbc 8a4f 123d 22f6 67bd c79e 0dbd
00000040: 04f6 78bc 7aa9 373d 18da 8f3d bde2 113d
00000050: 4757 8c3d 0bd5 b43d e6f1 50bd 3104 8f3d
00000060: fedc 5bbd bf0a 61bd 0d5b c83c 907d a43d
00000070: a311 6f3d 919e d13d 1e71 a33d 6f7e 05bd
00000080: ebf9 1f3d 82d6 8e3c 3190 36ba aa7d 973c
00000090: 4fef 933d 49a5 bcbc f6ae 09bd 592a a43d
000000a0: 924f 65bd d162 6b3c 7f73 343d 65c2 b73c
000000b0: 3a0b 10bd e7ac 63bc bb13 2f3d fe7d b93d
000000c0: d0bd b13c e38f 5cbd 902f f6bc 9305 05bc
000000d0: cddd f23c 2339 9ebb de9a 26bd 09f1 4ebd
000000e0: c467 5f3d 4cdb bcbb 56a7 7fbc 7a96 90bd
000000f0: 759a 7b3d 5cd3 09bd fb81 45bd 2878 893d
00000100: 03bd bcbc be82 a93c 3311 0c3d d29a 95bd
00000110: e497 483d ab1f 4bbc 5498 cd3a 1be7 45bd
00000120: b2b4 863d 94af f13c 102d 05bc 222f 583d
00000130: 6c8f 6abc 5ec5 f23c 9dcc 373d b8d9 81bd
00000140: 5aa6 973d e302 abbd 0832 953d aa6c a53d
00000150: 3044 8a3d 3f1e a2bd 341e 9a3d d82d 3f3d
00000160: 7fff 1e3d cba9 aabd b3cc 933d 4c54 e2bc
00000170: 6771 9dbc 0bf5 803c 9aaf 52bd 0d3c df3c
00000180: 3a25 983d dd7f a4bd e662 f23c e713 123d
00000190: 01d3 aabc cde0 60ba b322 22bd cd5b 493c
000001a0: f538 ea3c 60c3 7cbd 5eb9 35bd cf07 e53b
000001b0: a675 cd3c f070 613d 1e9e a4bc bc07 efbc
000001c0: a746 b43b 6e93 a03c 44ab b5bd b7fa 243d
000001d0: dddf 94bd b489 7e3b 01eb 2b3d 09d1 cebc
000001e0: 94ec 413d f491 37bd 388c 77bd 26a7 c0bd
000001f0: 9b8f 8fbd 2c7e 98bd 7e36 babd adfc 9c3b
00000200: 21dd d5bd 0097 bbbd 14f0 87bd 3cba b4bd
00000210: c1df 1fbd 7f92 b0bb 69e3 8cbd da5f e03c
00000220: 54f2 ef3c ea59 80bd 2501 9cbd f82a 5d3d
00000230: 9867 9b3c a196 64bc e2f1 c6bd 3b8a fb3b
00000240: daf8 213d b2e4 81bd 4740 923d caa8 d03c
00000250: 28a0 b0bb 29a4 163c f630 533d 6af4 0fbd
00000260: 0f77 563d c5cf 81bc 91c9 a6bd f1b9 a1bc
00000270: bc48 693d d746 80bd 66e5 3f3d 0700 7dbd
00000280: 2010 d3bc ef57 09bd 4791 e1bc a599 513d
00000290: c69f 473c 6c61 7b3d fc9c 773d c8b7 8abc
000002a0: 04e3 b0bd 3551 70bd 0017 93bd 0f59 503d
000002b0: 8223 0f3c e047 92bd 464c aabb 630d a9bc
000002c0: aef1 fe3c 3507 3dbc fec7 063d cdc7 263c
000002d0: f134 95bd 3150 b5bd 9cdc ab3d 107c a4bd
000002e0: e2fe 363d df2e 88bd e0d3 85bd 6abb e63c
000002f0: d91e e73a a8af fe3b 07d0 b4bd 782b 9d3d
00000300: 48ae 2b3c 671a 7fbd b16e 8bbc 4c59 423c
00000310: 8b57 623d f1d8 903d 71f9 8d3c 4c80 7f3d
00000320: 95a3 603d d32c 34bc 0e89 9e3d 1a15 53bd
00000330: 6939 51bd 6d63 da3c 660c 4e3b 1fc5 8f3d
00000340: ab14 88bd 9b82 53bd 1a27 773c 7212 933d
00000350: 9d13 4b3d b0bb 9abd 7cd4 413d 502d ae3d
00000360: a6d4 5dbc 6a63 00bc 5364 6cbd e058 a7bd
00000370: f7a9 033c c4fa 293d 79a5 b63c 4e2e bb3d
00000380: 46e3 1bbb 63cc d0ba 22e8 86bb 0e31 473d
00000390: 82c1 b03d badb c738 8ed9 99bd 9854 8fbd
000003a0: 97d6 11bd 4d6c 443d b6d0 b63d 02e0 40bd
000003b0: 81c6 90bd 4490 143b a057 5dbd 3d43 89bd
000003c0: fa86 80bd 223e 73bc 89f4 c6bc abb0 633c
000003d0: d35b dd3b c444 febb a40b 983c 0ace a13d
000003e0: 1d2b 70bd 65c7 b63b a48e c93c d146 a8bd
000003f0: d84b 69bd d16e 78bd 5369 4e3d 32f0 a83c
-0.0025920894 -0.08770272 0.08185337 -0.03259705 -0.026699461 0.0027519607 -0.03197562 0.07045608
-0.052556913 0.040545505 -0.053805437 -0.08213387 -0.010581042 0.035720386 -0.056631215 -0.03457525
-0.015195373 0.04483936 0.0702402 0.035616625 0.06852584 0.08829697 -0.051011942 0.06983221
-0.05367755 -0.05494189 0.024457479 0.08031762 0.05836643 0.10235322 0.0798056 -0.03259128
0.0390567 0.01743627 -0.0006964235 0.018492538 0.07223379 -0.023028033 -0.03361412 0.0801589
-0.055984087 0.014366821 0.04405546 0.022431562 -0.035166956 -0.013896204 0.042743426 0.09057234
0.021696955 -0.05384816 -0.030051976 -0.008119005 0.029646778 -0.0048285886 -0.040675037 -0.050522838
0.054542318 -0.005763447 -0.015603861 -0.07059951 0.0614266 -0.033648834 -0.048219662 0.06712371
-0.023039347 0.020692226 0.03419609 -0.0730492 0.04897298 -0.012397687 0.0015685656 -0.048316102
0.06577434 0.029502667 -0.0081284195 0.052779324 -0.014316421 0.029635128 0.04487287 -0.06340355
0.07404776 -0.0835016 0.07284933 0.08077367 0.06751287 -0.07915925 0.07525292 0.04667458
0.03881788 -0.08333167 0.07216778 -0.027628087 -0.019219114 0.015741846 -0.051436998 0.027250314
0.074289754 -0.080322005 0.029588174 0.03566351 -0.020852568 -0.000857842 -0.039583873 0.012289953
0.028591612 -0.06170976 -0.044366233 0.0069894562 0.025080513 0.055039346 -0.020094927 -0.029178493
0.0055015865 0.01960155 -0.08870557 0.040278163 -0.07269261 0.0038839402 0.041972164 -0.02524616
0.04734476 -0.044816926 -0.060436457 -0.09406881 -0.070098124 -0.074459404 -0.09092425 0.0047908635
-0.104425676 -0.0915966 -0.06637588 -0.08824584 -0.039031748 -0.0053885574 -0.068793125 0.027389456
0.029290356 -0.0626715 -0.07617406 0.053996056 0.018970296 -0.013951928 -0.09714104 0.0076763905
0.039543964 -0.06342448 0.07141166 0.02547111 -0.005390186 0.009194412 0.051560365 -0.0351452
0.052359637 -0.015846143 -0.081439145 -0.019741984 0.05695413 -0.06263512 0.04684963 -0.061767604
-0.025764525 -0.033531126 -0.027535094 0.051171917 0.012184089 0.061372206 0.060452446 -0.016933337
-0.0863705 -0.058671195 -0.07182121 0.050866183 0.008736493 -0.07142615 -0.005197081 -0.020636266
0.031121101 -0.011537363 0.03290557 0.010179472 -0.072854884 -0.08853186 0.08391687 -0.080314755
0.04467667 -0.06649565 -0.065345526 0.028165538 0.0017633095 0.0077724047 -0.088287406 0.07674307
0.010478564 -0.06228104 -0.017020555 0.01186211 0.05525927 0.07072628 0.017330857 0.062378213
0.054843504 -0.010997015 0.07740985 -0.051533796 -0.05108014 0.026658738 0.0031440496 0.0702002
-0.06644567 -0.051638227 0.015085006 0.071812525 0.04957925 -0.0755533 0.04732178 0.085047364
-0.013539469 -0.007836202 -0.057712864 -0.081712484 0.008036128 0.041498914 0.0222957 0.09139691
-0.0023786589 -0.0015930053 -0.004117028 0.048630767 0.08630659 9.529987e-05 -0.075121984 -0.06998557
-0.03560504 0.047954846 0.08926527 -0.04708863 -0.070691116 0.0022668997 -0.054038644 -0.06702278
-0.06275745 -0.014846357 -0.024286525 0.013897101 0.006755331 -0.0077596623 0.018560238 0.07900627
-0.058634866 0.005577969 0.02460415 -0.08216632 -0.056957096 -0.060652558 0.050393414 0.020622347

weight_hh_l0 f4 [512, 128]
00000000: d4b8 96bd c1e4 5d3c 6ae3 05bd cdec 27bc
00000010: 8a64 b1bd 1aa7 49bd 0ee3 bfbb f237 283d
00000020: 7dea f53c 0a87 953d 3823 7b3d d14a 63bd
00000030: c8a8 a9bd 24d1 8d3d 2e04 283d adab 8e3d
00000040: 0816 b4bd f032 0a3d 3c95 4fbd 7ada 3dbd
00000050: 2123 a23c d92b 17bb 9a87 75bd 5209 abbc
00000060: aa59 cfbb 43fd db3c 8709 8d3d 9e25 e33c
00000070: ec37 b5bd 0b3e f43c 011e cb3c 78fc 2b3d
00000080: 0681 e43c aae2 fb3c f4ee 193d 941e d03c
00000090: 128a dd3c b9d6 9c3c 3343 6f3d 152c 2c3d
000000a0: 43a2 dabd 2fa0 863d 2928 663d a442 e93c
000000b0: a73e 28bd c8bd 673d 40d7 38bd d722 e83c
000000c0: 080c d83d da2c 543c dc51 61bd 4a90 64bc
000000d0: d15b 7ebb 2bca 9c3d 2a7c 673d 86db 1abc
000000e0: 87f9 d4bd a514 b33d be64 53bd a432 c83c
000000f0: dd35 653d b7f9 083d 3b94 75bc 0ec2 873d
00000100: 3caa 973d 354d af3d 3b2f 4abd 6bd6 643c
00000110: 6f9c b0bb 2a94 46bd e5ad 253d f211 85bd
00000120: 1f51 83bd d8a4 a53c 31c7 39bd b342 953d
00000130: 3f49 38bd 46b2 883d 1195 9abc e0d6 393d
00000140: 133e 2cbd e36a b63c 8d0b 4abd e20c 51bd
00000150: f7d1 dfbb cd2c 62bd 7462 96bd f4ce 1abd
00000160: f7e6 483d ab58 853d 4996 653d feca ef3c
00000170: 85e0 2f3d b8ca b7bc ce63 ecbc 0087 7d3d
00000180: 8860 553d 25c9 d03d aa75 38bc 2358 4a3d
00000190: 30d3 ef3c 9a4a 61bd 1254 a1bd 1e1b b3bc
000001a0: cc5d 943d 7328 42bd 09ef 8ebd 8504 933d
000001b0: 1d92 96bc eb75 d13d fef6 19bd 6177 323d
000001c0: 2b79 063d 8b5b 073c e824 023d 0030 94bd
000001d0: 62c8 353b 7415 9fbd 33c3 11bd 9499 813d
000001e0: b3bb 7cbc e9c5 4c3d efc4 e0bd 0b08 b0bb
000001f0: 3bef d7bc 9972 ec3c 1a35 803d 055d 6ebc
00000200: 1e0d c03d b8d4 573d f9c7 16bd 0298 ca3d
00000210: aee1 4cbb a1f7 a5bc d594 92bd 6009 63bd
00000220: ab7f b63c 8c27 18bd 2695 aabc 2114 2b3d
00000230: 7736 ee3c e0f1 7fbd 79c1 babc 7215 123b
00000240: 1d0a bb3d 09a7 ac3c 5f91 a1bd 41b1 55bd
00000250: 58d3 8c3d 64ad abbc ad29 ecbc 8d9e 80b8
00000260: 921d 20bb 0960 6bbd 18d0 61bd 5723 643d
00000270: 7911 f23b 6e8d ea3b 5757 a2bd 0fa7 9b3d
00000280: 0641 dc3c 5c90 9e3b 2b55 9fbd 58b9 51bd
00000290: 3f88 0d3b eff2 90bd 73fc 8d3d 1b8c 77bd
000002a0: 3a8f 1a3d 0025 b7bd 3e41 55bc b015 9ebd
000002b0: e0d4 983d 853c 4fbd e030 eebc b9ff 833c
000002c0: 835e 81bd da09 b93d c101 1dbd 6fa6 abbd
000002d0: 6dff 9bbb f3ca d1bc 56f2 d43c 0f57 f23c
000002e0: aaba b2bc a453 a13c 399f c03d a77e 19bd
000002f0: 49fe 673d 0935 1abd 727c 20bd 5cbf 16bd
00000300: 4b5b 163d aa31 153d 1520 95bd 9cd2 10bd
00000310: 9558 b2bd 8e13 ebbc 878e 88bc 41e7 28bd
00000320: d44b 913d 6f28 bbbd bbdc c93d 01e1 163c
00000330: e967 3f3d b64a 743d 4fc5 e03b 2dcc ec3b
00000340: 4723 3bbc 189d 323d 1a84 d53c 2936 b23c
00000350: 4f72 a7bd be9d 8a3d 26cc 26bd d40f 843c
00000360: 02f8 55bd 804c fd3c 33ec 683d 42ea 43bd
00000370: 8361 a33d d3d4 f6bc 2014 a33d 57ba 253d
00000380: f306 8ebd f933 53bc 6f9b a6bd 4b1c 963c
00000390: 1713 a63c 7870 533c 5c72 14bd f273 3c3c
000003a0: f703 acbc 251e 783c a01d 72bd ddf3 b5bc
000003b0: 75c3 573c 43e2 023b a721 4ebd c17e a33b
000003c0: 2446 98bd 1084 2c3d 899a 9abd 2df2 a4bc
000003d0: a918 833c a8df d2bc 8ec7 1c3d 1625 82bd
000003e0: 77a5 0d3c 736f 55bd 298b 613b 4b8d e0bd
000003f0: 1745 9dbd 6da7 483c 18ff 1ebd f613 3bbd
-0.07359472 0.013543309 -0.032687582 -0.010249329 -0.086617544 -0.049231626 -0.0058559244 0.04106898
0.03001904 0.07301147 0.061312884 -0.055491272 -0.082841456 0.06924656 0.04101961 0.06966338
-0.087932646 0.033739984 -0.05067943 -0.046350934 0.019792141 -0.0023066907 -0.059943773 -0.020878468
-0.0063278275 0.026854163 0.06886583 0.027727898 -0.08848557 0.02981474 0.02479458 0.04198882
0.027893554 0.03074773 0.0375814 0.025405206 0.027043376 0.019145356 0.058413696 0.042034227
-0.1067548 0.06573521 0.056190643 0.02847416 -0.041075375 0.056577474 -0.045127153 0.028336925
0.1054917 0.012950147 -0.055009708 -0.013950417 -0.003881205 0.07655748 0.056514896 -0.0094517525
-0.10399156 0.08744172 -0.051609747 0.02443821 0.05595957 0.03344127 -0.014988954 0.0662881
0.074055165 0.08559648 -0.04936145 0.013967137 -0.005389742 -0.048481144 0.040449042 -0.064975634
-0.06411957 0.020220205 -0.04535598 0.072881125 -0.044991728 0.06674628 -0.018869909 0.045370936
-0.042051386 0.022267764 -0.049327422 -0.051037677 -0.0068304497 -0.055218507 -0.07342997 -0.037795022
0.04904839 0.06511053 0.056051526 0.029271599 0.042938728 -0.022435531 -0.028856184 0.061896324
0.052094012 0.10194615 -0.011258522 0.04940046 0.029275507 -0.055002786 -0.07877363 -0.021863516
0.07244453 -0.047401857 -0.06979186 0.071785964 -0.01838022 0.10227569 -0.037589066 0.04357088
0.0328304 0.008261572 0.031773478 -0.07235718 0.0027737846 -0.07767764 -0.035586547 0.06328121
-0.01542561 0.04999343 -0.10975062 -0.0053720525 -0.026359191 0.028863238 0.06260128 -0.014548545
0.09377502 0.0526931 -0.036811803 0.098922744 -0.0031262445 -0.02025968 -0.07157294 -0.055428863
0.022277674 -0.03714709 -0.020823073 0.041767243 0.029078705 -0.06248653 -0.022797333 0.0022290614
0.09132788 0.021075742 -0.078890555 -0.052170996 0.06876248 -0.020956703 -0.028828466 -6.133048e-05
-0.0024431688 -0.057464633 -0.055130094 0.055697765 0.007387337 0.007157973 -0.07926815 0.07600223
0.026886474 0.0048389863 -0.077799164 -0.05120215 0.0021596102 -0.07077586 0.069329165 -0.06043635
0.037734248 -0.08942604 -0.013016043 -0.0771898 0.07462478 -0.050594825 -0.02907604 0.016113149
-0.06316855 0.09035082 -0.03833175 -0.08381354 -0.0047606737 -0.025609469 0.025994461 0.029582528
-0.021817524 0.019693203 0.09405369 -0.0374743 0.05663899 -0.037648235 -0.03918118 -0.03680359
0.036708158 0.036424316 -0.0728151 -0.035357103 -0.08708302 -0.028695848 -0.016669525 -0.041236166
0.07094541 -0.091385715 0.09856554 0.009208919 0.046729956 0.059641562 0.0068594585 0.007226488
-0.011421985 0.043606848 0.026063967 0.021754341 -0.081760995 0.06768368 -0.040722035 0.016120829
-0.05223847 0.030920267 0.056865882 -0.047830828 0.07977583 -0.03013078 0.07962823 0.04046091
-0.06934919 -0.012890809 -0.08135115 0.018324038 0.020272775 0.012905233 -0.036241874 0.011502253
-0.020997984 0.015143906 -0.059110284 -0.02221101 0.013169159 0.0019971288 -0.050325062 0.0049894755
-0.07435253 0.042118132 -0.075490065 -0.02013501 0.01600297 -0.025741413 0.038276248 -0.0635473
0.008645407 -0.05210824 0.0034415221 -0.109644495 -0.076791935 0.012246949 -0.038817495 -0.045673333

bias_ih_l0 f4 [512]
00000000: b8ae 313c a079 a0bd 0cb1 303d d5b8 f4bc
00000010: ac4c dc3b 065f b0bd 643d cf3d 7f76 843d
00000020: 5477 81bc 58a9 2bbd cf98 bebd c270 b83d
00000030: 5bad a03d c657 0abd 88ea 0fbd 0df5 d2bc
00000040: 31df 413d ab68 97bc 6f4a 60bd 7fc8 af3d
00000050: 8d64 b53b d855 3c3d 99d3 6ebd 3ffe 93bd
00000060: b435 2d3d 15a4 1cbd b850 373c 3a18 06bd
00000070: 67ba 9dbd 0d9e fb3c 9e32 5cbd a52a 3abd
00000080: 9e33 95bc b0fe a33d 9ff2 d93c 2aff 62bc
00000090: 5c2b 73bd 0a00 dabc 402d 0a3d 381f e53c
000000a0: d015 b63d 8369 b2bc ddd2 883d b5b0 813d
000000b0: 6169 053a f358 013d 53a8 00ba 2d5c 77bd
000000c0: 3fab 54bc 77ab ba3d 5af3 df3c f04c 80bd
000000d0: 60c8 833b d137 a43d cf0e ba3c a8de 953d
000000e0: ae99 723d 58b0 9cbc 4615 8e3d 6de1 aebd
000000f0: c1f6 e7bb d452 8ebc cb75 20bd 4333 31bd
00000100: 2305 913c 5bcf a23d 3366 af3d bbfb ad3d
00000110: ac26 e2bc b2fb 70bc f2eb abbc 5a7c 5cbd
00000120: 43fe 463d 1078 863d 3256 94bb 4340 3d3d
00000130: 0396 6dbc 5f33 c63c c55d 543d 0c00 b1bd
00000140: 6aa9 6e3d bf34 913d f84f a13d b675 32bc
00000150: a1fa 343d e706 933b d533 cabc 468a 7e3d
00000160: 1fd4 77bd 7f3e 9a3c b590 c7bc a04f 85bd
00000170: bdfa c93d 3f85 39bb 9ea6 aa3d a721 783d
00000180: 859a 1c3d b3c9 8a3d 056d 963d 2414 1e3d
00000190: fb37 313c eb2d 82bb d215 03bd 4eb9 8cbd
000001a0: a260 5bbd 531a 373d ae19 b33d 083c 073d
000001b0: 3274 01bd fe55 9cbb 23a8 a93d 4c2e 59bb
000001c0: b506 6dbd 3ce0 713d 8774 d33d f0c2 abbd
000001d0: 7f79 c33c 571a aa3c 3895 833c d512 d83c
000001e0: 250b a83c cbda 93bd ba86 013d f0d4 86bc
000001f0: 36dd 0ebc 98e8 243d b206 ad3d be0a 92bc
00000200: f1a2 693c 9f90 5d3d c04b bcbd 34b3 8abc
00000210: fedb 69bd a14f fe3b 5efb cabd 498d c0bd
00000220: 62c9 0dbd 9abc 9abd dccf 593d 5a65 aebc
00000230: 555a 883d a150 e4bd 77bf 5e3d b354 debd
00000240: 47b7 8e3c f271 dfbc 55cf e63a fec0 d2bd
00000250: 510e debd 5bf8 983c b367 e7bd 3382 003d
00000260: ea64 5bbb e9ae 8ebc 1f49 7e3d 2843 493d
00000270: 9050 0a3c 93cd 313d b284 2abd a476 aebd
00000280: 67e4 4bbd 5af7 2ebd 7f89 92bd 1b3d 29bc
00000290: b67d 573a baba bcbd 6eef 503d 7a9b d4bd
000002a0: f514 833c 48dc 97bd 1c09 d9bd 290b f1ba
000002b0: 99a0 1ebc aecb abbd 7b14 29bc 9d90 f4bd
000002c0: d8b2 d0bc 0ad1 2d3d fe3c acbb 4241 d2bd
000002d0: b309 e5bd 89e6 59bd fdcf e1bd d804 2bbd
000002e0: c8b5 87bc de4d bbbd 95b2 503d 7403 323b
000002f0: 2410 e7bd e288 c0bd 3340 263d aba2 3fbd
00000300: 92ed 24bd 04ae cebd c71b 443d f623 26bd
00000310: afcd 85bd 84f7 aabd 549e 9d3b ad9a 5e3d
00000320: 2ef9 103d 95ea 0ebd 31e8 debd 8df9 c3bc
00000330: b9ce 26bc a1c8 4abd 5b72 8bbd b252 703d
00000340: 5931 a9bd ebb8 0bbc f509 f5bc e579 a8bd
00000350: 4fb9 153d 2a99 67bd 163b 4e3d c3c7 87bd
00000360: d669 543d 7382 b93c 04ef 343d b8d8 a5bd
00000370: c872 9abc 41e5 39bd 0ab1 89bd 3d57 b9bd
00000380: eaa8 00be 9882 babd 81c8 9abd dcce 01bd
00000390: 9b3b 8dbd 3e24 babd bbab c23c bf08 1ebd
000003a0: dc85 1fbd 9134 e0bb 08f3 9cbb 9f34 71bd
000003b0: 2b36 8fbb 78c4 9e3d 5265 cbbd cff7 bebc
000003c0: 239c cb3b f8bd 5a3c 6835 213c 9894 693c
000003d0: 2051 0ebd e3b1 7fbd 409e b9bc 2eba adbd
000003e0: e430 99bc d677 62bc c2d6 f73c ad3b 3ebd
000003f0: 1298 88bd 0910 afbd 2a35 fabd c149 d2bd
0.010844879 -0.07835698 0.043137595 -0.029873291 0.006723007 -0.08611874 0.10119131 0.06467914
-0.01580397 -0.041909546 -0.0930649 0.09005882 0.07845565 -0.033775114 -0.035135776 -0.025751615
0.047331993 -0.018482527 -0.054758485 0.085831635 0.005535668 0.045980304 -0.058307264 -0.07226228
0.042287543 -0.03824242 0.011188678 -0.032737948 -0.07701569 0.030715013 -0.05375921 -0.045450825
-0.01821309 0.08007562 0.026604949 -0.013854781 -0.059367523 -0.026611347 0.03373456 0.027968988
0.08890879 -0.021778828 0.06680844 0.06332532 0.000508925 0.03157897 -0.0004907895 -0.06039064
-0.012980281 0.091147356 0.027337719 -0.06264675 0.0040216893 0.08018459 0.02271214 0.07317859
0.05922859 -0.019127056 0.06937651 -0.0853909 -0.007078976 -0.01737348 -0.039174836 -0.043261778
0.017702645 0.07949706 0.08564415 0.084952794 -0.02760633 -0.014708446 -0.02098653 -0.05382953
0.048582327 0.06565869 -0.004526877 0.046203863 -0.014501098 0.024194418 0.051847238 -0.08642587
0.058267035 0.07090139 0.07876581 -0.010892322 0.04418433 0.004486907 -0.024682919 0.062143587
-0.06050503 0.018828629 -0.024360994 -0.06509328 0.09862278 -0.002830818 0.08332561 0.06057897
0.0382333 0.06776752 0.073450126 0.038593426 0.010816569 -0.003972759 -0.03200323 -0.068712816
-0.053558953 0.04470284 0.087451324 0.033016235 -0.031604953 -0.0047709933 0.08284023 -0.0033139167
-0.057867724 0.059051737 0.1032496 -0.08386791 0.023861645 0.020764513 0.016062364 0.026376167
0.020513127 -0.07219466 0.031622626 -0.016458958 -0.008719733 0.04026088 0.08448543 -0.017827388
0.01426004 0.054093 -0.09194136 -0.016931154 -0.057094567 0.0077609573 -0.09911226 -0.09401948
-0.03461588 -0.07555504 0.053176746 -0.021288563 0.066578545 -0.11148191 0.054381814 -0.10855999
0.017421378 -0.027276013 0.0017609397 -0.102907166 -0.108425744 0.018673113 -0.11299076 0.031374168
-0.0033476898 -0.017417388 0.062081452 0.04913631 0.008442059 0.04340894 -0.041630454 -0.08518723
-0.04977837 -0.04271636 -0.071551315 -0.01032951 0.00082203315 -0.09215303 0.051009588 -0.10381217
0.016001204 -0.07415062 -0.105974406 -0.0018390167 -0.009681844 -0.08388458 -0.010319824 -0.11941645
-0.025475904 0.042435683 -0.0052562943 -0.10266353 -0.111834906 -0.05319837 -0.11025999 -0.041752666
-0.016566172 -0.09145711 0.05095156 0.0027162703 -0.112823755 -0.09401108 0.04058857 -0.04678599
-0.040265627 -0.100917846 0.047878053 -0.04056164 -0.06533372 -0.08347991 0.004810134 0.05434673
0.035393886 -0.034891684 -0.10884131 -0.023922706 -0.010181122 -0.04950774 -0.06808921 0.058672614
-0.082613654 -0.008527975 -0.029911974 -0.082263745 0.036553677 -0.056542553 0.050349317 -0.066298984
0.051858746 0.02264521 0.044173256 -0.080979764 -0.01885356 -0.04538465 -0.06723221 -0.090498425
-0.12564436 -0.0910694 -0.07557774 -0.031691417 -0.068961345 -0.09088944 0.023763528 -0.03858256
-0.038946018 -0.006842204 -0.004789714 -0.058888074 -0.004370471 0.07752317 -0.09931435 -0.023311524
0.0062136813 0.013350956 0.009839393 0.014256619 -0.034745336 -0.062425505 -0.022658467 -0.084827766
-0.01870007 -0.013822516 0.030253772 -0.04644363 -0.0666963 -0.0854798 -0.122171715 -0.10267974

bias_hh_l0 f4 [512]
00000000: b5b5 fabc b7a6 1bbd 87cd b33c 6d6b 59bd
00000010: a5d7 f8bd 7e2d 61bd 1fea 913d d9ab b33d
00000020: 7532 fcbc af96 63bb 485a 8fbd 35cb 3dbd
00000030: a338 9d3d f4b5 c3bd 79df 94bd a554 0fbc
00000040: 10eb be3a 953c 753d 82fb 953d fae2 6f3c
00000050: 56c4 2a3c 2f00 5f3d ecde 4cbd e13e 99bd
00000060: 82b8 3b3d 942a d8bc e437 b9ba b915 8d3d
00000070: bb71 8a3d b456 9ebd 8837 a83d 3e34 b3bb
00000080: 2a87 63bd fcb6 eb3c e555 bdbc e965 363d
00000090: 0351 c3bd 7761 4d3d 512d 08bd 24a1 34bd
000000a0: 3d1a 843d f578 073e e14a 9fbc 1673 23bc
000000b0: 8e44 5fbd 5a00 483d 398b 8dbc 66ed 663d
000000c0: 7607 a83d 71d4 933c 3559 3ebb f485 90bb
000000d0: 9592 acbc 0b55 2f3d 897b 33bc df4e 58bd
000000e0: 6c86 c73c 9ba9 943b fea2 6b3d 5a91 5c3d
000000f0: 59d2 933d f6a4 6f3d 778e 1dbd 855a 7fbd
00000100: 1dbd 85bd 9c2e a3bc 0a32 573d 2051 9ebd
00000110: 6418 9c3d 24bb c63c 23f4 b63d b7c7 f2bc
00000120: b195 95bc b316 983d 773e 6f3d f99b b63d
00000130: 22ce 3c3d 8310 9ebd 3f0c 443d 70b9 6cbd
00000140: abe5 ad3d cfe7 1f3a 771e 423d e9c6 b4bc
00000150: 58b6 363d 4088 633d c60a d5bc 80f4 23bd
00000160: 3deb b23d 03c1 8ebc e53b a83d 2a22 0d3b
00000170: 7390 6fbd 56ec 03bd 0821 90bd 1cd8 9dbb
00000180: 75be afbc 787a 97bd b3a2 20bd 4d3c 9fbd
00000190: 27a2 023c 7d8b 8f3c 8577 c33d 861c 763c
000001a0: e0d9 68ba 39b8 b53d 430e 1b3c d282 b7bd
000001b0: e15e 82bc 5583 463d 1b88 b53d 4cab 42bd
000001c0: 47e0 1ebd 5412 e0bc 0428 fbbc c8a4 3c3b
000001d0: a79a 9b3d c490 1b3c 180b 213d 15b9 373d
000001e0: ee62 343d 2df2 2cbd ef3a 5dbd d698 833c
000001f0: ca54 39bc b683 2aba ccbb a23d f52e babd
00000200: 515b a2bd 04cf 63bc e007 e03b d31f 63bd
00000210: 8c38 88bc ca17 f5bc 0c87 aebc ffc7 cebd
00000220: be6f 8a3d 9b94 53bd 5227 51bd b7c3 95bd
00000230: c692 803d e862 ed3c 1202 d1bd a048 4d3d
00000240: a69a 563d 19ae b1bd 0927 febc 1de7 133d
00000250: 2ba5 e23c 8e64 23bd 250d e53c b7e1 e0bc
00000260: 1a52 f1bc f592 0e3d 09b2 1b3d 2318 043d
00000270: 6b8e 83bd 74b6 3bbd 1f34 be3c caae 89bd
00000280: 6b69 3cbd bad3 3e3b 7d75 263d 5f16 743d
00000290: 37a4 543d 18da 4dbd 20ab b1bd e961 513c
000002a0: 371b 1b3d d388 283c 9df4 13bd b2ac 1f3d
000002b0: 0e05 29bd 29c6 cfbc a483 e3bc b4d9 5d3c
000002c0: 0d2e 133b 972d 07bd fd02 a23c cb07 10bd
000002d0: 129b d8bc 40eb b93c 9ac8 1c3d 3fee 9bbd
000002e0: 55b6 cdbd 8a6a 973b 10b1 01bd c50d c23c
000002f0: d025 d53c c093 ccbd 69d9 363d c94c 3a3d
00000300: 7d3f 8b3d 9c53 8dbd acff a8bd 49f8 93bc
00000310: 502f 39bd e1e9 12bd 78e9 b6bc 2352 babc
00000320: 6360 953d 2cc7 01bc a78f d3bd 6206 afbd
00000330: 4417 f83c 1ef2 f43c 5acf e4bb c755 99bd
00000340: 1e34 d7bd b6b9 bbbd 4889 98b7 8387 343d
00000350: 529b 983c b51b 7dbd 9002 66bd 35a3 25bd
00000360: 9dce 5d3d 4ce3 9d3b c312 a4bd 2ca1 123d
00000370: 1f77 aebd be9a 4ebd 7844 cbbd 0c86 3fbc
00000380: 5124 793c 8739 293d 741f 543c 6e28 40bd
00000390: 84ec c5bd 4454 00be 7a9a 093d 65d1 103c
000003a0: d6bd bcbd 0fa3 a5bd bf66 b6bd c5c6 a5bd
000003b0: c59f 3dbd 7098 6d3d 2b64 b8bd 9f2f 983b
000003c0: 69b2 8bbd 61d9 c33b 3677 72bd e4e7 b8bd
000003d0: d3dd 203d 1a33 f1bd 115d 403d a687 c93c
000003e0: da12 c3bd e56e adbd a147 d2bd fa20 3c3d
000003f0: 60c2 2ebc b9a4 1f3d 3a77 5cbd 9428 533d
-0.030604223 -0.03800079 0.021948589 -0.053080965 -0.12150506 -0.054975025 0.07124733 0.08773012
-0.030785779 -0.0034727266 -0.06999642 -0.04633637 0.07676818 -0.09556189 -0.072691865 -0.008748208
0.0014565904 0.05987223 0.07323362 0.014641518 0.010422787 0.054443534 -0.050017282 -0.07482696
0.045830257 -0.02638749 -0.0014131037 0.06888909 0.067599736 -0.07731381 0.08213717 -0.0054688742
-0.055548824 0.028773777 -0.023112247 0.044530783 -0.09536936 0.050141778 -0.033246342 -0.04409899
0.06450317 0.13229735 -0.019444885 -0.009976169 -0.05450874 0.04882846 -0.0172783 0.056378745
0.08204548 0.018045636 -0.002904487 -0.0044104997 -0.02106599 0.042805713 -0.010954746 -0.052809592
0.02435609 0.00453682 0.05752849 0.053849556 0.07217855 0.05850693 -0.038465943 -0.062342186
-0.06530211 -0.019919686 0.052537955 -0.07730317 0.0762184 0.024259157 0.08933284 -0.029636247
-0.018259855 0.074262045 0.05840918 0.08916468 0.04609502 -0.07717993 0.04786324 -0.057794034
0.08491071 0.0006099911 0.047392335 -0.022067504 0.04460749 0.05554986 -0.026006114 -0.040028095
0.087362744 -0.01742602 0.08214549 0.0021535256 -0.058487367 -0.03220781 -0.0703755 -0.004817022
-0.021453122 -0.07396406 -0.039217662 -0.07775173 0.00797323 0.017522568 0.09544281 0.015021449
-0.00088825636 0.08873028 0.0094638495 -0.08960499 -0.015914382 0.04846509 0.08863851 -0.047526643
-0.038788106 -0.02735249 -0.03065873 0.002878474 0.07597857 0.009494964 0.03931722 0.044854242
0.04403966 -0.042223144 -0.05401128 0.016064089 -0.011311719 -0.0006504612 0.07945976 -0.090909876
-0.079275735 -0.013904337 0.0068368763 -0.05545027 -0.016628526 -0.02991857 -0.02130463 -0.1009674
0.067595944 -0.051655393 -0.05106289 -0.0731272 0.06277995 0.028977826 -0.10205473 0.05011809
0.052393578 -0.086757846 -0.031024473 0.03610908 0.027666649 -0.03989082 0.02796037 -0.02745138
-0.029458094 0.034808118 0.038011584 0.03224958 -0.064236484 -0.045828298 0.023218213 -0.067227915
-0.045998972 0.0029117898 0.04063939 0.059591647 0.05191442 -0.05025682 -0.08675218 0.012779691
0.03786775 0.010286528 -0.036121953 0.038983054 -0.041264586 -0.025363045 -0.027772732 0.013540674
0.0022457868 -0.033002462 0.019776816 -0.035163682 -0.02644113 0.022695184 0.038277246 -0.07613801
-0.10044543 0.0046208547 -0.031663 0.023688206 0.026019007 -0.099891186 0.044640932 0.045483384
0.06799219 -0.06900713 -0.082518905 -0.018062728 -0.045211136 -0.035867576 -0.022328123 -0.022744244
0.07293775 -0.007921021 -0.10330134 -0.08546139 0.030284531 0.029900607 -0.006982726 -0.07487064
-0.105079874 -0.09166281 -1.8183739e-05 0.044074547 0.01862875 -0.061794 -0.056154788 -0.04043885
0.05415212 0.0048183557 -0.08011391 0.035798237 -0.08518814 -0.050440542 -0.09925169 -0.011689674
0.015206412 0.041314628 0.012946952 -0.046913557 -0.096642524 -0.12532145 0.033594586 0.008838986
-0.09215896 -0.080877416 -0.08906316 -0.08094553 -0.046294946 0.058006704 -0.090034805 0.0046443488
-0.068211384 0.0059768413 -0.05919572 -0.090286046 0.039274048 -0.11777325 0.046963755 0.024600815
-0.0952508 -0.08468417 -0.102675684 0.045929886 -0.01066646 0.03897545 -0.05382464 0.05155237

weight f4 [32, 128]
00000000: 6bf4 e8bb 8eb1 30bd 0f8c c03d 871c 413b
00000010: cb94 21bd 13f3 efbd b11c 1b3c 6dd7 1c3b
00000020: acae da3b 79d2 9ebc f45b 00bd 26de d0bc
00000030: af97 42bd 613e b3bc a7d7 da3d ac32 daba
00000040: d1c3 033d 179f 213d 2161 893d 185d f73b
00000050: 7d6d 153d 4278 d7bc a845 51bc ed9d 743d
00000060: f9d9 81bc c73a 1b3d 497f eb3c 0b1f f83c
00000070: e6ec 5cba b89c d33c cb60 20bd e082 48bd
00000080: 6071 d1ba e916 d8bb d1a0 59bc ea4d 3cbc
00000090: 2012 0f3d ef60 7fbd 0a43 f03c 235c 8cbd
000000a0: 1e88 8e3b ecfb 433c 4d0d b8bb 9989 863d
000000b0: e76c 8bbd 9070 2fbd 6659 f3bc 00f3 d83c
000000c0: 5bdc 56bd e420 2c3d c446 c03d 918b 9ebd
000000d0: 526b 053d f5a1 013d 8bf1 b43c e196 5d3d
000000e0: 2750 433d 4b7d 483c fc3d 7fbd e7ff 723d
000000f0: 76a9 8c3d 50a1 88bb 00b4 afbc ccb3 36bd
00000100: 14b5 833c ceea 99bc 7a15 7bbd ea75 c63d
00000110: c12a 1e3d a38d 0d3d 2f46 df3c f296 33bd
00000120: 0732 c23c 5a7e 6dbd a80a 9d3d 5c61 2b3d
00000130: c473 b83c 3774 43bd 3b6f 513d a1ec 44bd
00000140: 984f 8c3d ebf6 9bbc bd6f 843b e828 20bd
00000150: 1e55 53bb 15a8 3fbc bf6f fdb9 1ab8 97ba
00000160: 2235 7b3d 516c ea3c 8e18 2cbd 4ce5 c5bc
00000170: 7063 9bbc 9776 4f3d f123 5d3c f72c 92bd
00000180: d18d 90bc b866 773c bf42 85bd 9d37 633c
00000190: d9f3 0ebd 265f 493d 3f63 1e3d 21dc 85bc
000001a0: 3e1a a8bd 5cbe a93c 592b e33b e5be d2bc
000001b0: d352 47bc a7fd 12bd f387 f03b 0fe1 8b3d
000001c0: b984 143d 7cc3 553d 0b77 03bc 6269 79bd
000001d0: 642e 723c ac8f 7abc 939b 1e3c 5390 95bd
000001e0: a5b0 c4bb da8b 9f3d 5ddb e53c da52 9fbb
000001f0: 0e65 fabc a66e a13c bf88 533d 977a adbc
00000200: a59b 2e3e 44b2 a4bd 7a17 753d d1bd 1d3e
00000210: 18c6 153d fb93 babd f8f9 16bd b41e d4bb
00000220: 7862 3a3d 5678 c2bd f0d8 40bd 51aa 99bd
00000230: d1a8 ba3d 0b4a 03bd 274d 073d 5e09 6e3d
00000240: 4c0b 1cba 975b d5bc dc9d c4bc 4eed 173c
00000250: 76a1 adbd 3dd1 1cbe 24c4 0d3e 9bc3 973d
00000260: fa5b 5abd f8dc c43d a7e4 a6ba 4421 ec3c
00000270: e8b0 f83d 50e8 853d a2bc 01bd d126 d0bd
00000280: 02a2 cb3d 9ca3 9bbd 7d80 d6bd 3d8c 763d
00000290: 2102 7c3d 9782 adbd 8d84 f6bd d6ae 51be
000002a0: 9b18 823d dc7b dbbd 3eab e23d b5e3 0a39
000002b0: 54c8 f43a 365b 53bd 089d ba3d b60c 903d
000002c0: a63a f8bd 857e bd3d 105e a93c b1ea eebc
000002d0: 9ee4 d23d 777f b6bd 426f a03d 351a 91bc
000002e0: 8f96 e43d 29e3 3cbd 84af 133c abd2 013e
000002f0: 930a e6bc ddbb 07bd ea76 b7bc b2c8 d23b
00000300: 6f98 14bd b117 90bc bf82 07be 828b 3f3e
00000310: 869a 8e3c bff6 863d 4deb 55bd 6e8f ae3d
00000320: 61a7 96bd 0f8a 9abb 6330 33bc df84 443d
00000330: 460f a93d dfd9 32be f93a 6dbd 05b9 9cbd
00000340: 6d4f 893d ef6a 0f3c 0806 4b3d edef dcbd
00000350: 1c60 24bc be75 fdbb 9ba9 5ebd db15 d33d
00000360: fa74 cf3c 7331 c2bd 4e19 8dbc de76 58bc
00000370: 5d27 153c ec87 27bd fc80 96bd 98b6 1dbe
00000380: f07e 2cbd b5b4 28be 19d1 a7bc f915 17bd
00000390: 4c80 07be 8c52 7f3d 8ac4 c33d bbc9 073e
000003a0: 7db3 5f3c a334 0e3d cc18 003c 0591 d93c
000003b0: 94b5 683d 1bf2 be3c c889 003c 8ecc 943d
000003c0: aedb b3bd d9dd c43b fc5d 163d cd85 f3bc
000003d0: b9ad 643d be60 95ba bcc7 71bc 1d64 dbbd
000003e0: 6c66 193d 183b 213e 3485 063e fe97 fabd
000003f0: 5dec 88bc a81b 96bd 5dcd 223d 24a3 3ebd
-0.007109215 -0.04313808 0.09401714 0.0029466467 -0.03944854 -0.117162846 0.00946729 0.0023932115
0.0066736545 -0.01938747 -0.031337693 -0.025496554 -0.047507938 -0.02188033 0.10685664 -0.0016647181
0.032169167 0.03945836 0.06707979 0.0075489394 0.03648137 -0.02630246 -0.012772955 0.059720922
-0.015851008 0.03789785 0.028747218 0.03028824 -0.00084276346 0.025831565 -0.03915481 -0.048952937
-0.0015979223 -0.006594528 -0.0132829705 -0.011493186 0.034929395 -0.062348302 0.029328842 -0.06853511
0.0043497225 0.011961918 -0.00561682 0.065692134 -0.06807881 -0.042831957 -0.029705714 0.026483059
-0.05245624 0.042023554 0.093884975 -0.07741464 0.03257305 0.031648595 0.022087833 0.054098967
0.04768386 0.012236903 -0.062314972 0.05932608 0.068682596 -0.0041696206 -0.021448135 -0.04460506
0.016077556 -0.018788721 -0.06129978 0.09690459 0.038614992 0.034558903 0.027255146 -0.043845125
0.023705496 -0.057981826 0.07668048 0.041840896 0.022516139 -0.047718253 0.05113147 -0.04807723
0.06851119 -0.019038638 0.0040416406 -0.03910151 -0.0032246779 -0.011697789 -0.00048339178 -0.0011575252
0.06132997 0.028616102 -0.042015605 -0.024157189 -0.018968314 0.050650205 0.013497339 -0.071374826
-0.017645748 0.015100174 -0.065068714 0.01386824 -0.03490052 0.049163006 0.038668867 -0.016340317
-0.0820813 0.020720653 0.0069326577 -0.025725791 -0.012165743 -0.035886433 0.007340425 0.06830036
0.036259387 0.05218838 -0.0080239875 -0.060891517 0.014781568 -0.015293043 0.0096806465 -0.07302918
-0.006002503 0.077903464 0.028058702 -0.0048621716 -0.030565765 0.019706082 0.051644083 -0.02117662
0.17051561 -0.08041814 0.059836842 0.1540444 0.03656587 -0.09110256 -0.036859483 -0.0064733867
0.045504063 -0.094956085 -0.047081888 -0.075031884 0.091142304 -0.032053035 0.033032563 0.058114402
-0.0005952611 -0.02604465 -0.024001054 0.009272886 -0.08478062 -0.15314193 0.13844353 0.07410356
-0.053310372 0.09612459 -0.0012732939 0.028824456 0.12143117 0.06538451 -0.031674035 -0.10163654
0.0994301 -0.075995654 -0.10473726 0.060192335 0.061525468 -0.08472174 -0.12037001 -0.20476851
0.06352349 -0.10716984 0.11067818 0.00013245533 0.0018675425 -0.051600657 0.091119826 0.070336744
-0.12120561 0.09252647 0.020674735 -0.029164644 0.102975115 -0.08911031 0.07833721 -0.017712692
0.11161529 -0.046115074 0.009014014 0.1267802 -0.028081214 -0.033138145 -0.02239557 0.006432616
-0.036278185 -0.017589422 -0.1323347 0.18705562 0.017407667 0.06590032 -0.052226353 0.08523451
-0.07356144 -0.004716165 -0.010936829 0.04797828 0.08254866 -0.17465924 -0.05791757 -0.07652477
0.067046024 0.008753522 0.0495663 -0.1078795 -0.01003268 -0.007734983 -0.054360967 0.10306903
0.025324333 -0.09482088 -0.01722398 -0.013211934 0.009103623 -0.04090111 -0.073488206 -0.15401685
-0.042113245 -0.16475184 -0.020485448 -0.03688619 -0.13232535 0.062334582 0.09558971 0.13260548
0.013653633 0.034718167 0.007818412 0.026558409 0.05681379 0.023308804 0.00784535 0.07265578
-0.08782135 0.0060078916 0.036710724 -0.029726887 0.055829737 -0.0011396629 -0.014757093 -0.107124545
0.037451193 0.15745199 0.1313675 -0.122360215 -0.01671427 -0.07329494 0.03974663 -0.0465423

bias f4 [32]
00000000: 9b67 033d 6101 02be 4315 303d bf6d 5c3b
00000010: 1458 49be 581a 8cbc d0ae 0c3d 3ba1 063d
00000020: a312 d13d e130 bd3c 4bad 0cbc b021 f53d
00000030: f328 8c3d b723 483d 9011 d73c 441f 113d
00000040: 037d 103d a69f 1a3d d796 ab3c b778 913c
00000050: 7ea3 8d3d 6e7e 89bc 0581 093d 4bb6 81bb
00000060: ce86 0ebe 83fe 1c3c a731 533d cd7d e73d
00000070: e118 57bb bcf2 aa3d d26b 2d3c 3cec 2d3d
0.032081228 -0.12695839 0.042989027 0.003363475 -0.19662505 -0.017102405 0.0343464 0.032868605
0.10208633 0.023094596 -0.008586238 0.11969316 0.06843748 0.048862185 0.026253492 0.035430208
0.03527547 0.03774991 0.02094595 0.017757757 0.06915949 -0.01678392 0.03357031 -0.0039584986
-0.13918611 0.009582165 0.051561024 0.113032915 -0.0032821225 0.08347079 0.010584788 0.04246162

weight f4 [1, 32]
00000000: 973f cebd 2662 7abd 8a71 903c b7f9 acbd
00000010: 55be 263e 1ed1 af3d 840b b93c 908e 8a3d
00000020: c569 b73b 3429 8ebd 15aa b9bd b34c cf3b
00000030: 114d 32bd 38ea b6bc c976 733d 5f43 703d
00000040: 9a2c b73d 66df b23c 8fd8 10bd 8d82 ac3c
00000050: d4a0 76bc 8f03 773d d9c5 2e3d 2b74 b23d
00000060: 046c b7bb bfe6 3c3d f82c e5bc ab5c 19bc
00000070: 86fd 82bd 60db 30bc 9a64 473d 6b46 d73c
-0.100707226 -0.061128758 0.017632265 -0.08446067 0.16283543 0.08584808 0.022588499 0.06765473
0.0055973255 -0.069414526 -0.09065644 0.006326282 -0.043530528 -0.022328481 0.059439454 0.058658
0.08944054 0.02183504 -0.035362776 0.021058345 -0.015052993 0.060306128 0.04266915 0.087135635
-0.0055975933 0.046118494 -0.027975544 -0.009360473 -0.06396012 -0.010794491 0.048679926 0.026278695
