data/Huron/miHuron_lstm.pt (torch, 338417 bytes, 7 tensors)

weight_ih_l0 f4 [512, 24]
00000000: ea2f 74bd e285 c3bc c449 a8bc 37e8 713d
00000010: 5454 b63c 25d8 a23c f8cc bfbd a943 bfbd
00000020: bafa 313c 9e19 f13c 9bd1 d5bc 6c79 803d
00000030: c3cb 94bd 275d aabd f83d 0a3d 0a7e 673d
00000040: 3e91 7ebd c857 dcbc e8eb abbd 7a94 aabd
00000050: c9b3 89bd 4be1 803d 05b3 cdbd 2531 5cbc
00000060: 62e6 973c 4709 80bd a808 a2bd b84a 8dbc
00000070: cf12 00bd cc61 b0bd 8734 c2ba 156e 78bd
00000080: b5a5 b7ba f1fe c8bd fda0 cabd ad48 22bc
00000090: c216 103d 84ef 0f3d f3dd 63bd cd16 9fbd
000000a0: a89f 593d fca6 3e3d 1143 e33c d99d a03c
000000b0: db0b 263d d65f 5a3d 9da8 753d 4c01 b8bd
000000c0: 3ec3 a6bd c653 a23d 5b62 29bd 2a1f 753d
000000d0: b974 70bd 490b 4bbc cc0f 8bbd 84c9 b73c
000000e0: e59a 4d3d 7916 6cbc 02b1 603d 82ba 3fbd
000000f0: 795f 5fbd d8b6 ddbb dc07 f43c 9f5f b13c
00000100: b3d3 1b3d c1d1 333d 82be 30bd cf17 e9bc
00000110: db7a a5bd 95c9 a73d 107d e8ba f82f 43bd
00000120: 294a 97bc cedf b13c d0c6 9cbd 84f4 b4bd
00000130: 6095 a23d 8b03 a83d 525c 9c3d 9a9c 64bd
00000140: 97a2 12bd adaa a5bd 90d4 a73b d5e5 23bd
00000150: b083 5eba 2641 8b3d 0cbb 953d 7616 15bd
00000160: c7c2 5dbd c039 96bd f40b a23d 87e7 a93d
00000170: f492 8bbd 1be3 2fbc cbee 673d 3d43 a4b9
00000180: 4eeb 3d3d 6568 c5bd c0b9 06bc ea02 263d
00000190: 14a5 203d f09b 133d 17cc d43c 8dac 173d
000001a0: c4ad a4bc 4b66 723d b73a 523c f81b 83bc
000001b0: 3cae 75bd e37c b3bd 9964 ab3c 4624 6d3d
000001c0: dbee d63c 8153 713c 2256 c93b 67df c0bd
000001d0: aebc 333d 492a 82bd 6394 ae3c 62c7 c3bd
000001e0: db37 3abd af64 a03d efd8 93bc cd58 97bd
000001f0: 83d2 fdbb 5425 9b3d c2ca 98bd 0028 6cbd
00000200: bc9a d93c 836e c3bc 71d5 7cbc 9b41 973d
00000210: 452f b93d f33a 60bd 99b8 99bc cfbd d7bc
00000220: 872a 5bbd dc9d 2cbc a769 813d ae81 243d
00000230: 02ca 573c 0714 1bbd 62cf 80bd 57b2 edbc
00000240: 27fc 5c3c 71fc 183d 106b 31bd 2250 19bd
00000250: fb35 4f3c 4e07 c9bc dc21 643c 3866 e3bc
00000260: 547f 933d fce2 c0bc cf9e b4bd 43dc d4bb
00000270: 0ed2 20ba 826c 3a3d 0017 7bbd 0316 81bd
00000280: a096 513d 60b1 b0bd fdb7 9b3d 4baa 583c
00000290: 0250 ee3c 1af1 08bd c436 a73d 81f8 80bd
000002a0: 735c a03d c8ff 573d b88e 11bd 923d b3bb
000002b0: d9a8 74bd 0369 a23d 90cc 543d 7450 a1bd
000002c0: 8c5f 9939 0b85 953d a288 71bd fade 1a3d
000002d0: 521f afbb 4bb9 b33d 970f 883c 59ef 64bd
000002e0: f7de 41bd 9320 9cbc 6827 9bbd 81e9 243d
000002f0: 529e 4d3c 2bb2 8c3d 3941 1bbd 9763 883a
00000300: 7061 ae3d d6ad 883d 9d4a b13b 8604 a33d
00000310: c82d 673d e7bc 093d 4e0b aebd e818 043d
00000320: db2c 3bbd fc94 38bd 42f0 8cbc 8ba5 633d
00000330: 1e48 a0bd 7a62 6f3c 2d66 8fbd f23f 863d
00000340: 834e 45bd 72f3 173d eaf3 b53b b887 683d
00000350: a43f b1bd 821c b83d 7c8a cbbc 1bbe a0bc
00000360: 8cbf 2e3d d221 ec3c 33e0 21bd 0370 733d
00000370: 2e2c 2ebd 8d15 503d 2e31 acbd 634f b5bc
00000380: 014d 8cbd 8335 b9bd 8fc2 8a3d a98d a8bd
00000390: 5041 c8bb ca3c 07bd 3465 cd3c d920 c8bd
000003a0: e23b cfbb 1fa6 c2bd 684a 633d 512d 933d
000003b0: 4a9a ccbd 8ab4 973c 1c4b cd3c 9b70 07bc
000003c0: 3742 8fbd d0c5 f33c 47e5 b03d 8784 74bd
000003d0: bf35 823d 40f9 e7bc 1119 74bc 57f0 bb3c
000003e0: a336 363d 6681 4dbc 274c 3a3c d095 8dbb
000003f0: 9191 9f3d f1fa 94bd 1f9d 4fbd af66 a03c
-0.059616007 -0.023867551 -0.020542987 0.059059348 0.022257008 0.019878456 -0.093652666 -0.09339077
0.0108630005 0.02943116 -0.026100924 0.062731594 -0.07265427 -0.08318549 0.033750504 0.056516685
-0.062150232 -0.026897326 -0.08394605 -0.08329101 -0.067237444 0.06292971 -0.10043911 -0.013439451
0.018542472 -0.062517695 -0.07911807 -0.017247543 -0.031267937 -0.08612403 -0.001481668 -0.060651857
-0.0014011177 -0.09814251 -0.09893987 -0.009905023 0.035177954 0.03514053 -0.05563159 -0.07768021
0.053130776 0.046545967 0.02774194 0.019606518 0.04053865 0.053314053 0.059975255 -0.08984622
-0.08142708 0.07926135 -0.041353565 0.059844173 -0.058705065 -0.012392827 -0.067901224 0.022434957
0.050196547 -0.014409655 0.054856308 -0.046808727 -0.05453441 -0.0067661814 0.029788904 0.021652041
0.03804369 0.04390121 -0.043150432 -0.028453736 -0.080800734 0.081927456 -0.0017737467 -0.04765317
-0.01846798 0.021713164 -0.07655108 -0.088357 0.07938647 0.08203801 0.07634796 -0.05581341
-0.03579959 -0.080891944 0.005121775 -0.040014107 -0.0008488251 0.067995355 0.07311067 -0.036398374
-0.054140832 -0.07335234 0.07912436 0.082961135 -0.068151385 -0.0107352985 0.056624215 -0.00031330614
0.046366982 -0.09639052 -0.008222997 0.040530123 0.03921993 0.036037385 0.025976224 0.03702979
-0.02010239 0.059179585 0.0128313815 -0.016004547 -0.059980616 -0.087640546 0.020921992 0.05789592
0.026236942 0.014729382 0.006144301 -0.094176106 0.04388111 -0.063557215 0.02131099 -0.09559514
-0.045463424 0.07831704 -0.018047778 -0.07389984 -0.007746042 0.07575479 -0.07460548 -0.057655334
0.02656304 -0.023856407 -0.015431748 0.0738556 0.09042219 -0.05474372 -0.01876478 -0.026335625
-0.053507354 -0.0105356835 0.0631898 0.040162735 0.013170721 -0.037860896 -0.06289555 -0.029015703
0.013487852 0.037350122 -0.043314993 -0.037429936 0.012647147 -0.024539616 0.013924088 -0.027758703
0.0720202 -0.023545735 -0.08819353 -0.006495984 -0.0006134816 0.045513637 -0.06130123 -0.063030265
0.051169038 -0.086275816 0.07603452 0.013224195 0.029090885 -0.033433057 0.081647426 -0.06297398
0.07830133 0.052734166 -0.035536498 -0.0054699862 -0.05973134 0.07930186 0.0519529 -0.07876673
0.00029253622 0.073007666 -0.058968194 0.037810303 -0.00534431 0.08775576 0.016608996 -0.055892322
-0.047331776 -0.019058501 -0.075758755 0.04026175 0.012549954 0.0686992 -0.037903998 0.0010405657
0.085146785 0.066737816 0.005410506 0.07959847 0.056440145 0.033627417 -0.0849825 0.032250315
-0.045697074 -0.045063958 -0.017204408 0.055577796 -0.07826255 0.014610881 -0.0700191 0.06555165
-0.048170578 0.037097402 0.0055527585 0.056770056 -0.086547166 0.089898124 -0.024846308 -0.0196219
0.042663142 0.02882472 -0.039520454 0.059432995 -0.0425226 0.050801802 -0.08407818 -0.022132581
-0.06850625 -0.0904341 0.0677539 -0.082301445 -0.0061113015 -0.033016957 0.025072671 -0.0977189
-0.0063242773 -0.09504341 0.05549088 0.07186378 -0.09990366 0.018518705 0.025060229 -0.008266593
-0.06995051 0.02975741 0.08637481 -0.0596967 0.063579075 -0.028317094 -0.014898554 0.022941751
0.0444857 -0.012543058 0.011370695 -0.0043208376 0.077914365 -0.07274426 -0.05068695 0.019580213

weight_hh_l0 f4 [512, 128]
00000000: ed7e 903d 7d5b f03c 5038 633d d966 afbd
00000010: f894 8abd 007e cf3c dea6 853c f9ec aa3d
00000020: b88c 4cbb 5a0c 533d a07f ccbc e772 5a3d
00000030: b24f a93d 3923 f33c 2764 f33c 4857 9d3d
00000040: d50a 7a3d 671a ddbc 686a 373c 61a2 9e3d
00000050: 7a8d 6f3d 149a acbc bbd1 8bbd 074a a7bc
00000060: 5996 293c bc6b 9dbb 9d86 563d b662 883d
00000070: d3ae 34bd 4a89 69bd 6a7e 03bd 9067 91bd
00000080: ee2b 17bd dbd9 30bc cabb 31bd 7735 9c3d
00000090: 4598 17bd e567 9b3d a951 9b3c a73c df3b
000000a0: 2753 763c 17ac 123c 7de4 433d 411e 723d
000000b0: f818 88bd c5a7 00bb 86bf a23d ddc8 14bb
000000c0: 5539 2abd 8bac 9dbd 958d f03c c8fb a6bd
000000d0: 3fab e0bc a708 2f3d 0c83 9ebd 39a1 913d
000000e0: 96ef d0bd 67e3 373c f447 1bbd 6bda 55bd
000000f0: 587c b13d bde9 8f3d 2103 953c 83db 153c
00000100: 566a a03d 45cc 5fbb b102 81bd 4e09 80bd
00000110: ca74 903d 7afb 52bd 485e acbc d662 4a3b
00000120: a32f e1bc 2519 0d3d 59b1 c7bb 84a4 a23d
00000130: 22a6 033d 6fb9 063c b768 563c 5002 98bc
00000140: 9949 c73d e41d aebd e3b8 a73b 7a6a c23d
00000150: 222a fc3c ad81 8c3d 958d 073d 3264 1a3d
00000160: 11ca fdbb f969 82bd ee33 4abd 5108 c33d
00000170: 9e99 863d ea31 e5bc 5c53 11bd b162 90bd
00000180: 5053 a0bd 1003 b73d b3f8 3dbd 85e9 af3d
00000190: 2911 52bc 47d8 bcbc 14d1 f73b 7fd8 953d
000001a0: 1044 903c 4fe2 c1bd d72d 9cbd 413e 88bd
000001b0: b4e9 c83c 7515 23bd 2733 0b3d 514f bc3d
000001c0: 129d 9fbd 9187 54bc 59da 383d 0032 16bd
000001d0: b33a a23d 9d21 fabc 8ebf 943d ef65 8abd
000001e0: 6061 1739 7926 b33c be55 6e3d 4e70 503d
000001f0: e397 653d 68bf a0bd 0e9d 593d 20e2 853d
00000200: f8ae 1ebd 47f1 9a3d 167c b73c ec8b 243d
00000210: b365 0cbd b0c9 493c 11b1 9cbd 5554 81bd
00000220: d9b4 b73d 65a9 9fbd 848e ac3d 523d b0bd
00000230: 8013 73bd 5a70 4ebc b092 fbbc 3b91 473d
00000240: 8e88 a5bd 874a 48bd 0412 6cbd 8917 ddbc
00000250: 5842 2b3d c161 83bc 95f6 ae3d f846 e33c
00000260: b605 24bd 7d3e a63c 9882 80bd 2b00 93bd
00000270: 303b 50bd b766 b13d 38a1 abbd a24c 2b3c
00000280: b5a4 173c bf5b 9e3d 1fbf 8bbd 572a 59bd
00000290: 6a53 9b3c 789d 2bbd 43c9 023d e320 88bd
000002a0: 74ce 3c3c 0384 433c cbfa 1bbc 66ff e7bc
000002b0: 1b42 06bd 60b2 943d c3c2 9b3d aea6 0ebd
000002c0: f61e 57bd 4bbd 4b3d 943a 783d 99de 1bbd
000002d0: 062e 1c3d fefd 34bd 31f4 c03c e3e3 7ebd
000002e0: 54c9 823d 331b 02bd 5ee3 a73d ecab c03c
000002f0: 4e82 453c 30e7 88bc 70c5 343d 21a0 a73d
00000300: 5bfc 0e3d 0cd5 a8bd 918c 543d bff0 59bd
00000310: 4375 953d 169c 01bd 2255 65bd 5362 e23c
00000320: 7b78 b53d 3e29 cebc 8691 7c3d 05b7 733d
00000330: 1661 59bc b54b 353d ba80 b23d affa ad3c
00000340: eb29 983c c556 5b3d fad7 b03c 140b d33c
00000350: 9e1c cabc 7b7d 7b3d 3fbf 78bc 9a74 b8bd
00000360: 6277 dcbc 7186 8a3d 2b71 1cbd cd49 453d
00000370: 5cd9 19bc 80b6 0f3b 2607 073d 67f2 ec3c
00000380: 8955 cb3c 7c0d bf3a bd65 34bd e25d a8bd
00000390: 31c5 c2bc 4b56 69bd 4be1 9f3d f44f 47bd
000003a0: d764 d5bc 94cf 48bd 876d ebbc aa60 5bbc
000003b0: dc09 703d 6d24 aabb 3345 36bd c7b3 5dbd
000003c0: 61b4 01bd 13ca 3f3c 187f 893d e395 abbc
000003d0: d871 a83d 4fa6 933d 89af 5ebd fe46 96bd
000003e0: 4641 d0bd f244 b1bd 3cbe 85bd d2f3 533c
000003f0: cf18 223c 228b 2d3d 3076 9f3d 72c0 673b
0.07055459 0.0293405 0.055473626 -0.085645385 -0.06766695 0.025328636 0.01631492 0.0834598
-0.0031211805 0.05152545 -0.0249632 0.053332236 0.08267154 0.029679881 0.029710842 0.07682663
0.061045486 -0.026990129 0.011194803 0.07745815 0.058484532 -0.021069564 -0.06827112 -0.020421041
0.010350787 -0.0048041027 0.05237447 0.066594526 -0.044112038 -0.057015695 -0.03210298 -0.07099831
-0.03690713 -0.010794128 -0.04339198 0.07627385 -0.03701045 0.07588176 0.018959837 0.0068126502
0.0150344735 0.008952162 0.047825325 0.059110884 -0.066453874 -0.0019631248 0.079466864 -0.0022702732
-0.041558582 -0.076989256 0.029364387 -0.08153492 -0.027425407 0.04273286 -0.07739839 0.07110829
-0.102019474 0.011223651 -0.037910417 -0.052210253 0.08666295 0.07027004 0.018189969 0.009146574
0.07832782 -0.0034148854 -0.062993415 -0.06251775 0.07053526 -0.051509358 -0.02104105 0.0030881665
-0.027488535 0.034447808 -0.0060941395 0.07941535 0.03214086 0.008222922 0.013086489 -0.01855579
0.097308345 -0.08501795 0.0051184758 0.09492965 0.03078181 0.06860671 0.033094008 0.03769321
-0.0077450355 -0.06367869 -0.04936593 0.095230706 0.06572269 -0.027977902 -0.03547989 -0.07050074
-0.078283906 0.08936131 -0.046379756 0.08589462 -0.012821474 -0.023052348 0.007562766 0.07316684
0.01761058 -0.09466993 -0.07625931 -0.06652499 0.0245255 -0.039815385 0.03398433 0.09194816
-0.07793631 -0.012971775 0.045130108 -0.036668777 0.07921352 -0.030533606 0.07263099 -0.067577235
0.00014436757 0.021868931 0.05818724 0.050888352 0.056053054 -0.07849008 0.053128295 0.065372705
-0.038741082 0.07565551 0.022398036 0.040172502 -0.034276675 0.012316152 -0.0765096 -0.06314913
0.08970041 -0.07795981 0.0842562 -0.08605446 -0.05934477 -0.012600029 -0.030709594 0.048722487
-0.08082686 -0.0488992 -0.05763437 -0.026988761 0.041811317 -0.016037824 0.085431255 0.027743801
-0.04004451 0.020293469 -0.06274909 -0.071777664 -0.050837696 0.086621694 -0.083803594 0.010455282
0.009255578 0.07732343 -0.06823563 -0.053018894 0.018960673 -0.04189822 0.03193022 -0.06646898
0.011523832 0.0119333295 -0.009520243 -0.028320026 -0.032777887 0.07260585 0.07605507 -0.034826927
-0.05251976 0.04974107 0.06060274 -0.038054083 0.03812983 -0.04418754 0.02355394 -0.06222905
0.063860565 -0.03176422 0.08197664 0.023519479 0.012054993 -0.016711801 0.044133604 0.08184839
0.034908634 -0.082437605 0.051891867 -0.05320811 0.072977565 -0.031642996 -0.055989392 0.027634775
0.088608705 -0.02516615 0.06166222 0.059500713 -0.013267776 0.044261653 0.08715959 0.0212377
0.018574676 0.053549547 0.02158736 0.025762118 -0.024671849 0.061398964 -0.015182315 -0.09006615
-0.026912395 0.06763924 -0.038193863 0.048166085 -0.009390201 0.0021928847 0.0329658 0.02892418
0.02482106 0.0014576162 -0.044042338 -0.08221032 -0.023775669 -0.05696706 0.07806643 -0.048660234
-0.02604906 -0.049026087 -0.02873875 -0.013389746 0.058603153 -0.0051923306 -0.044499587 -0.054126527
-0.031666163 0.011705893 0.06713694 -0.020945495 0.08224839 0.07209455 -0.054366622 -0.073377594
-0.101687 -0.086557284 -0.06530425 0.012936549 0.00989361 0.042369016 0.07786214 0.003536251

bias_ih_l0 f4 [512]
00000000: 4576 adbd 9603 ad3d 7bcb 06bc 41b4 403b
00000010: 22ab 39bd 3301 193d 0a03 303c 80d1 133d
00000020: d3a0 2d3d fc88 303d b5f4 c33d a293 7a3d
00000030: 292e c23d 733f 67bd 4771 6e3d 38b9 a13c
00000040: 4f7a 473d 7c97 9a3c 1065 11bd 64c0 123c
00000050: bb9e 353d 9d33 4b3c c359 73bd 4f6d 3d3b
00000060: baa6 943c 5c5c 3dbd 6489 12bd 4307 1e3d
00000070: 8be1 1ebd e148 6cbd 11b5 603d e3e3 883d
00000080: a017 a8bc 214c 6b3d 4201 5a3d 9e94 98bd
00000090: 62db d43c bd66 d13d da2a 78bd abf0 0f3e
000000a0: 19f4 563c 743e 883d 69c9 713d d47d abbd
000000b0: d2ec dd3c ffcd 903d 6a73 b33c 0c1a 66bd
000000c0: 9ee5 b03d bc9e b13d 4e50 cd3d 1456 2dbb
000000d0: f49c 6e3d 7088 163d b226 31bc 5994 2bbd
000000e0: b7aa 81bd 0a21 50bd 7949 ecbb 1450 003d
000000f0: a014 013e 7041 6d3c a831 22bd 9d49 113d
00000100: 1b9e fabc dc0f ac3c cc4f 2c3d c531 ad3c
00000110: 70f3 073c 1a6a 673d 1c38 a13c e3ea 8fbd
00000120: 5a87 9d3d 57be c63c f1d5 b9bd 8caa 31bd
00000130: 3868 733c 3372 5e3d 7a83 f93d 0e88 683c
00000140: 6dc5 cfbc bf46 5dbd 1c8d 173c ce2b 87bd
00000150: aced aa3d 5678 553d f326 d3bc afc9 16bd
00000160: cc05 64bd c897 893d 21fc 7c3d e959 0c3d
00000170: 958e d4bc baec e13c e304 a1bc 9e13 083c
00000180: 7c73 423c 9129 993d e948 0bbd c39a 90bd
00000190: bf56 dbbc e0a3 29bd 5487 0dbc 4bf1 33bd
000001a0: 48e9 063d b2b7 7fbd 56d2 2cbd 0ecc b03d
000001b0: 647b 80bd f2b7 9f3d cb12 aa3d 141d 88bc
000001c0: d6c1 a83b fc19 313d a7cc ec3d 75aa a3bd
000001d0: 9464 71bd fe6d b0bc ce11 5c3d 4d01 783d
000001e0: b1c8 f73d fa8e fbbc f0b6 8d3d 71fa 7bbc
000001f0: 7f69 93bd aeac d83c 36f2 b4bd a730 ccbb
00000200: af3f c0bd 6756 203d 9064 8b3d 7c08 cebc
00000210: 1b74 83bd 48f4 4f3d 0705 4b3d 72ed 963d
00000220: d94e 3abd f07b c0bd 6758 78bd d733 063d
00000230: 559f 8a3d 2a68 a2bd 2a04 923c 9b6f 633d
00000240: 0a77 7f3d eb92 85bd 4a3b 0bbc 8fef b03d
00000250: 62c1 9fbd f4db de3c 4458 32bd 60f2 12bd
00000260: 2fd4 943d d35b ddbb 4761 663c 1c55 8f3d
00000270: a58c a83b a966 70bd d3e9 2c3c 2d88 8d3c
00000280: e9d8 9f3d 2476 babd a524 a7bd 64bd 563d
00000290: a2d3 78bb 7715 7cbd ce93 6fbd 8937 573a
000002a0: f899 963c 9adc 57bd 27a0 bebc 123a 45bb
000002b0: 4470 6e3d 2cb5 5fbc aad0 9a3d ef4c 2e3b
000002c0: 5d1e 9cbd ef17 c1bd f8b4 dbbc 4cad 19bd
000002d0: 710a a4bd 13c9 453c 24d3 8abd 2a32 903d
000002e0: 40aa 8d3c 4f06 ce3c 0561 86bd 0013 493d
000002f0: ac0a 5a3d d2dc eebd 16dc 6abd 00a6 a0bd
00000300: c881 eebc f533 463d 2c1c efbc 524d b53d
00000310: df57 443d 9efd b4bc b450 553c 2fec bebd
00000320: 04e4 e2bd 6bb3 8abc c9de 8ebc c454 843d
00000330: 79ce a4bd fb58 82bc f906 a0bd 7d22 5dbd
00000340: 139f 55bd e154 a63a 0cb4 d6bd 8f6b 703c
00000350: 24a3 abbd 894b a33d aee6 003d 80b2 48bd
00000360: 6b17 893c 3430 6b3d 60ea f4bd b7b2 9fbc
00000370: 8f35 753c 079a dabb 693d 1db9 deef acbc
00000380: d347 4b3c 5709 5fbd 26c2 0d3d 3a99 abbd
00000390: 0354 95bd 9af1 ea3b 3ed3 28bd ac55 10bc
000003a0: f722 a2bd 9f40 e3bc 1398 d23c 7e29 8fbd
000003b0: da2f b4bd 69c0 a6bd d592 51bd a06f 62bd
000003c0: 92f5 12bd 9d45 a43b 71eb ffbd 7416 a9bd
000003d0: 19f7 b1bd d89c d9bd 1ba7 f43c ae08 71bd
000003e0: db5f 17bd 2e86 e43c 038b 953d 5ab8 273d
000003f0: 88f9 e13c a523 5bbd 15d1 89bd 8302 42bd
-0.08469824 0.084479496 -0.008227224 0.0029404315 -0.04532922 0.03735466 0.010742912 0.036088467
0.042389702 0.04309939 0.095681585 0.06117595 0.094814606 -0.056456994 0.0582135 0.01974164
0.048700627 0.018871062 -0.03549677 0.008957002 0.04434083 0.012402442 -0.059411775 0.0028904264
0.018145908 -0.04623066 -0.035775557 0.038581144 -0.038789313 -0.05768669 0.05486018 0.06684091
-0.020519078 0.05744565 0.053223856 -0.074502215 0.025983516 0.10224674 -0.06058774 0.14056651
0.013119721 0.06652537 0.05902997 -0.08373609 0.027090464 0.07070541 0.02190562 -0.056177184
0.08637546 0.08672854 0.100250825 -0.0026449012 0.05825515 0.03675121 -0.010812448 -0.041889522
-0.063313894 -0.05081276 -0.007210907 0.03132637 0.12605524 0.014480934 -0.039598137 0.035470594
-0.030592969 0.021003656 0.042068288 0.021141896 0.008297786 0.05649767 0.019680075 -0.07027223
0.07691832 0.024260683 -0.09074009 -0.043375537 0.014856391 0.054308128 0.1218328 0.014192594
-0.025362695 -0.054022547 0.009249952 -0.06600152 0.083461136 0.052116714 -0.025775408 -0.036813434
-0.05566959 0.06718403 0.061763886 0.034265433 -0.025946895 0.0275787 -0.01965565 0.008305458
0.011868354 0.07478631 -0.03400508 -0.070607685 -0.026774762 -0.04141605 -0.008638222 -0.043931287
0.032937318 -0.062431045 -0.04219278 0.0863267 -0.06273535 0.07798757 0.08304366 -0.016615428
0.00515006 0.04323767 0.11562472 -0.079914965 -0.05893381 -0.021536823 0.053727917 0.060548116
0.12098826 -0.030707825 0.06919658 -0.015379534 -0.07197856 0.026449528 -0.088352606 -0.0062313857
-0.09387147 0.0391449 0.0680629 -0.02515053 -0.0641863 0.050770074 0.04956534 0.07369508
-0.04548535 -0.09398639 -0.060631182 0.032764282 0.067686714 -0.07930024 0.017824251 0.055526357
0.062369384 -0.06522163 -0.008498022 0.08639442 -0.07800557 0.027204491 -0.043541208 -0.035875678
0.07267033 -0.006755331 0.014061279 0.06998655 0.0051437193 -0.058691654 0.010553795 0.017276848
0.07805044 -0.09104565 -0.08161286 0.05242671 -0.003796794 -0.061543908 -0.058490567 0.00082098745
0.018383965 -0.052700616 -0.023269726 -0.0030094427 0.058212534 -0.013654035 0.07559331 0.002659615
-0.07622979 -0.09428393 -0.026819691 -0.037518784 -0.08009804 0.012071866 -0.06778553 0.07040818
0.017293096 0.025149493 -0.06561474 0.049090385 0.053232834 -0.11663212 -0.057338797 -0.07844162
-0.029114619 0.048389394 -0.029188238 0.08852638 0.047935363 -0.02209359 0.013019729 -0.09322392
-0.11078647 -0.016931256 -0.017440217 0.0646148 -0.08047194 -0.01591157 -0.0781383 -0.05398797
-0.052153658 0.0012690091 -0.1048356 0.0146740815 -0.08380726 0.079733916 0.031469993 -0.048998356
0.0167348 0.057419017 -0.11958766 -0.019494398 0.014966383 -0.0066711935 -0.00014995564 -0.021110471
0.012407261 -0.054452267 0.034608983 -0.08378835 -0.072914146 0.0071699144 -0.04121708 -0.008809488
-0.07916825 -0.027740775 0.02570728 -0.06990336 -0.087981895 -0.08142168 -0.05116542 -0.055282235
-0.035878725 0.0050131814 -0.12496079 -0.08256236 -0.08689708 -0.10625619 0.029864838 -0.05884617
-0.03695665 0.027896013 0.07301905 0.040947296 0.027584806 -0.05350079 -0.06729332 -0.047365677

bias_hh_l0 f4 [512]
00000000: 50d4 193d 1b51 3ebd 08e8 42bd 608b 87bd
00000010: 0fc4 58bb a113 c63d ddc1 133d 4acf 023d
00000020: 4731 013d 5cfe 9c3d 3e8d 8f3d fde0 c03b
00000030: 6881 8bbd bada f0bc 8f06 a83d 9e40 ccbd
00000040: 1b1f 19bd 42b2 d2bc 5310 10bc 0fcc a8bc
00000050: 9e26 a53d 14ce abbd 026e 1d3d d95f 1cbd
00000060: 0dfa 04bd eb5c 75bc d89c 403c 15af 4cbd
00000070: 0126 c23d 8d1b 0c3d d3fe a03d 71c0 fb3c
00000080: a4e9 4ebd c44b 84bd b8aa c53d 84dd a13d
00000090: c6d5 d23c 5031 d43d d481 b23c 31ca 3cbc
000000a0: be9e 973b d9a6 83bd d291 41bd c332 a83d
000000b0: 1f2b babc fcde 063d 095a 42bd 2459 81bd
000000c0: d772 923c 2db6 f0bc 5f66 b13d 405e bcbd
000000d0: 17d6 b63c 93e0 6a3c ea1e 6abd 1b06 943c
000000e0: 22fa 50bd 4b5f 713d 7dae 433c b3ce 1e3c
000000f0: 829c e33c c4eb 54bd 27ba 99bc 9969 e03c
00000100: f2ab 563b feca 633d 5840 21bd 2822 5ebd
00000110: c720 303d d990 0cbc e578 463d d02c a73d
00000120: 2428 143d ddf0 ae3d 45b4 afbd d1fc 2e3d
00000130: 6a7a 9ebd 9df4 ac3c 8645 123e 0058 a73d
00000140: 75d7 213d b9e3 b0bb cadb 9f3c eb0a 383d
00000150: e8e9 1cbc ea9b 3a3d 991f 073b b450 093d
00000160: bb7a 37bd ff55 b3bd 6a3c ecbc 339b 66bd
00000170: 147c 583d ca22 353c 6683 803d 6354 6a3d
00000180: f367 58bc 81fc 873d 607c be3d 287f 503d
00000190: e67a 703d aeb6 f8bb 4693 cc3d 891f 7d3c
000001a0: ba09 80bc aeea 89bc 93ef fe3c c355 17bd
000001b0: 7ada 013d 93b6 afbd 5353 f0ba 65ea 993c
000001c0: 477b 25bd d57d b6bc dd1a 403c 3cc5 0b3c
000001d0: fc88 7f3b cde5 3fbd f799 263d 20a7 89bb
000001e0: a0da d13d 74b3 f03c d06f ab3c c377 55bd
000001f0: 3df1 6a3c bcc7 8a3d b692 b73b d7ca 1dbc
00000200: acba 9abd e4a2 eabb c906 c2bc 4117 89bd
00000210: 6183 b3bd b9f9 a2bc 7cc1 573c 1caa 63bd
00000220: afd3 1f3d 85ef de3c 212a 06bd 8a58 b13d
00000230: 86ad 5c3d 5d9e 80bd aebe 8fbd a0aa c7bd
00000240: facc ab3c 86c3 dabd e14e 44bd 1fb1 a3bc
00000250: a1f2 843d 7660 523d 2580 51bc 40c3 85bd
00000260: b744 9bbb a5c8 15bd 1d62 4cbd a4d3 983d
00000270: 22c9 303d 3b2c 4b3d 0a24 01bd f1df cf3c
00000280: ad97 813d c4cd 09bd 928e 883b 0e67 8dbd
00000290: 3c9f 60bc 0b82 8e3d b2cf 173d c6e5 8f3c
000002a0: 2a69 d6b8 fab1 723d aadd 74bd 569d 6ebb
000002b0: 7c46 25bd f316 64bd 793d 9b3d 815f b6bd
000002c0: 98da 38bd b29c 1dbd c83e 99bc 0276 203d
000002d0: bb18 7abd 6b0a 89bd 3d0f 373d cb75 ae3c
000002e0: 3bbb e93c 9648 8b3d e235 a23c 5a29 cc3b
000002f0: 488c 7bbd 94fc 03bc 9707 3a3d 3e55 6dbd
00000300: 1d45 1d3c 17cb 95bb 7267 493d 9ea0 82bd
00000310: 0735 a1bb 3bce 8bbd c071 8a3d db71 263d
00000320: 9bb9 6fbc e4cd 4d3d 39df d2bc a9f6 a5bd
00000330: 7adc 4f3d 1431 983c a8a5 623c d14f ffbd
00000340: a6e6 a3bd 0e16 38bd d86c 273d 88e1 883d
00000350: 024e 27bd 8e07 c33c 13a5 b0bd 295f 96bd
00000360: ebfa 313d dca8 95bc cafc 6dbd 9d06 6f3c
00000370: bebe babd 3a04 903d dd51 afbc 446c 843c
00000380: 3f8d e2bc 07dc 473d 3e2b 4abd ac0f 2fbc
00000390: bae7 aabc 3ef7 b4bc f95b 5c39 11c7 f13c
000003a0: 57a0 14bd b74f 1b3d 09a6 a13d cec9 71bd
000003b0: dd4e 8e3c 8aa1 81bd 1385 893d 6db9 153c
000003c0: 3089 bd3c 45b6 85bd 7c74 09bd 4bad ca3c
000003d0: d740 053d 195f 3b3c 19fc cdbd 7400 143d
000003e0: 9194 95bd 5596 6a3d 27b4 34bd 3b7a f2bc
000003f0: b401 893c cc34 26bd 9a56 e4bc 9773 2ebd
0.037555993 -0.046464067 -0.047584563 -0.066183805 -0.0033075844 0.09671713 0.036073554 0.031935968
0.031541135 0.07665703 0.07009362 0.0058861957 -0.06811792 -0.029401172 0.08204376 -0.09973262
-0.03738318 -0.025719766 -0.0087929545 -0.020605115 0.08064006 -0.08388916 0.03843499 -0.038177345
-0.03246503 -0.014975767 0.011756144 -0.04997166 0.09479905 0.034205962 0.07861104 0.030731412
-0.050515786 -0.06459764 0.09651703 0.07903579 0.0257367 0.10360968 0.021790422 -0.011522816
0.004627078 -0.06428308 -0.047258206 0.08212807 -0.02272564 0.0329275 -0.047449145 -0.0631583
0.017877026 -0.029383743 0.08662104 -0.09197664 0.022318883 0.014335769 -0.05715839 0.018069318
-0.051019795 0.05892877 0.011943457 0.009692836 0.02778459 -0.051982656 -0.018765522 0.027394103
0.0032756296 0.05561351 -0.039368004 -0.054231793 0.04300001 -0.008579456 0.048455138 0.08162844
0.036171094 0.08542035 -0.085793056 0.042721573 -0.077381924 0.021112734 0.14284334 0.081710815
0.039512116 -0.0053982404 0.019513983 0.044932287 -0.009577252 0.045558847 0.00206182 0.03352423
-0.04479478 -0.08756637 -0.028837401 -0.056300353 0.052852705 0.011055658 0.06275062 0.057209384
-0.013208377 0.06639958 0.093010664 0.050902516 0.058710955 -0.0075901365 0.09989028 0.015449413
-0.015629638 -0.016835537 0.031120097 -0.036947023 0.031702496 -0.08579745 -0.001833538 0.018788526
-0.04040077 -0.022276798 0.011725155 0.008530911 0.003899156 -0.046850014 0.040674176 -0.004200831
0.102467775 0.029382445 0.02092734 -0.052116167 0.014339742 0.067763776 0.005602206 -0.00963088
-0.07555136 -0.0071605314 -0.023684876 -0.066938885 -0.08765293 -0.019894468 0.013168689 -0.05558215
0.039020237 0.027213821 -0.03275502 0.086594656 0.053876422 -0.062802054 -0.07018791 -0.09749341
0.020971764 -0.106818244 -0.047926787 -0.019981919 0.0649159 0.051361524 -0.0127869 -0.065313816
-0.004738416 -0.036568303 -0.049898256 0.07462242 0.043160565 0.04960273 -0.03152851 0.025375338
0.06327758 -0.0336435 0.0041673863 -0.06904422 -0.013709839 0.069583975 0.037063308 0.01756562
-0.000102239035 0.059251763 -0.059781708 -0.0036409697 -0.040350422 -0.05568595 0.07580084 -0.08904935
-0.045130342 -0.038479514 -0.018706694 0.03917504 -0.06105874 -0.0669144 0.044692267 0.021296402
0.028531661 0.06800954 0.019801084 0.0062305154 -0.06141308 -0.008055825 0.045417394 -0.05794262
0.009598997 -0.0045713293 0.04917092 -0.063782915 -0.0049196514 -0.06826445 0.06759977 0.040635925
-0.014631654 0.05024518 -0.025741206 -0.08103687 0.050747372 0.01857809 0.013833441 -0.12466396
-0.08002977 -0.044942908 0.040875286 0.06683642 -0.04084588 0.023807313 -0.086252354 -0.07342369
0.043452185 -0.018268995 -0.058102407 0.014588979 -0.091184124 0.07032056 -0.02140134 0.016164906
-0.027655242 0.04879382 -0.049357645 -0.010684889 -0.020862449 -0.02209055 0.00021015097 0.029513868
-0.036285724 0.03791782 0.07892997 -0.059030347 0.01737159 -0.06329639 0.06714835 0.009138447
0.023136705 -0.06528906 -0.033558354 0.024740836 0.03253254 0.011436247 -0.100578494 0.036133245
-0.073037274 0.057272274 -0.04411712 -0.0295993 0.016724445 -0.040577695 -0.027873326 -0.042590704

weight f4 [32, 128]
00000000: 8eac 553c a85f 9abd cb73 743d b248 243b
00000010: c8de 82bd a912 113d b128 3bbd 220c 543c
00000020: be35 b23d 5c37 05bb f4f3 503d 0ccf 283d
00000030: b818 b8bd d18f 11bc f3b3 94bc 92a7 de3a
00000040: 7d9f 46bd 93af 67bd bc58 e03d 6717 61bd
00000050: fb7d 85bd 4cf3 253c 62db 403d 7d62 453d
00000060: 5a49 9e3d f50d e93c 41a3 143d af8c 8a3d
00000070: a563 94bc 576d f93b ee00 e43d 1e61 2ebd
00000080: c9ac 12bd ad33 6b3c be10 413d b26a 32bb
00000090: 6ae0 343d 49a4 a3bd fb27 cebd 61c1 0f3c
000000a0: a561 96bd dade 5a3d 36e6 1abd d369 cabd
000000b0: acce 503d f773 853d f322 9fbd 1924 2dbd
000000c0: 2213 3d3b 8014 cf3d 7974 173d 16b2 953d
000000d0: e327 2b3d 1e20 dc3c 51d9 fabc 083a 82bd
000000e0: eecc 753d 7f9a f9bc 2734 c33c 7ab0 dabc
000000f0: 2eb2 80bd daa8 cd3d 1626 1ebd a795 01bd
00000100: 2978 65bd 0aa2 613d 9a26 6b3d 5c6e 943d
00000110: eadc 233d d058 4ebd f5e5 f4bc 638a b23c
00000120: 1f12 86bd a339 22be 017f 1fbd 154c 75bd
00000130: 9ae5 c43d dc35 973c 5539 423d 4449 f43d
00000140: c5ae babc 630a c93d bdf1 eabd d1aa 96bc
00000150: 3760 52bd ab3e 8bbd 97a1 8d3d 86ef 9b3c
00000160: 2a66 93bd 8b88 11bd d740 293d 7dfd b6bc
00000170: a3f1 943d 7664 563d 956d e1bd 23d2 ab3c
00000180: db6e 1f3d 9e6c 07be 4a47 033c 1774 5f3c
00000190: 3991 7dbd a031 9ebd 4443 823d 4bd9 b6bd
000001a0: a66a a4bc d089 6e3d 28c0 2d3c cddd a0bd
000001b0: 01ac a3bd 8060 65bd a559 d1bd 6548 f23c
000001c0: f6f0 24bd ffa0 84bd 15e1 df3d 3364 41bd
000001d0: 4493 843d 1979 5ebc bf91 053e c42a 8ebd
000001e0: 2594 aa3d 51df e4ba 848c 49bd b66d 9b3c
000001f0: 70bb 673c d13c 3a3d 5475 b8bc 0d38 673c
00000200: 4891 e0bb d4b6 13bd 0e03 bb3c a925 83bd
00000210: 65b7 01bd c1a1 793d 8dde aebd 7a45 15bd
00000220: accb b53d 7c20 c63b 70bc c3bc f835 b43d
00000230: 3e41 f43b bef9 03bc 917e 9a3b 54f6 1b3d
00000240: aa84 87bd 9e35 a83d d774 4b3d 9d2a 2b3d
00000250: 8b0f 0b3d 1956 5cbb 521a 083d 3edd 163d
00000260: 4833 333d 84e0 733d 832c c23d 627b 383d
00000270: 447b bcbc 97b7 37bd 858f 94bd 7c88 033c
00000280: c9c2 86bd c4eb b83d 7e63 6b3d 13f5 4c3d
00000290: cdf7 d8bd 1688 803d 9142 783d 772b aebd
000002a0: 5309 aebb a321 65bd 35c2 c33d 7009 bebd
000002b0: 689a e63c 65a0 90bd d2d1 69bd d9a7 a7bc
000002c0: f019 a73d 29a0 98bc 18fd 96bc 2706 033d
000002d0: 0612 c3bd f2d8 3ebd 5fed 093d 264a 6ebd
000002e0: 41a3 7abc 41a5 c43d 5129 fa3a e828 2f3d
000002f0: 163b 8b3d 6392 13bd a9c0 953d 9ab6 0a3c
00000300: 306e bcbc 1285 a43c 67a5 a4bd 13a4 803c
00000310: c2b2 4a3d e5b4 0c3d beb0 b73c ce5f 6b3d
00000320: b842 18bb a665 493d f147 563b 0905 41bc
00000330: 68f0 86bb e231 463d 5978 cd3b c5ec 6bbd
00000340: f45f 2d3d bf6d f33c fa4b 18bd 4371 1ebd
00000350: 8f9e 603b e8de 7cbd 5f1a ddbc d9c3 adbd
00000360: 320b 86bd de02 92bd 877a 5f3d 4003 203d
00000370: 8565 11bd 3b10 4ebd 945f e2bc 46a4 d43c
00000380: 8288 8bbd 5aff 5dbd d480 913d 5ff4 2e3d
00000390: bc39 af3c 1d2e 62bd afc4 5a3d 599e a53c
000003a0: 5e79 22bd 343e 65bb 0a61 10ba c115 bfbc
000003b0: 5df8 f6bc 0e19 a43d eaa8 553d 8ee3 8e3b
000003c0: 5d14 a03d 4079 243c 2bdb 6bbd 7a13 b2bb
000003d0: 6f76 aeba 0764 b93d 90ee abbd e733 aabd
000003e0: 7d25 883c 5d93 03bd 4d4e babd 6a64 8abd
000003f0: d90a 053c ce2d 9a3d 6b2c 8cbc 397c a13d
0.0130416285 -0.07537776 0.05968074 0.0025067744 -0.063901484 0.035418186 -0.045693103 0.012942346
0.08701657 -0.0020327186 0.0510139 0.04121308 -0.0898909 -0.008884386 -0.018152213 0.0016987196
-0.048491944 -0.056563925 0.10954425 -0.05495396 -0.065181695 0.010128807 0.04708422 0.04818963
0.077288345 0.028449038 0.036288504 0.067651145 -0.01811392 0.0076119113 0.1113299 -0.042573087
-0.035809312 0.014355582 0.047135107 -0.002722424 0.04415933 -0.07990319 -0.100662194 0.0087741325
-0.07342843 0.053435184 -0.037817203 -0.098834656 0.050978348 0.06516259 -0.07770338 -0.042270754
0.0028850515 0.10111332 0.03697631 0.07309358 0.041786086 0.026870783 -0.030621203 -0.06358725
0.06000989 -0.030469177 0.02382858 -0.026695479 -0.06283985 0.100419715 -0.03861054 -0.03163686
-0.056022797 0.055086173 0.05740986 0.07247612 0.040005602 -0.050377667 -0.029894808 0.021794504
-0.06546425 -0.15842299 -0.03893948 -0.05988701 0.096141055 0.0184583 0.047417957 0.11928037
-0.022788415 0.09816434 -0.11471889 -0.018391998 -0.05136129 -0.06799062 0.069155864 0.019035112
-0.071972206 -0.03553061 0.0413216 -0.02233767 0.07272651 0.0523419 -0.11007229 0.020974224
0.03892408 -0.13225028 0.008012602 0.013638518 -0.061906073 -0.07724309 0.06360486 -0.08928164
-0.020070385 0.058236897 0.010604896 -0.07854805 -0.079917915 -0.056000233 -0.102221765 0.029575536
-0.04026886 -0.0647602 0.10931603 -0.047214698 0.06473401 -0.013578677 0.13043879 -0.06941751
0.083290376 -0.0017461573 -0.04920627 0.018973213 0.01414381 0.045468155 -0.022516884 0.014112485
-0.0068532564 -0.03606303 0.022828605 -0.064036675 -0.03166904 0.060945276 -0.08538542 -0.03644321
0.08876738 0.006046353 -0.023893565 0.08799356 0.0074540665 -0.008055149 0.004714795 0.038076714
-0.066171005 0.08213352 0.049671974 0.041788686 0.03395037 -0.0033620654 0.033228226 0.036832087
0.043750077 0.059540287 0.09481146 0.045039542 -0.023007996 -0.04485282 -0.07253937 0.008028146
-0.06580121 0.09029344 0.05746793 0.05003841 -0.10594139 0.06275956 0.060610358 -0.08504384
-0.00531117 -0.05594028 0.095585264 -0.09279144 0.028149799 -0.07061843 -0.057084866 -0.020465778
0.08159244 -0.018631058 -0.018431231 0.03198829 -0.09524922 -0.046593614 0.03367364 -0.058176182
-0.015297712 0.09601832 0.00190858 0.04276362 0.06798379 -0.036028277 0.07312138 0.008466387
-0.02300176 0.020082984 -0.080393605 0.015703237 0.049486883 0.034352202 0.022423144 0.057464413
-0.0023233127 0.049169205 0.003269669 -0.011780986 -0.004118014 0.048387416 0.00627045 -0.057598848
0.042327836 0.029715417 -0.037181832 -0.038682234 0.0034274196 -0.061736017 -0.026990114 -0.084846206
-0.06545104 -0.07129453 0.05456021 0.0390656 -0.035497207 -0.050308447 -0.027633466 0.025957238
-0.06813146 -0.0541986 0.0710465 0.04271352 0.021389835 -0.05521976 0.05341023 0.020217108
-0.039666526 -0.0034979703 -0.0005507624 -0.023325803 -0.030147726 0.08012591 0.052163042 0.0043606227
0.07816384 0.010038674 -0.05758206 -0.0054344507 -0.0013310442 0.09052282 -0.083951116 -0.08310681
0.016619438 -0.03212296 -0.09096966 -0.06757434 0.008120262 0.07528268 -0.017111024 0.07885022

bias f4 [32]
00000000: 375b 923d 7c0e 6cbd ead7 a4bd 284a d43c
00000010: 9f7d 1cbd f334 2b3d 8069 11bd 1b64 4f3d
00000020: c1e3 32bd ba55 103d c161 5fbd f470 06bd
00000030: 2d0b 33bd 1490 5d3d 9bd0 613b 1d76 453d
00000040: ad52 883d f650 6bbd 099a 50bd 721b b1bd
00000050: 2a38 673c 758b d03c bd8b 613d 4a72 e23c
00000060: 8452 3e3d 6220 06bd 72b3 03bd 18dc debd
00000070: 117d adbc ff06 d03b 3e24 98bc fc70 773b
0.07146304 -0.057631 -0.08048995 0.025914267 -0.03820574 0.041798543 -0.035501003 0.050632577
-0.043674234 0.035238005 -0.054536585 -0.032822564 -0.04371183 0.05409248 0.0034456614 0.048208345
0.06656394 -0.057450257 -0.05092815 -0.08647813 0.014112512 0.025457123 0.055064905 0.027642388
0.04646541 -0.032745726 -0.032153554 -0.10881823 -0.0211778 0.0063484902 -0.01857197 0.0037756553

weight f4 [1, 32]
00000000: 2e20 0bbc 3d7f d93c 622f 0b3e e47a edbb
00000010: abda 4e3c fb04 a1bb 3eba e53c 2f69 35bd
00000020: c6a7 83bd 0e64 e9bc d755 d93c e1ed 563d
00000030: 8379 0a3e a39f 133d ac6b f03d fcf2 cebc
00000040: 4925 9e3d 890d 233c 457c 2abd 5688 1abd
00000050: c7c2 183d 049e fb3d a64c 873d 5001 7e3d
00000060: 6a7e 283e c222 f63d f13f 703c 00f0 3038
00000070: 2fba 7c3d 4867 0d3e 22c5 2d3c 2682 3b3d
-0.008491559 0.02654993 0.13592294 -0.0072473157 0.012625377 -0.004913924 0.028042909 -0.044289764
-0.064284846 -0.028490093 0.02653019 0.052472953 0.13522916 0.036040913 0.11739287 -0.025262348
0.07721955 0.0099519575 -0.04162242 -0.037727676 0.03729513 0.122859985 0.066064164 0.06201297
0.16454473 0.12018348 0.014663682 4.2185187e-05 0.061700996 0.1380893 0.010606082 0.045778416
