data/Huron/sens_mihuron.pt (torch, 338417 bytes, 7 tensors)

weight_ih_l0 f4 [512, 24]
-0.03339348 0.005926879 0.06543557 0.06379128 -0.054899566 -0.03871323 0.050976053 -0.06233415
-0.018888056 -0.039666086 0.00596836 0.08299976 0.004540447 -0.06449629 -0.042213503 -0.008766703
-0.028276213 0.0896978 -0.056693494 -0.018630901 0.0043058516 0.018880267 -0.022944273 0.082543395
0.034513857 -0.058181636 0.04228692 -0.060671337 0.02280156 -0.004127682 0.010234416 -0.05668788
0.050358914 -0.050830927 0.046204448 -0.06856077 0.047729168 0.036176685 -0.049214166 -0.052786957
-0.04859359 0.03415417 0.054928403 -0.0034714814 -0.0062449616 0.067700416 0.054669954 0.06300428
-0.0006207218 -0.01391531 0.08667144 -0.0023068674 0.06829492 0.0013000774 0.025504354 0.08519063
0.04298543 0.06823351 0.07526921 0.048977777 0.074366726 -0.06414282 0.03995148 0.01810123
-0.029797643 0.041270155 -0.03760597 -0.03803515 -0.037554435 0.0691469 0.048756722 -0.06875558
0.02346043 0.006692279 0.09334966 0.04850403 -0.024399314 0.064470075 0.095107436 -0.070474185
0.08859209 0.0753756 0.09697097 -0.06160898 0.012627727 -0.030557279 0.07307316 -0.06497499
0.008435129 0.03903651 -0.07108456 0.086957455 -0.059292026 -0.017604837 0.0330004 0.048465207
0.08547437 0.019766971 0.03127027 0.027558705 0.06410169 0.03402133 -0.021053474 0.09763481
-0.002258458 -0.058859788 -0.012685215 0.0064332327 -0.0040008663 0.047091197 0.06832651 -0.05630884
0.08810209 0.06991127 0.069161594 0.0965499 0.0044705607 0.1106933 0.003526348 0.078468055
-0.018392373 0.028650517 -0.02233063 -0.0051273913 -0.06538256 0.020219065 0.059823032 0.003160045
-0.06207564 0.0135288155 0.07380182 0.059702724 0.06970782 0.09016666 -0.019696813 -0.060969125
0.084484026 0.090431474 -0.043841623 -0.013918003 0.04535849 0.025206648 0.012952785 0.08397781
0.05871732 0.031650107 0.0026233487 0.051737323 0.04607724 -0.027002051 0.004665543 0.09640728
0.012814909 -0.047839202 0.062365208 0.01738233 0.026496748 0.0019829914 -0.0023982464 -0.039209414
-0.020281348 0.055072185 -0.04671965 0.004903781 0.061035216 0.039245464 0.0705689 0.046516776
0.070936844 0.042680442 -0.095709346 0.030030826 -0.04703379 0.014267637 0.06409039 0.047606006
-0.011739448 0.038895275 -0.026611885 0.06399706 -0.019310303 0.04785518 -0.05811039 -0.094059646
-0.07656623 0.031578757 0.042558745 -0.061247252 -0.008510993 -0.061477844 0.010327523 -0.036237158
-0.048796013 0.022704247 0.0074336627 -0.026722273 0.017006928 -0.07851925 -0.042018183 -0.032064475
-0.046768826 0.003871086 0.0739324 -0.06305832 0.018708125 -0.01215378 0.08692699 -0.012637115
-0.046596043 -0.05863133 0.010661771 0.07203509 -0.032268446 0.030424928 -0.021389803 -0.014675113
0.05276995 0.013959065 0.08953534 -0.001690629 0.036868513 -0.08677166 -0.08438637 -0.08610393
0.010429045 -0.079625845 0.074676424 -0.059521854 -0.02978054 -0.048779465 -0.0074238456 -0.022416038
-0.036815237 0.019162556 0.0007470473 -0.03196755 0.0716728 -0.048742272 -0.04995559 -0.07304009
0.054649863 -0.014737197 -0.028609768 -0.0067333323 -0.056027345 -0.06816065 0.068873525 -0.0009897136
0.015371786 0.055488948 -0.023769237 -0.03985684 0.067208886 -0.082660824 0.07148652 -0.06402974
00000000: 9ac7 08bd 4436 c23b 1603 863d 01a5 823d
00000010: 5ede 60bd c491 1ebd 44cc 503d 1852 7fbd
00000020: 20bb 9abc e878 22bd 3c92 c33b c7fb a93d
00000030: 08c8 943b a216 84bd 11e8 2cbd 38a2 0fbc
00000040: 84a3 e7bc 7bb3 b73d 7037 68bd d59f 98bc
00000050: 1a18 8d3b caaa 9a3c a1f5 bbbc 830c a93d
00000060: 675e 0d3d de4f 6ebd 0d35 2d3d 8282 78bd
00000070: 56ca ba3c 8241 87bb 41ae 273c 8d31 68bd
00000080: 2645 4e3d 1734 50bd e040 3d3d 9769 8cbd
00000090: a97f 433d 012e 143d cb94 49bd 2337 58bd
000000a0: 120a 47bd 3ee5 0b3d 9bfc 603d cb81 63bb
000000b0: 89a2 ccbb 84a6 8a3d 9aed 5f3d 6308 813d
000000c0: efb7 22ba 0afd 63bc cc80 b13d d02e 17bb
000000d0: 35de 8b3d 5c67 aa3a 82ee d03c 6d78 ae3d
000000e0: 7e11 303d 03be 8b3d be26 9a3d ec9c 483d
000000f0: 954d 983d 505d 83bd 2aa4 233d 0849 943c
00000100: 301a f4bc e50a 293d b808 1abd bfca 1bbd
00000110: aed2 19bd e49c 8d3d 21b5 473d bacf 8cbd
00000120: 1630 c03c e84a db3b 1b2e bf3d 29ac 463d
00000130: 12e1 c7bc e308 843d b0c7 c23d c554 90bd
00000140: c56f b53d 865e 9a3d b798 c63d b359 7cbd
00000150: 87e4 4e3c 4253 fabc 62a7 953d 9c11 85bd
00000160: 7f33 0a3c bfe4 1f3d c894 91bd c016 b23d
00000170: 32dc 72bd 0538 90bc 6d2b 073d 7483 463d
00000180: 300d af3d 58ee a13c 4115 003d cbc2 e13c
00000190: bf47 833d f359 0b3d 5678 acbc c2f4 c73d
000001a0: a302 14bb f616 71bd a6d5 4fbc decd d23b
000001b0: b319 83bb b3e2 403d c5ee 8b3d 19a4 66bd
000001c0: de6e b43d a42d 8f3d 98a4 8d3d f4bb c53d
000001d0: c87d 923b 2bb3 e23d 4d1a 673b dcb3 a03d
000001e0: 9aab 96bc 7db4 ea3c baee b6bc ad03 a8bb
000001f0: 4be7 85bd 74a2 a53c ff08 753d c218 4f3b
00000200: 0743 7ebd f7a7 5d3c 6925 973d d88a 743d
00000210: f9c2 8e3d 4ca9 b83d 365b a1bc c3ba 79bd
00000220: f605 ad3d 2334 b93d 4693 33bd 5608 64bc
00000230: d3c9 393d 2c7e ce3c eb37 543c 8ffc ab3d
00000240: 9381 703d 8ba3 013d 7dec 2b3b 84ea 533d
00000250: 7dbb 3c3d 6833 ddbc 69e1 983b 2e71 c53d
00000260: a0f5 513c 0af3 43bd a972 7f3d 6365 8e3c
00000270: b50f d93c 13f5 013b e62b 1dbb 0d9a 20bd
00000280: 1225 a6bc 5f93 613d 1b5d 3fbd e6af a03b
00000290: 1000 7a3d dabf 203d 6d86 903d 6088 3e3d
000002a0: 5647 913d b0d1 2e3d 4303 c4bd 3503 f63c
000002b0: 81a6 40bd cfc2 693c d341 833d 84fe 423d
000002c0: d056 40bc a750 1f3d 2b01 dabc e410 833d
000002d0: a430 9ebc cb03 443d 2905 6ebd 58a2 c0bd
000002e0: c1ce 9cbd ba58 013d 1452 2e3d 66de 7abd
000002f0: b171 0bbc 31d0 7bbd c534 293c 6a6d 14bd
00000300: 54de 47bd 42fe b93c 1596 f33b abe8 dabc
00000310: 1d52 8b3c b3ce a0bd 421b 2cbd 0a56 03bd
00000320: ab90 3fbd 0cb2 7d3b df69 973d b824 81bd
00000330: c841 993c a620 47bc c706 b23d e70b 4fbc
00000340: 7edb 3ebd 6827 70bd b5ae 2e3c 2287 933d
00000350: eb2b 04bd b33d f93c ab39 afbc e36f 70bc
00000360: 4e25 583d 90b4 643c 4e5e b73d 1998 ddba
00000370: 7003 173d 57b5 b1bd c3d2 acbd 4257 b0bd
00000380: 96de 2a3c e012 a3bd f4ef 983d 30cd 73bd
00000390: 52f6 f3bc facc 47bd bb43 f3bb d7a1 b7bc
000003a0: 93cb 16bd cbfa 9c3c 7fd5 433a 68f0 02bd
000003b0: 30c9 923d faa5 47bd 3c9e 4cbd 0b96 95bd
000003c0: 89d8 5f3d 4974 71bc 085f eabc 49a3 dcbb
000003d0: ee7c 65bd d097 8bbd 900d 8d3d 47b9 81ba
000003e0: f2d9 7b3c 6148 633d b4b7 c2bc ed40 23bd
000003f0: d0a4 893d 144a a9bd 8667 923d 0622 83bd

weight_hh_l0 f4 [512, 128]
0.05235074 0.09136012 0.03976901 0.0019513465 -0.038506653 0.07257514 -0.023917329 0.101871334
0.082678996 -0.081316166 -0.04217114 -0.07634073 0.04813675 -0.07729512 0.08141448 -0.032606065
-0.027915 0.06595121 0.09182405 0.10031269 0.03089221 0.059974357 0.05839689 -0.06378678
0.029977348 0.08508604 0.026186278 0.052541837 -0.050239943 -0.06967113 -0.03227375 0.07151655
-0.024122272 0.0711941 0.020158648 -0.063543186 -0.06942898 0.04697311 0.048413843 0.04138512
0.093461655 -0.07528473 0.07273221 -0.045447852 0.06640635 -0.004625324 0.051114436 0.05661541
-0.04082585 -0.06250078 0.018854683 -0.050815325 -0.039010864 0.04390493 0.0008199391 -0.008688028
0.032708775 0.04918083 -0.042458836 -0.023510607 -0.015938971 0.04674102 -0.030938005 -0.057629257
0.025175575 -0.06729889 0.028805764 -0.03558512 0.060351335 -0.043036837 -0.06875763 -0.016207865
0.046679165 0.037403833 0.084070295 0.0018455136 -0.07231567 0.091704115 -0.032740656 0.018446706
0.06382444 -0.098321155 0.016842242 -0.031611037 0.041797064 0.009230418 -0.023942677 -0.03938638
-0.05536511 -0.0032633413 -0.016476668 0.06122185 -0.030507024 0.020771522 0.06788054 -0.04726598
-0.03087933 -0.06783078 0.07592035 -0.052942093 0.023094658 -0.081167825 0.09527647 -0.02721376
0.034451123 0.019159116 -0.0365163 -0.0018415416 -0.043993674 0.009215268 -0.09463423 -0.014137644
-0.08424588 0.06057134 -0.042067464 0.07167372 0.008134148 -0.06893195 0.003034481 -0.07179526
-0.03883557 -0.06746088 0.011566668 -0.035625137 -0.0044495193 0.05068555 0.07018696 -0.074459076
0.03582295 0.0735924 -0.03675672 -0.07390915 0.07778504 0.028915944 0.01566075 -0.0341717
0.071905755 -0.016969513 0.023042738 -0.025493033 0.052103393 -0.0076664756 0.046384867 -0.024599016
-0.08132542 0.012654979 -0.03939005 -0.02113138 -0.06255128 0.043885797 0.08416935 0.07945203
-0.07516984 -0.06568969 0.085895024 0.0022329984 0.009878901 -0.0033592482 0.044514347 -0.044516675
-0.021123663 -0.06067439 -0.020547055 0.055177476 0.004474717 -0.08035322 -0.0005519745 -0.04596502
-0.009065155 -0.058197327 0.00033053555 -0.06237181 0.072679654 -0.05158734 -0.07101436 -0.055365026
-0.060693357 0.028008461 0.06791202 0.021817878 0.025982592 0.042750407 -0.014158821 -0.07529897
-0.006586131 0.047453243 0.039874554 0.07950802 -0.09080261 -0.01765316 -0.068566635 0.00019307187
0.076069966 -0.08140762 0.0295369 0.067189254 0.083847255 0.008743045 -0.028258841 0.044498406
0.060262654 -0.009558455 0.057968184 -0.017472824 -0.061922595 0.05384733 -0.049340174 0.028515354
0.0784331 -0.05817322 -0.0941692 0.02055912 -0.0869108 -0.0066829612 -0.01622627 -0.024484333
-0.06715667 -0.08334044 0.008438774 0.011349006 0.03137042 0.071107805 0.06698102 -0.07375379
-0.07125248 -0.06076256 -0.026771342 0.05339873 0.0048491345 -0.029963572 0.018117275 0.068810634
0.059446037 -0.037027463 -0.046533946 -0.073271215 0.06462395 -0.06714824 -0.0597323 -0.009154632
0.044072438 -0.04652388 -0.051537566 -0.08610953 0.07855359 0.029177207 0.07046874 -0.091154434
-0.004160737 -0.053191297 -0.0051537105 0.025428766 -0.06593935 -0.059411075 0.064216256 0.031372897
00000000: bb6d 563d 041b bb3d d4e4 223d 53c4 ff3a
00000010: 27b9 1dbd 46a2 943d 46ee c3bc eba1 d03d
00000020: 9b53 a93d 1789 a6bd a5bb 2cbd 8758 9cbd
00000030: 0a2b 453d e74c 9ebd a3bc a63d f08d 05bd
00000040: 00ae e4bc 6e11 873d 3f0e bc3d bd70 cd3d
00000050: a911 fd3c aca7 753d 9431 6f3d a5a2 82bd
00000060: 0e93 f53c 9741 ae3d 9b84 d63c 1c36 573d
00000070: 66c8 4dbd bdaf 8ebd 7b31 04bd 4577 923d
00000080: 129c c5bc 36ce 913d c023 a53c ee22 82bd
00000090: c830 8ebd e066 403d 984d 463d 7283 293d
000000a0: d368 bf3d e12e 9abd a0f4 943d 8727 3abd
000000b0: 0d00 883d 0890 97bb 5f5d 513d 8fe5 673d
000000c0: 0239 27bd 6900 80bd 2375 9a3c bb23 50bd
000000d0: dbc9 1fbd a8d5 333d 2ef1 563a 3b58 0ebc
000000e0: a3f9 053d d771 493d 51e9 2dbd 5199 c0bc
000000f0: 7292 82bc 8373 3f3d b371 fdbc a80c 6cbd
00000100: 023d ce3c 00d4 89bd 11fa eb3c b4c1 11bd
00000110: f632 773d 6547 30bd cdd0 8cbd 5bc6 84bc
00000120: a732 3f3d c334 193d 0c2d ac3d 29e5 f13a
00000130: 3d1a 94bd 5ecf bb3d 111b 06bd 8c1d 973c
00000140: 63b6 823d 9a5c c9bd bef8 893c 937a 01bd
00000150: 6633 2b3d 2e3b 173c 6f23 c4bc 9d53 21bd
00000160: 87c6 62bd c8dd 55bb 14fa 86bc c3c3 7a3d
00000170: dee9 f9bc 0a29 aa3c f404 8b3d f999 41bd
00000180: a6f6 fcbc ddea 8abd 217c 9b3d cfd9 58bd
00000190: 0231 bd3c 513b a6bd 4f20 c33d 64ef debc
000001a0: 9f1c 0d3d 94f3 9c3c 1e92 15bd e25f f1ba
000001b0: b632 34bd a3fb 163c 97cf c1bd 94a1 67bc
000001c0: 1b89 acbd a719 783d ef4e 2cbd acc9 923d
000001d0: 1745 053c 322c 8dbd 25de 463b 6509 93bd
000001e0: 0c12 1fbd ee28 8abd 1f82 3d3c aaeb 11bd
000001f0: 46cd 91bb a79b 4f3d 2ebe 8f3d 007e 98bd
00000200: 16bb 123d 9db7 963d 378e 16bd ae5d 97bd
00000210: c34d 9f3d 21e1 ec3c f94a 803c a0f7 0bbd
00000220: 5343 933d a603 8bbc 20c4 bc3c c4d6 d0bc
00000230: 5e6a 553d 0f37 fbbb 0ffe 3d3d e083 c9bc
00000240: f18d a6bd d456 4f3c 7657 21bd b71b adbc
00000250: e31a 80bd 98c1 333d fb60 ac3d bfb7 a23d
00000260: a5f2 99bd 5188 86bd bbe9 af3d 7f57 123b
00000270: 1ddb 213c d526 5cbb ad54 363d 1e57 36bd
00000280: 880b adbc b685 78bd 4c52 a8bc c701 623d
00000290: a6a0 923b 3b90 a4bd 62b2 10ba d145 3cbd
000002a0: 0486 14bc 5260 6ebd bb4b ad39 9579 7fbd
000002b0: 12d9 943d 3f4d 53bd fa6f 91bd 70c6 62bd
000002c0: 9999 78bd 0072 e53c 7515 8b3d 68bb b23c
000002d0: 72d9 d43c 0d1b 2f3d 66fa 67bc 5936 9abd
000002e0: 79d0 d7bb 555e 423d 8053 233d 1ad5 a23d
000002f0: b8f6 b9bd 5c9d 90bc aa6c 8cbd 5673 4a39
00000300: 92ca 9b3d 0ab9 a6bd 5ef7 f13c 859a 893d
00000310: 1cb8 ab3d fd3e 0f3c 167f e7bc f643 363d
00000320: f9d5 763d 119b 1cbc 0c70 6d3d 2b23 8fbc
00000330: 8ca2 7dbd 058f 5c3d ec18 4abd 0899 e93c
00000340: 88a1 a03d 0b47 6ebd c8db c0bd 9a6b a83c
00000350: 4afe b1bd befc dabb f4ec 84bc 5e93 c8bc
00000360: 7089 89bd 65ae aabd c942 0a3c 2ef1 393c
00000370: 457e 003d f8a0 913d 582d 893d 3a0c 97bd
00000380: d2ec 91bd 2ae2 78bd 934f dbbc a0b8 5a3d
00000390: 7de5 9e3b 2a76 f5bc ae6a 943c 97ec 8c3d
000003a0: b07d 733d 1caa 17bd 619a 3ebd 380f 96bd
000003b0: 9059 843d 0485 89bd dba9 74bd 4ffd 15bc
000003c0: 4d85 343d d38f 3ebd 0e19 53bd 315a b0bd
000003d0: b4e0 a03d 0a05 ef3c ea51 903d 2daf babd
000003e0: cb56 88bb 1edf 59bd 75e0 a8bb fd4f d03c
000003f0: 360b 87bd 0759 73bd d083 833d de80 003d

bias_ih_l0 f4 [512]
-0.0877733 -0.03146257 0.12892601 -0.018912017 0.0034566151 0.043955177 0.053849146 0.054011263
0.04730284 0.06897682 -0.026596894 0.085302755 0.0149732595 -0.014739874 0.008772446 0.06235057
-0.03201616 0.01393704 -0.020463247 -0.0017454999 0.029455623 -0.055918414 -0.04950968 -0.02640749
-0.050038304 0.060117103 0.041800145 -0.06104617 -0.047624413 -0.058713555 -0.06460237 -0.006292264
0.049457543 0.0028618434 -0.046976395 -0.059307743 0.041385267 -0.05015262 0.088086694 0.065042906
0.055350047 0.06748037 -0.04206488 -0.010643893 0.048043154 0.004588881 -0.0032220175 0.06573015
0.04341918 -0.013416661 -0.03214502 -0.016029084 0.101257995 0.07973271 -0.011916983 -0.022087136
-0.017838893 0.07460623 -0.081719905 -0.06725739 0.012149621 0.029697897 -0.06942944 0.045541763
0.10314693 -0.0032491318 0.037231594 -0.07452574 -0.05216023 -0.05908532 -0.005641018 0.06774749
-0.05640578 0.05327494 0.022062607 0.03721185 0.011028109 0.024082195 0.0492895 0.0005117487
0.0011422586 0.01855801 0.06985471 0.021694645 0.0161613 0.08165155 -0.044132426 0.057197716
-0.03440494 0.04634717 -0.041794885 0.07038312 -0.030266037 0.047202557 0.011739656 0.00547966
-0.08040993 0.059844818 0.030732758 -0.03951936 -0.062752016 0.07614414 0.068775214 0.031895544
0.09107171 -0.048182253 0.059761886 -0.01325407 0.0066279396 0.080491014 0.012984688 0.074058995
0.112785846 -0.0016805511 0.053781934 -0.09497946 -0.005076713 0.069303036 0.008831306 0.038558826
0.089448825 -0.028254079 0.01676757 -0.0026436413 0.04408182 -0.024470054 0.04424148 0.06304166
0.05824278 -0.03869578 -0.064053215 0.016525198 -0.099785574 -0.07467677 -0.04992577 -0.111318044
-0.006984212 -0.0006660682 0.048591904 -0.003712983 -0.039941154 -0.08015816 -0.046742123 -0.022805206
-0.08708694 -0.08542862 -0.094308116 -0.068720676 -0.07542214 -0.012073712 -0.04130264 0.012427701
0.009597032 -0.0072115115 -0.06111196 -0.07435407 -0.03533293 -0.07019211 -0.0015290471 -0.09850733
0.028656103 -0.02195709 -0.056054495 0.007254132 0.043447763 -0.007296912 0.038723655 -0.091286704
0.008875297 -0.08580184 -0.06869723 -0.05574294 -0.07730777 -0.0034547872 -0.09162037 -0.018050203
-0.052506335 0.060213935 0.037485242 0.07301873 0.026606763 -0.022010256 -0.064740725 -0.038364142
0.013331409 -0.09023042 -0.063211866 0.026221376 -0.0751038 0.0459821 -0.014774786 -0.0050604604
-0.07582528 0.049207855 -0.027720721 -0.018024849 0.009861948 0.046493724 -0.050531976 0.035719804
-0.12107177 -0.07356217 -0.030754909 -0.116999745 -0.03386755 0.06874175 -0.11197656 0.040805962
-0.10200552 -0.084579855 0.0038083307 -0.10778873 0.06981294 0.000104713516 0.011472933 -0.043714352
-0.028903164 0.042105973 -0.027357267 -0.06419625 0.022843555 0.045751017 -0.08878814 -0.011733085
-0.012131257 -0.091513164 0.03571112 -0.025077054 0.03514014 -0.041168846 -0.07900145 0.030841054
-0.00021374137 0.02519672 -0.029493215 -0.047388013 0.05519691 -0.019319601 -0.033986825 0.00968198
-0.09963047 0.005687466 0.045775797 -0.06903309 -0.034311373 -0.062070854 0.06396454 -0.07188766
-0.056011457 -0.055575095 0.01862697 0.04373851 -0.098888434 0.050366003 -0.11264862 -0.04484655
00000000: 7dc2 b3bd e5de 00bd 2e05 043e 60ed 9abc
00000010: 6188 623b 580a 343d ec90 5c3d ea3a 5d3d
00000020: 9fc0 413d b843 8d3d bbe1 d9bc 36b3 ae3d
00000030: 6752 753c 837f 71bc 4eba 0f3c 5063 7f3d
00000040: 6123 03bd 2f58 643c 8aa2 a7bc 42c9 e4ba
00000050: eb4c f13c b50a 65bd aaca 4abd 8554 d8bc
00000060: f7f4 4cbd 5a3d 763d a136 2b3d 8c0b 7abd
00000070: d111 43bd a07d 70bd 3f4e 84bd 562f cebb
00000080: fe93 4a3d c48d 3b3b 526a 40bd adec 72bd
00000090: 9983 293d d56c 4dbd cc66 b43d 3735 853d
000000a0: bbb6 623d 2633 8a3d 394c 2cbd b963 2ebc
000000b0: e6c8 443d 535e 963b 7c28 53bb 879d 863d
000000c0: 4fd8 313d 8ed1 5bbc 7faa 03bd 6d4f 83bc
000000d0: 5a60 cf3d e74a a33d 733f 43bc 15f0 b4bc
000000e0: df22 92bc 27cb 983d c45c a7bd 3ebe 89bd
000000f0: 340f 473c 0149 f33c 0631 8ebd 008a 3a3d
00000100: b33e d33d 63ef 54bb 2880 183d f4a0 98bd
00000110: f7a5 55bd 7303 72bd 4ad8 b8bb 32bf 8a3d
00000120: bf09 67bd d336 5a3d a4bc b43c 746b 183d
00000130: 3eaf 343c 0648 c53c c9e3 493d e026 063a
00000140: d7b7 953a f806 983c fc0f 8f3d f8b8 b13c
00000150: b464 843c ee38 a73d 34c4 34bd 2748 6a3d
00000160: 32ec 0cbd 88d6 3d3d 1d31 2bbd 0625 903d
00000170: 7bf0 f7bc 7857 413d b057 403c b88e b33b
00000180: f6ad a4bd d71f 753d 44c3 fb3c 0ddf 21bd
00000190: 2184 80bd 75f1 9b3d 05da 8c3d e7a4 023d
000001a0: ce83 ba3d c15a 45bd e1c8 743d 9927 59bc
000001b0: 302f d93b 79d8 a43d bbbd 543c 3eac 973d
000001c0: 44fc e63d f045 dcba 724a 5c3d 9784 c2bd
000001d0: 8e5a a6bb c0ee 8d3d 2fb1 103c dcef 1d3d
000001e0: f230 b73d 1975 e7bc 255c 893c f140 2dbb
000001f0: 238f 343d 6c75 c8bc 8e36 353d fc1b 813d
00000200: fb8f 6e3d 777f 1ebd 552e 83bd da5f 873c
00000210: 615c ccbd 22f0 98bd f77e 4cbd b7fa e3bd
00000220: d1db e4bb 159b 2eba 4e08 473d 8555 73bb
00000230: 5699 23bd f629 a4bd ab74 3fbd fcd1 babc
00000240: a35a b2bd 33f5 aebd 9d24 c1bd 6dbd 8cbd
00000250: ec76 9abd d2d0 45bc f52c 29bd 8e9d 4b3c
00000260: df3c 1d3c 8b4e ecbb 8950 7abd f246 98bd
00000270: 43b9 10bd e2c0 8fbd 4f6a c8ba 36be c9bd
00000280: 34c0 ea3c 5bdf b3bc 6699 65bd 12b4 ed3b
00000290: 48f6 313d ef1a efbb b29c 1e3d 86f4 babd
000002a0: b269 113c e0b8 afbd 22b1 8cbd b652 64bd
000002b0: 8953 9ebd b669 62bb 76a3 bbbd 05de 93bc
000002c0: e210 57bd e3a2 763d 208a 193d d88a 953d
000002d0: 6df6 d93c da4e b4bc c996 84bd b823 1dbd
000002e0: fb6b 5a3c baca b8bd 3975 81bd 36ce d63c
000002f0: 05d0 99bd ba57 3c3d f211 72bc 38d2 a5bb
00000300: 494a 9bbd 2d8e 493d 9116 e3bc d9a8 93bc
00000310: 0294 213c 3470 3e3d 9efa 4ebd ee4e 123d
00000320: 7af4 f7bd c3a7 96bd b8f1 fbbc 909d efbd
00000330: b3b8 0abd 7ac8 8c3d f753 e5bd 2724 273d
00000340: 45e8 d0bd 3438 adbd 3095 793b 56c0 dcbd
00000350: 16fa 8e3d a499 db38 f8f8 3b3c d20d 33bd
00000360: 54c6 ecbc 5077 2c3d 591c e0bc 5379 83bd
00000370: 6822 bb3c 6b65 3b3d 8ed6 b5bd 203c 40bc
00000380: 2ec2 46bc 416b bbbd d345 123d 656e cdbc
00000390: 1cef 0f3d aaa0 28bd 83cb a1bd 61a6 fc3c
000003a0: c31f 60b9 5a69 ce3c c19b f1bc ef19 42bd
000003b0: 2816 623d 2444 9ebc c535 0bbd 2ba1 1e3c
000003c0: 0f0b ccbd ec5d ba3b 677f 3b3d 3861 8dbd
000003d0: 158a 0cbd 023e 7ebd d7ff 823d d639 93bd
000003e0: 456c 65bd b6a2 63bd 9697 983c 2727 333d
000003f0: 0586 cabd 954c 4e3d 52b4 e6bd 04b1 37bd

bias_hh_l0 f4 [512]
-0.057610966 -0.014133836 0.11431697 0.005027046 -0.041046552 0.054690443 -0.07725551 -0.06962181
-0.04348048 0.0034265073 0.121091194 0.09234957 0.10287753 -0.054160304 0.056795526 0.065838434
-0.027766952 -0.05913733 0.0035563803 -0.0482733 0.07465252 -0.06405265 0.073808804 0.06493191
0.0082764 0.077033326 -0.0049388404 -0.08080807 -0.0037307397 -0.05156948 -0.015608663 0.055656858
0.072089285 0.07295622 0.0379029 -0.04220775 -0.008930042 0.047293294 0.07084775 -0.00024755308
0.015280617 0.08220739 0.0073615327 -0.016405465 0.044652253 -0.01869922 0.0865248 -0.005933559
-0.020476267 -0.045390233 -0.013408085 0.09463366 0.10692544 0.08757435 -0.068795055 0.09511773
-0.059949204 0.012335978 -0.042258345 0.023454256 -0.092710845 0.007377862 0.052040156 -0.08068731
-0.041326173 -0.023387657 -0.04892033 -0.07628517 -0.057154953 0.062643625 0.08999628 0.027895238
-0.034187518 -0.070834175 -0.073731 -0.011101865 0.044485282 0.039704874 0.0585878 0.05932991
0.04252959 -0.00034279458 -0.0026719018 0.08722178 0.08646031 0.037308935 0.044748213 0.00469311
-0.06724915 0.11847923 -0.09291504 -0.06408396 -0.038912095 0.08768494 -0.02122405 -0.05220988
-0.05014251 -0.0773371 0.06318777 0.018464606 0.061116554 0.0018982535 0.08647367 0.07320115
0.054540914 0.08786137 0.024900686 0.0019657374 0.012944054 0.044113953 0.09088343 -0.07342458
0.009370944 -0.000389215 -0.0671168 -0.09332958 0.10157458 -0.0045268103 -0.04437504 -0.008910188
0.023273319 -0.038767476 0.0733006 0.05330379 -0.021945095 -0.024290888 0.040690016 -0.024442617
0.039078124 0.05296078 -0.039201844 -0.00022664186 -0.08277409 0.06815524 -0.0023195664 -0.023144113
-0.028202 -0.08524816 0.025842328 -0.07743154 -0.09588628 -0.014666216 0.073756404 0.041006442
0.03623345 -0.030160936 -0.014743016 0.072167195 0.04162147 0.051418908 -0.10318008 0.04823266
0.026113285 -0.071506895 -0.08848758 0.06253344 0.055995606 0.014965415 -0.041044366 -0.0840511
0.0015093803 -0.04348427 -0.011606727 -0.09896289 0.024778035 0.031165756 -0.052332744 -0.031540383
0.02917759 -0.076901436 0.030261688 -0.009484926 -0.044987142 0.06749487 -0.056269452 -0.06535631
-0.013078945 -0.008705223 -0.06581932 -0.05825387 -0.008293209 0.06489123 -0.031281024 -0.0014133612
0.003844298 0.057464547 -0.04717671 0.002471564 -0.015138767 0.035593227 -0.002207767 -0.058737986
0.045544114 -0.010552896 0.06844194 -0.034077995 -0.1045768 -0.042530622 -0.08741034 0.015078116
0.006797427 -0.047734424 -0.046751965 0.007068041 0.0011463171 0.065764874 0.035625562 0.011525398
-0.021961141 -0.0562757 -0.04599162 0.054417238 -0.008875447 0.047471873 -0.085119456 -0.010082856
-0.044408374 0.015826229 -0.06482186 -0.06367827 0.0159594 -0.061747886 -0.027394341 -0.042034887
-0.047588546 -0.0063152756 -0.06780811 -0.012882047 0.030982532 0.05369062 -0.034224927 -0.0636771
-0.09242478 -0.09736958 -0.0018192522 -0.06499718 -0.03330273 -0.064982824 -0.110869996 0.022885453
-0.06694647 -0.1051739 -0.08776062 -0.015362619 -0.084082894 -0.031992227 0.022709092 -0.050598715
0.019771354 -0.038160343 0.014117637 -0.049770743 -0.0063695065 -0.0844659 -0.110638775 0.029321674
00000000: 7af9 6bbd 9b91 67bc 041f ea3d ebb9 a43b
00000010: 6e20 28bd 1603 603d 2338 9ebd e195 8ebd
00000020: 9618 32bd 418f 603b a9fe f73d c521 bd3d
00000030: 74b1 d23d 32d7 5dbd 6da2 683d 4dd6 863d
00000040: 8577 e3bc fc39 72bd 2912 693b 39ba 45bd
00000050: 6ce3 983d 092e 83bd 1229 973d 05fb 843d
00000060: bd99 073c a6c3 9d3d ffd5 a1bb b47e a5bd
00000070: 6d7f 74bb 853a 53bd 7abb 7fbc 72f8 633d
00000080: 8ca3 933d 126a 953d 1240 1b3d 09e2 2cbd
00000090: 504f 12bc 9db6 413d a018 913d 03ca 81b9
000000a0: 8e5b 7a3c 595c a83d 0339 f13b c164 86bc
000000b0: 48e5 363d 1b2f 99bc ea33 b13d 4d6e c2bb
000000c0: d8bd a7bc 1ceb 39bd 96ad 5bbc 4bcf c13d
000000d0: bafb da3d 2e5a b33d 6ce4 8cbd 16cd c23d
000000e0: 4c8d 75bd d81c 4a3c 1617 2dbd 2423 c03c
000000f0: 2fdf bdbd fec1 f13b 0f28 553d 633f a5bd
00000100: a245 29bd 7997 bfbc af60 48bd 663b 9cbd
00000110: 501b 6abd 4d4b 803d f84f b83d 8e84 e43c
00000120: 3608 0cbd 8211 91bd 4700 97bd 99e4 35bc
00000130: 3336 363d 94a1 223d c3f9 6f3d eb03 733d
00000140: 8233 2e3d 1cb9 b3b9 131b 2fbb 55a1 b23d
00000150: 1a12 b13d 41d1 183d e749 373d a9c8 993b
00000160: ecb9 89bd 3da5 f23d 3e4a bebd 743e 83bd
00000170: 4a62 1fbd 2994 b33d 0fde adbc 07da 55bd
00000180: 3c62 4dbd ea62 9ebd 9768 813d 1643 973c
00000190: 5a55 7a3d d1ce f83a 1c19 b13d 7cea 953d
000001a0: 4b66 5f3d a9f0 b33d 86fc cb3c 9ad3 003b
000001b0: 4c13 543c d5b0 343d 1721 ba3d a05f 96bd
000001c0: 9788 193c 8e0f ccb9 8874 89bd 9423 bfbd
000001d0: 5506 d03d a355 94bb 9ac2 35bd 0afc 11bc
000001e0: b0a7 be3c a5ca 1ebd a01e 963d 1355 5a3d
000001f0: 33c6 b3bc affd c6bc 93aa 263d e23b c8bc
00000200: 6210 203d 67ed 583d 1d92 20bd b6a6 6db9
00000210: 7685 a9bd f994 8b3d de03 18bb b998 bdbc
00000220: e107 e7bc 9696 aebd 4ab3 d33c 6d94 9ebd
00000230: 0760 c4bd 924a 70bc 990d 973d 5ff6 273d
00000240: 8769 143d 1114 f7bc b18c 71bc 65cc 933d
00000250: 467b 2a3d a29c 523d 1450 d3bd 9c8f 453d
00000260: 87eb d53c 3572 92bd fa38 b5bd 8811 803d
00000270: a65b 653d 8031 753c 231e 28bd fc22 acbd
00000280: 66d6 c53a 901c 32bd 242a 3ebc 0ead cabd
00000290: 4efb ca3c 544f ff3c dc5a 56bd 7d30 01bd
000002a0: d705 ef3c 807e 9dbd 5ce7 f73c aa66 1bbc
000002b0: 7044 38bd c03a 8a3d cc7a 66bd 87d9 85bd
000002c0: 1249 56bc 5aa0 0ebc 48cc 86bd 9c9b 6ebd
000002d0: 3de0 07bc b1e5 843d 8820 00bd 8840 b9ba
000002e0: 9ef0 7b3b f25f 6b3d 5e3c 41bd f7f9 213b
000002f0: 9708 78bc 34ca 113d 2fb0 10bb 3e97 70bd
00000300: 778c 3a3d 0ee6 2cbc 4a2b 8c3d 5e95 0bbd
00000310: 5c2c d6bd 9734 2ebd 3104 b3bd 340a 773c
00000320: f3bc de3b 2c85 43bd fd7e 3fbd 069b e73b
00000330: 0540 963a bcaf 863d 1cec 113d 06d5 3c3c
00000340: dae7 b3bc 5981 66bd b561 3cbd 9ce4 5e3d
00000350: 536a 11bc de71 423d 1c53 aebd 9032 25bc
00000360: 8ee5 35bd 02a6 813c 53c1 84bd c169 82bd
00000370: 4abd 823c 5aeb 7cbd 196a e0bc c62c 2cbd
00000380: 35ec 42bd 5ff0 cebb fade 8abd 390f 53bc
00000390: 14cf fd3c b2ea 5b3d 702f 0cbd 2469 82bd
000003a0: 3449 bdbd b469 c7bd f973 eeba 3e1d 85bd
000003b0: 7268 08bd b715 85bd cf0f e3bd 467a bb3c
000003c0: 3b1b 89bd 6a65 d7bd d7bb b3bd 7fb3 7bbc
000003d0: a733 acbd 480a 03bd 6b08 ba3c 9940 4fbd
000003e0: 89f7 a13c 054e 1cbd a94d 673c 68dc 4bbd
000003f0: 4bb7 d0bb 75fc acbd 9596 e2bd 0234 f03c

weight f4 [32, 128]
-0.08280979 0.02415139 -0.101238646 -0.0999896 -0.05337619 -0.030118218 -0.07689072 -0.027350247
-0.039497856 0.007962742 -0.08320456 0.081463344 0.11954074 -0.10317447 -0.0164207 -0.0385988
0.05240253 -0.03475737 -0.043851957 0.0058654295 0.093705386 0.022256078 -0.033105448 -0.03702699
0.0056394828 -0.078426376 0.039020743 0.07231532 0.087204896 0.08587151 -0.011429394 -0.007115394
-0.0906685 -0.044918794 0.026671369 0.03367427 -0.02023606 -0.026774514 -0.010874199 0.0034243495
0.012319319 -0.025964897 -0.024499485 0.061184496 -0.100938454 -0.011553132 -0.08486005 0.0298249
0.039508462 -0.08756035 -0.036484115 0.04550671 0.04761298 -0.082820594 0.023189614 0.052589342
0.01019016 0.05253191 0.009708165 -0.05096123 0.062134292 -0.06675116 -0.04971673 -0.03360265
-0.086381465 0.011334941 -0.024884405 -0.065952964 -0.07764462 -0.06597296 0.048614137 -0.031521413
0.09368822 0.08104361 -0.07751123 -0.0039995164 0.019008543 -0.07346849 -0.022533175 0.045217223
-0.04876609 -0.0055781147 -0.08380967 0.07166531 0.0064918455 0.095717855 -0.01010077 0.029964758
0.06057701 -0.076488055 -0.078856416 -0.039558902 -0.031392906 -0.030616963 0.0052570575 0.05270487
-0.0037475922 0.031266093 0.018100258 -0.09458876 -0.051854856 -0.07337334 -0.06887207 -0.0024177115
-0.0537672 -0.073217675 -0.10833491 0.04857874 0.033267636 -0.039254136 0.042442143 -0.033606302
0.07709031 0.05549239 -0.023257533 0.051453937 0.08162898 -0.025995212 0.099021025 -0.03992252
-0.054154627 0.024481636 0.01107493 -0.048488073 -0.014962295 0.098208 -0.00012030559 0.080597945
-0.032769993 0.08060458 -0.04179005 0.037754335 0.0016014387 -0.06286547 0.07446241 -0.013418002
0.044806495 0.014836089 0.049078736 -0.05208764 -0.048382215 -0.023010142 0.026597844 0.030714735
-0.04456066 0.035860658 0.085865036 -0.044406485 -0.016123516 -0.07099804 -0.039244883 0.08168129
-0.013847006 0.087347865 -0.060244594 0.054829646 -0.023848325 -0.06186873 0.046267007 0.023304375
-0.030403946 0.04114743 -0.014824254 -0.013831592 -0.05440581 0.0860617 -0.122770555 0.07400462
0.078699805 -0.06328036 0.042857178 -0.02428871 0.063008524 -0.04990869 0.09495226 -0.09204425
0.04026557 -0.038503304 0.06465091 0.069831066 -0.097933866 0.062185343 0.07754897 0.022734458
-0.0009592994 -0.008728872 -0.03518573 -0.11077011 -0.06369631 0.0360619 0.02640952 0.060883116
0.011435286 -0.039420236 0.060771238 -0.034090262 -0.051142726 0.055097457 -0.02718866 0.042593963
-0.022528088 0.06239596 0.098455355 -0.019472202 -0.0812849 0.04104485 0.070683025 -0.0513138
-0.011695026 0.004973554 -0.018049218 -0.06922224 0.0066331415 -0.08551792 -0.008091006 -0.04337562
0.0035648767 0.06418148 -0.0016513463 0.015231094 -0.0357527 0.0328626 0.05631731 0.024420394
0.046919253 -0.07128697 0.07867786 0.06744435 -0.023196211 -0.0604601 -0.031808157 0.0038707545
0.066534325 0.020701835 0.0827839 0.016393626 -0.026987536 -0.043358162 -0.06481704 -0.057012733
0.01000139 0.032946616 0.06154399 0.0656122 0.0145894615 -0.07379906 -0.03122032 -0.022947801
0.014192824 -0.06854307 -0.029396094 0.044354778 0.02580868 -0.0038792354 0.0737808 -0.09441431
00000000: 2e98 a9bd 23d9 c53c 3556 cfbd 59c7 ccbd
00000010: fea0 5abd 7bba f6bc e278 9dbd a00d e0bc
00000020: 81c8 21bd 2976 023c 2767 aabd 41d6 a63d
00000030: c7d1 f43d 234d d3bd b484 86bc c619 1ebd
00000040: 09a4 563d be5d 0ebd 1c9e 33bd ca32 c03b
00000050: 9ce8 bf3d 6152 b63c 9499 07bd 9da9 17bd
00000060: 69cb b83b 029e a0bd 37d4 1f3d 0e1a 943d
00000070: 7b98 b23d 67dd af3d 5a42 3bbc 4028 e9bb
00000080: 68b0 b9bd c5fc 37bd ea7d da3c 08ee 093d
00000090: 18c6 a5bc 3a56 dbbc b229 32bc 0d6b 603b
000000a0: f8d6 493c 56b4 d4bc 25b3 c8bc 989c 7a3d
000000b0: d2b8 cebd 5949 3dbc 1bcb adbd 5953 f43c
000000c0: a0d3 213d d752 b3bd 5e70 15bd 3e65 3a3d
000000d0: d405 433d d89d a9bd 25f8 bd3c ec67 573d
000000e0: a1f4 263c b32b 573d ff0e 1f3c b9bc 50bd
000000f0: 8780 7e3d d5b4 88bd c5a3 4bbd efa2 09bd
00000100: c4e8 b0bd 30b6 393c 61da cbbc 5912 87bd
00000110: 2404 9fbd d51c 87bd 9e1f 473d 991c 01bd
00000120: 9cdf bf3d 31fa a53d 35be 9ebd 600e 83bb
00000130: ceb7 9b3c a676 96bd 7e97 b8bc b235 393d
00000140: f4be 47bd 9ec8 b6bb 67a4 abbd 43c5 923d
00000150: 8cb9 d43b b907 c43d b37d 25bc a778 f53c
00000160: 991f 783d c5a5 9cbd 797f a1bd 8408 22bd
00000170: d995 00bd 6dd0 fabc 6543 ac3b 10e1 573d
00000180: 2a9a 75bb e010 003d fe46 943c c0b7 c1bd
00000190: c265 54bd c344 96bd cd0c 8dbd 7872 1ebb
000001a0: ff3a 5cbd 26f3 95bd b1de ddbd 80fa 463d
000001b0: a543 083d f2c8 20bd d0d7 2d3d c3a6 09bd
000001c0: 86e1 9d3d fd4b 633d 9586 bebc 5dc1 523d
000001d0: 182d a73d e9f3 d4bc 89cb ca3d cc85 23bd
000001e0: 3ed1 5dbd b68d c83c a073 353c 6e9b 46bd
000001f0: 6a24 75bc 4721 c93d 924c fcb8 8910 a53d
00000200: d439 06bd 0414 a53d 0b2c 2bbd 4aa4 1a3d
00000210: 5ee7 d13a 9dbf 80bd bf7f 983d 2ed7 5bbc
00000220: 0487 373d 1113 733c c906 493d d959 55bd
00000230: 6e2c 46bd c47f bcbc b9e3 d93c 789d fb3c
00000240: 3d85 36bd a0e2 123d 02da af3d 93e3 35bd
00000250: 7715 84bc 6c67 91bd 3ebf 20bd 8548 a73d
00000260: 8dde 62bc 70e3 b23d 09c3 76bd 0d95 603d
00000270: 905d c3bc 116a 7dbd 7982 3d3d d1e8 be3c
00000280: b211 f9bc 358a 283d 6ee1 72bc e79d 62bc
00000290: a0d8 5ebd 1e41 b03d 216f fbbd bc8f 973d
000002a0: 5d2d a13d 2299 81bd 028b 2f3d 1ef9 c6bc
000002b0: 9d0a 813d 0e6d 4cbd 5576 c23d b281 bcbd
000002c0: 83ed 243d a4b5 1dbd b267 843d 9703 8f3d
000002d0: 8d91 c8bd 0fb6 7e3d ffd1 9e3d 9d3d ba3c
000002e0: 7e79 7bba 8b03 0fbc e91e 10bd 70db e2bd
000002f0: 3673 82bd a5b5 133d c758 d83c 9360 793d
00000300: 115b 3b3c 1d77 21bd 43eb 783d 3ba2 0bbd
00000310: 097b 51bd dfad 613d c1ba debc 0277 2e3d
00000320: d38c b8bc e892 7f3d f6a2 c93d 2b84 9fbc
00000330: b378 a6bd a51e 283d 43c2 903d 6b2e 52bd
00000340: 7f9c 3fbc 32f9 a23b f4db 93bc 64c4 8dbd
00000350: d35a d93b 0524 afbd 2490 04bc a2aa 31bd
00000360: b5a0 693b 9471 833d fd71 d8ba d78b 793c
00000370: 6c71 12bd ef9a 063d fbac 663d 470d c83c
00000380: 672e 403d e7fe 91bd dc21 a13d 4320 8a3d
00000390: fb05 bebc 03a5 77bd 4549 02bd 7cac 7d3b
000003a0: 2643 883d e596 a93c 9b8a a93d ed4b 863c
000003b0: f714 ddbc 5498 31bd ccbe 84bd 2f86 69bd
000003c0: dfdc 233c 08f3 063d 8d15 7c3d b05f 863d
000003d0: a308 6f3c f623 97bd c2c1 ffbc 07fd bbbc
000003e0: 0589 683c 4f60 8cbd 14d0 f0bc 5bad 353d
000003f0: ba6c d33c c53a 7ebb 631a 973d 4a5c c1bd

bias f4 [32]
0.03521316 -0.03418127 0.014713324 0.050840978 0.033902977 -0.036599264 0.048741017 -0.018449314
-0.10889581 -0.21658824 -0.013189868 -0.029570315 -0.028758012 -0.046203256 0.01853538 -0.018565208
0.082228616 0.0013131308 -0.04263509 0.044931598 -0.0069208727 0.02423101 -0.06200712 0.0664639
0.042392563 0.093196966 -0.005126534 0.05016058 0.017493123 -0.04620826 -0.16987844 -0.011340079
00000000: ad3b 103d a901 0cbd 2710 713c a13e 503d
00000010: d9dd 0a3d 1ce9 15bd a9a4 473d 0423 97bc
00000020: c404 dfbd 4fc9 5dbe 511a 58bc 723d f2bc
00000030: ec95 ebbc a03f 3dbd 82d7 973c 1016 98bc
00000040: 7a67 a83d 5c1d ac3a 22a2 2ebd 320a 383d
00000050: 7dc8 e2bb 1c80 c63c 2efb 7dbd 3a1e 883d
00000060: d3a3 2d3d 0dde be3d 7cfc a7bb 2e75 4d3d
00000070: bd4d 8f3c df44 3dbd 9df4 2dbe bdcb 39bc

weight f4 [1, 32]
-0.037296075 0.05118986 -0.06606876 -0.07557888 0.085580274 0.028670508 -0.08134973 0.07281032
0.077622846 0.09073639 -0.07323368 -0.08232115 0.08136102 0.03289498 0.08284602 -0.07476657
0.020022664 0.049011625 -0.09122165 0.026939463 -0.07349186 0.031941134 -0.0976885 0.022098996
0.020292593 -0.022161089 0.06911201 -0.015944185 -0.04446835 -0.07398621 -0.10006252 0.091011226
00000000: c5c3 18bd 75ac 513d 0f4f 87bd 1ac9 9abd
00000010: b644 af3d 6ade ea3c b09a a6bd 941d 953d
00000020: baf8 9e3d 00d4 b93d 8afb 95bd fe97 a8bd
00000030: 9ba0 a63d e3bc 063d 2dab a93d 371f 99bd
00000040: 9206 a43c 6ac0 483d 6bd2 babd 26b0 dc3c
00000050: e682 96bd b5d4 023d e910 c8bd f408 b53c
00000060: a73c a63c 2c8b b5bc 998a 8d3d 619d 82bc
00000070: 7224 36bd 1586 97bd 94ed ccbd 1864 ba3d
