data/Superior/sens_superior.pt (torch, 338417 bytes, 7 tensors)

weight_ih_l0 f4 [512, 24]
0	0xbbebb75f	-0.0071934904
1	0x3d833ed5	0.06408469
2	0xbc452a41	-0.012034
3	0xbd63bb8e	-0.055598788
4	0x3d0eff48	0.034911424
5	0xbd91692c	-0.07100138
6	0xbdb7b049	-0.089691706
7	0x3d3a9f0f	0.045561846
8	0xbd873add	-0.06603024
9	0xbd6ed728	-0.058310658
10	0xbd03eeda	-0.03221021
11	0x3cc4dbfb	0.024030676
12	0xbda2a2c5	-0.07941202
13	0x3d0fb822	0.035087712
14	0xbd74cc5d	-0.05976521
15	0x3da9d6ce	0.08292924
16	0x3cb635fd	0.02224254
17	0xbd7f8d57	-0.06239065
18	0xbd537717	-0.051627245
19	0x3d737e27	0.05944648
20	0x3d8974c4	0.067117244
21	0xbd52b567	-0.05144253
22	0x3cf32de2	0.029684965
23	0xbd995a39	-0.07487912
24	0x3da1e61a	0.079052165
25	0x3d421981	0.047387604
26	0xbd3087ee	-0.043098383
27	0x3d5e7d80	0.054318905
28	0xbd905704	-0.07047847
29	0x3ce59421	0.028024735
30	0x3d7e4a68	0.062082678
31	0xbdbb8af6	-0.09157364
32	0x3d321aaf	0.04348248
33	0xbc681cca	-0.01416702
34	0xbae4268a	-0.0017406505
35	0xbd55eb84	-0.05222656
36	0xbd46d302	-0.048541076
37	0x3d5d4081	0.054016594
38	0x3cff44c9	0.031160729
39	0xbc1ccc7e	-0.009570239
40	0x3d4afce2	0.049557574
41	0xbd856815	-0.06513993
42	0xbdb4a694	-0.08820835
43	0xbd9aade2	-0.07552697
44	0xbbbbf2fc	-0.005735753
45	0xbd9ffc50	-0.07811797
46	0xbd80af4d	-0.06283436
47	0xbc4d90b6	-0.012546709
48	0xbc54e74d	-0.0129945995
49	0x3c927302	0.017877106
50	0x3d14ba77	0.03631064
51	0x3cb830ea	0.022484262
52	0x3c790bcc	0.0152005665
53	0xbdc45362	-0.095862165
54	0xbd623814	-0.05522926
55	0x3ca701da	0.020386625
56	0x3d532f35	0.051558692
57	0xbd9b10c1	-0.07571555
58	0xbd60747a	-0.05479858
59	0xbdbf9955	-0.09355418
60	0x3d4c696e	0.049905233
61	0xbdaf5190	-0.08560479
62	0xbd8e8a28	-0.06959945
63	0x3cbd30ce	0.023094561
64	0xbc268209	-0.010162839
65	0x3ccd7c4c	0.025083683
66	0x3d6360ca	0.055512227
67	0x3cc50c17	0.024053616
68	0xbd0a7afc	-0.033808693
69	0xbda578cf	-0.08079683
70	0xbdaad9cf	-0.08342325
71	0x3b18578b	0.002324554
72	0xbcf688a7	-0.030094458
73	0x3d57a538	0.0526478
74	0xbc1632db	-0.009167398
75	0x3d5b3f21	0.053527
76	0xbd80d5a0	-0.06290746
77	0xbd4ba68d	-0.049719382
78	0x3c3bc1a7	0.011459745
79	0x3daa422d	0.08313403
80	0x3d9617bc	0.07328746
81	0xbcd69fb8	-0.026199207
82	0x3d00e929	0.03147236
83	0xbbfbf34e	-0.0076889163
84	0x3d0e5645	0.03475024
85	0x3dda5c60	0.106621504
86	0x3d2a34e3	0.041554343
87	0x3d41c167	0.047303583
88	0xb9b695aa	-0.00034825254
89	0x3dd06834	0.10176125
90	0xbcfb64a9	-0.030687647
91	0x3c89d198	0.016823575
92	0x3d9d57b4	0.07682744
93	0x3dd663a6	0.10468225
94	0x3d6bf982	0.057610996
95	0x3cc7198e	0.024304178
96	0x3d4d53e3	0.05012883
97	0xbad9ffd7	-0.0016632032
98	0xbdba73d8	-0.09104127
99	0xbd98427b	-0.07434555
100	0xbdc279b2	-0.09495868
101	0xbdad38b5	-0.08458082
102	0xbd165630	-0.03670329
103	0xbda22ede	-0.079190955
104	0x3d1082da	0.03528104
105	0xbd2e16c3	-0.042502176
106	0x3d433150	0.04765445
107	0xbcaa8c22	-0.020818774
108	0x3d9b8a05	0.075946845
109	0xbcc85ea2	-0.024459187
110	0xbd4b839d	-0.049686063
111	0xbd9645c3	-0.07337525
112	0xbc092465	-0.008370494
113	0xbd6c641c	-0.05771266
114	0x3d454ddc	0.048169956
115	0xbc952abc	-0.018208854
116	0x3cd1b4a5	0.025598833
117	0xbd9b097a	-0.07570167
118	0xbd2d7088	-0.042343646
119	0x3ca03727	0.019557549
120	0xbdb321d3	-0.08746686
121	0x3cb7d078	0.022438273
122	0xbda07116	-0.078340694
123	0x3d693423	0.056934487
124	0xbdad5e5c	-0.08465263
125	0xbc27fbd8	-0.010252915
126	0x3d8825f6	0.066478655
127	0x3d1f4dc5	0.038892526
128	0x3d6a413e	0.057191126
129	0xbdc07929	-0.093981095
130	0x3cca0c0c	0.024663948
131	0x3d4f0f69	0.050551806
132	0x3da51cf9	0.08062167
133	0xbd1d0c9f	-0.038342115
134	0xbc916919	-0.01775031
135	0xbc8009d3	-0.015629685
136	0x3d839808	0.06425482
137	0x3c57d2a5	0.01317278
138	0x3d95e4a6	0.07319002
139	0xbcca1d8b	-0.02467229
140	0x3da06497	0.07831686
141	0x3cf5524d	0.02994647
142	0xbbd7be31	-0.006583952
143	0xbd4f8d85	-0.050672073
144	0x3ba5ae07	0.005056146
145	0xbdac09c5	-0.08400301
146	0x3d59756c	0.053090498
147	0x3cb85fde	0.02250665
148	0xbd305a93	-0.04305513
149	0x3d8ee2a8	0.06976825
150	0xbc452abf	-0.012034117
151	0xbd40baf7	-0.047053304
152	0xbda910ab	-0.08255132
153	0xbd745cc1	-0.05965877
154	0xbadde38a	-0.0016928774
155	0x3a60f902	0.0008582027
156	0x3d637168	0.055528075
157	0x3cb252d0	0.021768004
158	0xbda2ef9a	-0.079558566
159	0xbdb75841	-0.0895238
160	0x3da7dfc4	0.08196977
161	0xbc56748b	-0.013089309
162	0x3d09d26c	0.03364794
163	0xbd90b659	-0.0706603
164	0x3cedb0cf	0.029014973
165	0x3d0cd112	0.034379072
166	0x3c008e12	0.007846372
167	0x3d019633	0.03163738
168	0xbd50ea32	-0.051004596
169	0x3ce92b13	0.028462922
170	0x3cf7e8e7	0.030262424
171	0xbce9d6b3	-0.02854476
172	0x3be2268f	0.006901569
173	0xbd43608c	-0.047699496
174	0x3d8065f7	0.06269448
175	0xbd0517db	-0.032493453
176	0xbcb08f7f	-0.0215528
177	0xbc3bbd3c	-0.011458691
178	0x3db287a0	0.08717275
179	0xbd07557b	-0.033040505
180	0x3dc31822	0.09526087
181	0x3da0baf6	0.0784816
182	0x3d0dfc14	0.03466423
183	0xbc2ca93a	-0.010538394
184	0xbda3fe53	-0.08007493
185	0x3d5236ab	0.051321667
186	0xbcf01de4	-0.029311128
187	0xbda7a01d	-0.08184836
188	0xbd6ece3f	-0.05830216
189	0xbd359df3	-0.044340085
190	0xbd167b5d	-0.036738742
191	0x3daaf75f	0.083479635
192	0xbd33f718	-0.04393682
193	0xbb9ab558	-0.004721325
194	0x3c880249	0.016602652
195	0xbd73420e	-0.059389167
196	0xbc183a49	-0.00929124
197	0xbd3ee874	-0.046608403
198	0x3cbc98cf	0.023022084
199	0xbc8e2fe0	-0.017356813
200	0xbd386121	-0.045014504
201	0x3cfd81f7	0.030945761
202	0xbdca87d9	-0.09889192
203	0xbc7b1a4c	-0.015326094
204	0x3d950ec0	0.07278204
205	0xbdbdfed6	-0.09277122
206	0x3c08eb12	0.008356826
207	0x3d27b62e	0.040945224
208	0x3cd358e2	0.025799219
209	0x3d573d28	0.052548558
210	0x3d2eebaf	0.042705234
211	0x3d4202a9	0.04736582
212	0xbc631850	-0.013860777
213	0x3c2c9526	0.010533607
214	0xbc4a4913	-0.012346524
215	0xbd1b6587	-0.03793862
216	0x3daf8fd9	0.08572359
217	0x3d90cdac	0.07070479
218	0xbc020daa	-0.007937828
219	0xbc7fe788	-0.015619166
220	0xbccf95dd	-0.025340015
221	0x3d402d8a	0.04691843
222	0x3d228d89	0.03968576
223	0x3d18594b	0.03719453
224	0x3c84b885	0.016201267
225	0xbd8e2a46	-0.06941657
226	0xbd59c8bf	-0.053169962
227	0x3c74948d	0.014927995
228	0xbd897b26	-0.06712942
229	0xbd33c81d	-0.043892015
230	0xbc48e278	-0.012261026
231	0xbd8fc7d5	-0.07020537
232	0xbbd3ab51	-0.0064596315
233	0x3d3016ef	0.04299062
234	0x3db1f238	0.08688778
235	0x3d8766d8	0.06611413
236	0xbc9229ce	-0.0178422
237	0xbd8a5ead	-0.06756339
238	0x3d4f61f7	0.050630536
239	0x3c423124	0.011852536
240	0x3d38174b	0.04494409
241	0x3d89b571	0.0672406
242	0xbd64ad95	-0.055829603
243	0xbabfdf4f	-0.0014638695
244	0x3d8a8445	0.0676351
245	0xbd7b2c0d	-0.061321307
246	0x3d1eeee2	0.038802035
247	0x3d9f16f4	0.0776805
248	0xbd035c49	-0.03207043
249	0xbd2ae1e3	-0.04171933
250	0x3c2c70ca	0.010524938
251	0xbd39a797	-0.04532584
252	0xbd440efa	-0.047865845
253	0xbd2c8065	-0.042114634
254	0xbd073f56	-0.033019386
255	0x3d43857f	0.047734734

weight_hh_l0 f4 [512, 128]
0	0x3da4447d	0.080208756
1	0x3c9df65e	0.019282516
2	0xbd6a14f7	-0.0571489
3	0xbc2a0b7e	-0.0103787165
4	0x3db6c9cd	0.08925209
5	0xbcb533f1	-0.022119494
6	0xbd344a11	-0.044015948
7	0x3cb53c3a	0.022123445
8	0xbcd5f8d4	-0.026119627
9	0x3c40b69a	0.011762286
10	0xbce41770	-0.027843207
11	0xbd2fde0e	-0.042936377
12	0x3cfe86ee	0.031070199
13	0xbdb78f7a	-0.08962913
14	0x3d84744f	0.064674966
15	0x3d86034c	0.065435976
16	0x3dc1e44e	0.09467374
17	0x3cbe4573	0.023226475
18	0xbd57a56a	-0.052647986
19	0x3d38ec53	0.04514725
20	0x3d98318a	0.07431324
21	0xbdc9cc2a	-0.09853394
22	0x3ccbca64	0.02487678
23	0x3d1552f9	0.036456082
24	0x3d724dfa	0.059156395
25	0xbd079e43	-0.033109915
26	0xbd15df4d	-0.03658991
27	0xbdaabb2c	-0.083364815
28	0xbd55c8d1	-0.052193467
29	0x3d18c3bd	0.037296046
30	0x3d125dfd	0.035734165
31	0xbba640d1	-0.0050736447
32	0xbdae4076	-0.08508389
33	0x3c931324	0.017953463
34	0xbd4b65f5	-0.04965778
35	0xbd3acdcf	-0.04560643
36	0x3d6a83c2	0.05725456
37	0xbdd2c6e9	-0.10291845
38	0xbc6e598f	-0.01454772
39	0xbc9c6c0e	-0.019094493
40	0xbda015c5	-0.07816652
41	0xbcb4dc52	-0.022077713
42	0x3d22e4e4	0.03976907
43	0xbdab0123	-0.08349826
44	0x3bbee9c2	0.005826206
45	0x3d56e0f5	0.05246063
46	0x3d2eed4a	0.042706765
47	0xbd54ba18	-0.051935285
48	0xbb9c68a5	-0.004773217
49	0x3ca548ab	0.020176252
50	0xbc54f87b	-0.0129986955
51	0xbd5853c7	-0.05281427
52	0x3d1caf43	0.03825308
53	0x3d40ade1	0.047040824
54	0xbcd1916f	-0.025582043
55	0x3c82edab	0.01598247
56	0x3de1e05d	0.11029122
57	0xbd22a459	-0.039707515
58	0xbd13ce08	-0.03608516
59	0x3d37a260	0.044832587
60	0x3d2f51f5	0.04280277
61	0xbd41eaf4	-0.04734321
62	0xbcf0bec5	-0.029387841
63	0x39c04762	0.00036674278
64	0xbd2f8423	-0.042850625
65	0x3d11869a	0.035528757
66	0xbd84c9af	-0.064837806
67	0x3d1c6799	0.038184736
68	0x3d4abe39	0.049497817
69	0xbdb78346	-0.08960585
70	0xbda98362	-0.082770124
71	0xbc9a95c3	-0.01887024
72	0x3d154a05	0.036447544
73	0xbd9dbf05	-0.0770245
74	0x3d866536	0.06562273
75	0xbdebd1a5	-0.11514596
76	0x3d004e1e	0.0313245
77	0x3d04fca0	0.032467484
78	0x3d22d71b	0.03975592
79	0xbda4a737	-0.08039706
80	0x3d5d4e02	0.054029472
81	0xbd962c04	-0.07332614
82	0xbcca5ea9	-0.02470334
83	0xbcf76c2e	-0.030202951
84	0xbd5554f1	-0.05208296
85	0x3da18543	0.07886746
86	0x3d7c998a	0.061669864
87	0x3d861570	0.06547058
88	0x3de803ad	0.11328826
89	0x3cb1271a	0.02162509
90	0x3d4d8127	0.050171997
91	0x3d1a3c3e	0.037655108
92	0xbd0a3bb6	-0.03374835
93	0xbd22c673	-0.039740037
94	0xbcaed95b	-0.021343878
95	0x3bc63d5c	0.006049795
96	0x3c6f57d4	0.014608342
97	0xbd36a8e3	-0.044594657
98	0xbce1d870	-0.027569026
99	0x3d15e75b	0.03659759
100	0xbd142596	-0.036168657
101	0x3c188098	0.009308003
102	0x3bc26b89	0.0059332293
103	0xbd695205	-0.056962986
104	0x3cc4b39e	0.02401143
105	0xbcae66c2	-0.021289233
106	0xbd8099ce	-0.06279336
107	0x3d27acd9	0.040936325
108	0xbcd96d09	-0.02654125
109	0x3bb9fa64	0.005675601
110	0x3aaab4d2	0.0013023859
111	0x3c784a13	0.015154379
112	0x3da4519a	0.08023377
113	0xbd83ee3c	-0.06441924
114	0x3c218f6d	0.0098608555
115	0x3d9c2b5f	0.0762546
116	0x3cfbe330	0.03074798
117	0x3d5cdc41	0.053920988
118	0xbd6a4fff	-0.057205196
119	0xbd8a99fa	-0.0676765
120	0xbd4f4b9f	-0.050609227
121	0x3dd2c6dc	0.10291836
122	0x3d736ad6	0.05942806
123	0xbd58bc55	-0.052913982
124	0xbc7d3652	-0.0154548455
125	0xbcf31f58	-0.029678032
126	0xbcd89f4d	-0.026443148
127	0x3d053ed6	0.03253063
128	0x3da2ee19	0.0795557
129	0xbd89bd9f	-0.067256205
130	0x3b87e842	0.0041475603
131	0xbd903a6b	-0.07042392
132	0x3d6a84ae	0.05725544
133	0xbda86f96	-0.08224408
134	0xbd422385	-0.047397155
135	0xbccd1635	-0.025035003
136	0xbd0c317d	-0.034226883
137	0xbda810dc	-0.08206341
138	0xbc196d51	-0.009364442
139	0xbd3f9c7f	-0.046780106
140	0xbd34fe2c	-0.04418771
141	0x3c7f68fe	0.015588997
142	0xbd8a4a2c	-0.067524284
143	0x3c4e034f	0.012574031
144	0x3d3940ca	0.045227803
145	0xbce0822d	-0.027405823
146	0x3d9c60f4	0.0763568
147	0x3d9f5ed8	0.07781762
148	0x3d0fd665	0.035116572
149	0x3cf6d184	0.030129202
150	0xbcd59560	-0.026072204
151	0x3d0f155c	0.03493248
152	0xbd3b7143	-0.04576231
153	0xbd82bf7b	-0.06384178
154	0x3d2fbf34	0.042906955
155	0x3d75526d	0.05989306
156	0x3d118883	0.03553058
157	0x3c508a24	0.012728248
158	0xbd92e52c	-0.07172617
159	0xbb711c6e	-0.0036790627
160	0x3ca34989	0.019932525
161	0x3d99b7dc	0.075057715
162	0xbd0eb3b3	-0.034839343
163	0x3c892707	0.016742243
164	0x3d2e6aeb	0.042582434
165	0xbbaf0e74	-0.005342299
166	0x3cafe9ee	0.021473851
167	0xbd3797b6	-0.044822417
168	0xbd7f2f56	-0.062301002
169	0xbdadca7b	-0.08485886
170	0xbc832058	-0.016006634
171	0xbdb1ae2e	-0.086758
172	0x3d92c699	0.07166786
173	0x3cb1523a	0.021645654
174	0xbd8e38f9	-0.069444604
175	0xbc5f9ba1	-0.013647945
176	0xba9bbd06	-0.0011881895
177	0x3cf90bdc	0.030401163
178	0xbcf6be14	-0.030119933
179	0xbc3be1b6	-0.011467388
180	0xbd6a1079	-0.057144616
181	0xbd4d61cf	-0.050142106
182	0xbcc148d3	-0.023594296
183	0xbd09a10a	-0.033600844
184	0x3d596fe3	0.05308522
185	0x3ca7c3e3	0.020479148
186	0x3d2dfb1c	0.042475805
187	0x3d9b9e70	0.07598579
188	0xbd70c5d7	-0.058782425
189	0x3cb0fb20	0.02160412
190	0xbd5a166a	-0.053244032
191	0x3d068d19	0.032849405
192	0xbcad2286	-0.021134626
193	0x3d5bae8f	0.05363327
194	0x3cb18fe1	0.021675052
195	0x3d2049bb	0.039132815
196	0x3dac85d6	0.08423965
197	0x3daa90c4	0.08328393
198	0xbd9a04fe	-0.075204834
199	0xbdc768a9	-0.09736759
200	0x3d0677e4	0.03282918
201	0xbd91b9fe	-0.07115553
202	0x3c94c4f2	0.018160317
203	0xbd2d2106	-0.04226782
204	0x3d9d3063	0.07675245
205	0xbc6dbd85	-0.014510517
206	0xbc570872	-0.013124572
207	0xbd3a9b4c	-0.04555826
208	0x3cbcb9c0	0.023037791
209	0x3b7beba2	0.0038440009
210	0x3d6213e4	0.05519475
211	0x3d1e9599	0.038716886
212	0xbd09af6f	-0.033614572
213	0x3c21ab90	0.009867564
214	0x3c82853b	0.01593267
215	0xbd8d99fc	-0.06914136
216	0x3d9144ce	0.070932016
217	0xbc9426a8	-0.018084839
218	0xbd24af68	-0.040206343
219	0x3db6d4db	0.08927318
220	0x3d3ad915	0.04561718
221	0x3b2cbb09	0.0026356599
222	0x3cdf6761	0.027270975
223	0xbc2ef2c8	-0.010678001
224	0xbba26c16	-0.0049567325
225	0xbcebb0a6	-0.028770756
226	0xbc0be9fa	-0.008539671
227	0xbcf71578	-0.030161604
228	0x3cff6496	0.031175893
229	0xbdbc88ee	-0.09205805
230	0xbb397126	-0.0028296201
231	0x3db5316d	0.08847318
232	0x3cfcd785	0.030864486
233	0xbbb233bc	-0.005438296
234	0x3c933e82	0.017974142
235	0x3d5b58fd	0.053551663
236	0x3c9f08c0	0.019413352
237	0x3da59568	0.080851376
238	0xbc40c72b	-0.011766235
239	0x3d5b39f4	0.053522065
240	0x3bd31921	0.0064422046
241	0x3d74b23a	0.059740283
242	0xbd911cf9	-0.07085604
243	0x3d55db40	0.052211046
244	0xbd0bb0f7	-0.034104314
245	0xbd8307f4	-0.06398001
246	0x3da1bc0c	0.07897195
247	0xbcd0aade	-0.0254721
248	0xbbdf0416	-0.006805907
249	0xbd4acdd6	-0.049512707
250	0x3da68f58	0.081328094
251	0xbd956a88	-0.0729571
252	0xbd05d941	-0.032677893
253	0xbc85bd2b	-0.016325554
254	0xbd40e49a	-0.04709301
255	0xbd10a97d	-0.035317887

bias_ih_l0 f4 [512]
0	0xba2e0ee7	-0.0006639794
1	0xbc10fa69	-0.008848765
2	0xbbb80f85	-0.0056170844
3	0x3d77b2de	0.060473315
4	0xbd440002	-0.04785157
5	0x3c6b908e	0.014377726
6	0x3dba5a7e	0.09099291
7	0x3d607b51	0.054805104
8	0x3c00a6e5	0.007852291
9	0x3de74e8b	0.11294278
10	0xbd2231fa	-0.039598443
11	0x3cc1ba42	0.023648385
12	0x3d6ec93a	0.058297373
13	0xbd0caf35	-0.034346778
14	0x3d14eab7	0.036356654
15	0xbd278bdf	-0.040904876
16	0x3ccec9a9	0.025242643
17	0x3da2bffa	0.07946773
18	0xbc8519c7	-0.016247643
19	0xbda25fa9	-0.07928402
20	0xbd8a943a	-0.06766553
21	0x3d9681d5	0.07348982
22	0xbda5772f	-0.08079373
23	0xbce37e15	-0.027770082
24	0x3c4b8423	0.012421641
25	0x3d4b97c4	0.04970528
26	0xbd9dc9ab	-0.07704481
27	0xbb2a1eef	-0.002595838
28	0x3df61279	0.12015242
29	0xbd5b3c65	-0.053524394
30	0x3d7b23cf	0.061313447
31	0x3de1b4a7	0.11020785
32	0xbc88dfef	-0.016708342
33	0x3ddbae0c	0.10726556
34	0xbdb1c76d	-0.086806156
35	0x3cd490b1	0.0259479
36	0xbd6c750f	-0.057728823
37	0xbccc85b0	-0.02496609
38	0x3d2f047a	0.04272888
39	0x3a1642a8	0.00057319785
40	0xbd56e52f	-0.05246466
41	0x3d49f170	0.04930252
42	0x3d8b11d6	0.06790511
43	0xbcbd5cad	-0.02311548
44	0x3d5967a8	0.05307737
45	0xbd93ba59	-0.07213277
46	0x3dad0516	0.08448236
47	0xbc125c8f	-0.0089332005
48	0x3d40ecfe	0.047101013
49	0x3d52d819	0.051475618
50	0x3d17cc90	0.03706032
51	0xbd8f250a	-0.069894865
52	0xbd7176b1	-0.058951084
53	0xbd487f18	-0.04894933
54	0xbd3b8508	-0.045781165
55	0xbd7602ba	-0.060061194
56	0xbd532b1c	-0.051554784
57	0x3c06fc77	0.008238903
58	0xbc3f4631	-0.01167445
59	0x3dc61828	0.09672576
60	0xbd3e4502	-0.04645253
61	0xbd59b717	-0.053153124
62	0xbc288b5a	-0.01028713
63	0xbd31f31d	-0.04344474
64	0x3d734cb0	0.059399307
65	0xb94244b2	-0.00018526873
66	0x3c0a8d45	0.008456533
67	0xbd1f7971	-0.038934175
68	0xbd044fb5	-0.032302577
69	0x3c84ef07	0.016227258
70	0x3d964426	0.07337217
71	0x3d14ac32	0.03629703
72	0xbb0dae71	-0.0021618868
73	0x3bc40c3c	0.0059829038
74	0x3dee814e	0.11645757
75	0xbcec0d3f	-0.02881491
76	0x3da0f592	0.07859339
77	0x3d7d995e	0.06191384
78	0xbc488fab	-0.012241284
79	0x3b357c4b	0.0027692493
80	0x3de19844	0.110153705
81	0xbd95934e	-0.07303487
82	0x3d82e16c	0.06390652
83	0x3c9218d6	0.017834108
84	0xbda4c639	-0.080456205
85	0x3cb08590	0.021548063
86	0xbb7da1a9	-0.0038701093
87	0xbb71c0a6	-0.003688851
88	0x3d30c0ff	0.043152805
89	0xbd71f514	-0.059071615
90	0xbda953e5	-0.08267955
91	0xbcc041e2	-0.023468915
92	0xbc20fab7	-0.0098254
93	0xbc636c4c	-0.0138808
94	0x3bc5ebb6	0.006040062
95	0xbd83c843	-0.06434681
96	0xbc817eee	-0.015807595
97	0x3d59ebd1	0.053203408
98	0x3c42c620	0.011888057
99	0x3d8ab547	0.06772857
100	0x3d485cb8	0.04891655
101	0xbd98e5a2	-0.07465674
102	0xbcfe38c6	-0.031032931
103	0x3d99f757	0.075178795
104	0xbcaf509c	-0.021400742
105	0x3da0e092	0.078553334
106	0x3db90737	0.09034579
107	0x3d90e441	0.07074786
108	0xbc44a516	-0.01200225
109	0xbc22e4f2	-0.00994228
110	0x3c73e50e	0.014886154
111	0x3c977ca3	0.018492049
112	0x3d8d123c	0.068882436
113	0xbda994aa	-0.082803085
114	0xbd8098d3	-0.06279149
115	0xbb803068	-0.0039120205
116	0x3db088db	0.08619853
117	0x3d9e2e35	0.07723657
118	0x3da2b4d2	0.07944645
119	0x3dcc7527	0.099832825
120	0x3d9e8cbd	0.077416874
121	0xbd980d2e	-0.07424389
122	0x3db834b0	0.08994424
123	0xbd1e4901	-0.03864384
124	0x3b4ea611	0.0031532089
125	0x3d85046a	0.064949825
126	0x3dcaa026	0.09893827
127	0xbbcadc38	-0.006190803
128	0xbe008078	-0.12549007
129	0xbd95f16f	-0.073214404
130	0xbd82da26	-0.06389265
131	0x3d648204	0.055788055
132	0x3c9c1862	0.019054595
133	0xbaae913f	-0.0013318433
134	0x3ccc4b45	0.024938235
135	0xbbd468c0	-0.0064822137
136	0xbcbdeab5	-0.023183206
137	0xbd7af2d7	-0.061266746
138	0x3c3e0335	0.011597444
139	0xbc525092	-0.012836592
140	0xbdc5623b	-0.096378766
141	0xbc1e1f2b	-0.009650986
142	0x3a1307af	0.000560875
143	0xbd3cf723	-0.046134125
144	0xbd8344c4	-0.064096004
145	0xbd4ec8b9	-0.050484393
146	0xbd5befb2	-0.05369539
147	0xbd42dcd4	-0.04757388
148	0xbd515e22	-0.051115163
149	0x3cc1b86c	0.02364751
150	0xbddcc888	-0.10780436
151	0xbd18875d	-0.037238467
152	0xbdd936bd	-0.106061436
153	0xbcc0b1e8	-0.023522332
154	0xbd170fed	-0.036880422
155	0xbdce4915	-0.10072533
156	0xbcf26fb6	-0.029594284
157	0x3c69ea03	0.014276984
158	0x3d667ffa	0.05627439
159	0x3d6a2daf	0.057172474
160	0xbd9a710a	-0.07541092
161	0xbdb684c3	-0.08912041
162	0xbda0e1a7	-0.0785554
163	0x3d59c863	0.05316962
164	0x3d6b67aa	0.05747191
165	0xbbe4dac6	-0.0069840876
166	0xbda14efe	-0.07876395
167	0xbc3a1bac	-0.011359137
168	0x3c1c4796	0.009538552
169	0x3d0fb681	0.03508616
170	0xbb79b6a6	-0.0038103252
171	0xbd7bbd8c	-0.061460063
172	0x3b10090a	0.0021978044
173	0xbd38e965	-0.045144457
174	0xbd1e810d	-0.03869729
175	0x3ca7fa5c	0.020505123
176	0x3c9f3078	0.019432291
177	0x3d8b6695	0.06806675
178	0x3c99b338	0.018762216
179	0x3d23ad37	0.039960112
180	0xbdb3ee6c	-0.0878571
181	0x3c389e06	0.0112681445
182	0x3d5661ea	0.052339472
183	0x3d719fa1	0.058990125
184	0xbbddb163	-0.006765531
185	0xbd14b4c1	-0.036305193
186	0x3d6af639	0.057363722
187	0xbca8fa22	-0.020627085
188	0x3d8311bf	0.06399869
189	0xbbb26ed3	-0.00544534
190	0xbd8d7948	-0.06907898
191	0xbd8ce912	-0.06880392
192	0xbda6ae47	-0.081387095
193	0x3d5e1d5b	0.054227214
194	0xbd3a27ad	-0.045447994
195	0xbd6e1d14	-0.0581332
196	0xbd38a12e	-0.045075588
197	0x3cbc6a5c	0.022999935
198	0xbd2682e7	-0.040652182
199	0xbd4b9e8c	-0.04971175
200	0xbd801629	-0.06254227
201	0xbc3ecceb	-0.011645536
202	0xbd8017a0	-0.06254506
203	0x3d592f6d	0.053023744
204	0xbdec4b1b	-0.11537763
205	0xbdb86e46	-0.09005408
206	0x3d1ef492	0.03880746
207	0xbc6b3ada	-0.014357293
208	0x3cf70836	0.030155282
209	0xbd45031e	-0.048098676
210	0xbd7258f7	-0.059166875
211	0x3b5ce3df	0.0033705158
212	0xbd63d902	-0.055626877
213	0x3d65f77b	0.05614422
214	0x3bcc9922	0.006243841
215	0x3d7a2a86	0.06107571
216	0xbb5455cc	-0.0032399772
217	0x3d513f72	0.051085897
218	0x3d762de1	0.060102347
219	0xbde88bcc	-0.11354789
220	0xbdcc33aa	-0.09970792
221	0x3c998413	0.018739736
222	0xbddf65a3	-0.109080575
223	0xbd354f40	-0.04426503
224	0x3d529bb5	0.051418025
225	0x3b466692	0.003027354
226	0xbdc94751	-0.09828056
227	0x3d5fd98e	0.054650836
228	0xbdac91ba	-0.08426233
229	0x3ca9dcf5	0.020735243
230	0x3d6f68b2	0.058449455
231	0xbd620ee4	-0.055189982
232	0x3d8e0d8b	0.06936177
233	0x3d08fb65	0.033442874
234	0xbda2afea	-0.07943709
235	0xbc08ee95	-0.008357664
236	0xbd92d7d1	-0.0717007
237	0xbc606cee	-0.013697846
238	0xbd3a57df	-0.045493957
239	0xbcfcd03f	-0.030861018
240	0xbd08619f	-0.033296224
241	0xbda6f047	-0.08151298
242	0xbd3d457e	-0.04620885
243	0xbc5ac107	-0.013351685
244	0xbdc63af1	-0.09679211
245	0xbcfa0a96	-0.030522626
246	0x3cf86159	0.030319856
247	0xbba4cf76	-0.005029614
248	0xbd0c17ed	-0.034202505
249	0xbca5feb1	-0.020263048
250	0x3c040c78	0.008059613
251	0xbbdb10f9	-0.006685373
252	0xbda7d78f	-0.081954114
253	0xbd8921e9	-0.06695921
254	0xbd1c7299	-0.038195226
255	0xbdd5f025	-0.104461946

bias_hh_l0 f4 [512]
0	0xbd39aa31	-0.045328323
1	0x3d77b009	0.060470615
2	0xbd8c0064	-0.06836012
3	0x3c803f1a	0.01565509
4	0x3d0f190b	0.034935992
5	0x3d5da091	0.054108206
6	0xbd375a5f	-0.04476392
7	0xbd9b4036	-0.07580607
8	0x3d6cd427	0.05781951
9	0xbcac57a9	-0.021037893
10	0x3d23468e	0.039862208
11	0x3cfa85cb	0.030581376
12	0xbbee4e5c	-0.0072725248
13	0x3d559d66	0.05215206
14	0x3b9cb5dd	0.004782422
15	0xbdb5b522	-0.08872439
16	0x3d38c6d1	0.04511148
17	0x3d8f2a1d	0.06990454
18	0x3c856725	0.016284535
19	0xbce00d45	-0.027350077
20	0x3d9fde7e	0.07806109
21	0x3dae7c6b	0.085198246
22	0x3d9f2b02	0.07771875
23	0x3d976851	0.07392944
24	0x3db6eddc	0.08932087
25	0xbd380d6f	-0.044934686
26	0x3d2d03a6	0.042239808
27	0xbd898431	-0.06714667
28	0x3d47afe4	0.048751727
29	0x3d14fc56	0.03637346
30	0x3d1ec4ce	0.038761906
31	0x3d8a38c4	0.067491084
32	0x3db04d1c	0.086084574
33	0x3db70491	0.08936418
34	0x3da73fc2	0.08166458
35	0xbd3a6cf6	-0.04551407
36	0xbdd41994	-0.10356441
37	0xbcba9ee9	-0.022780852
38	0xbcf8d35a	-0.030374218
39	0xbd08d39d	-0.033404935
40	0xbc16a684	-0.009194974
41	0x39897547	0.00026218055
42	0x3cb1a1db	0.021683624
43	0xbdd5bedc	-0.10436794
44	0xbc1e9ef0	-0.009681448
45	0x3d1d32b1	0.03837842
46	0xbce40dc3	-0.027838593
47	0x3d144e76	0.03620764
48	0x3d67536c	0.05647604
49	0x3d3c60fe	0.045990936
50	0x3cae53af	0.021280138
51	0x3d8db4a1	0.06919218
52	0xbce921ea	-0.028458554
53	0x3d72044e	0.059086137
54	0x3d7db869	0.061943445
55	0xbce91287	-0.028451217
56	0x3bea8765	0.0071572536
57	0x3b12703a	0.0022344724
58	0x3d69c0cf	0.057068642
59	0xbc32a36e	-0.0109032225
60	0xbd293709	-0.04131225
61	0xbc063f57	-0.008193812
62	0x3d37dd7a	0.04488895
63	0xbd26ff78	-0.040770978
64	0xbdb3e115	-0.08783165
65	0x3d2a3550	0.04155475
66	0x3d6c638d	0.057712127
67	0xbd7974b6	-0.06090232
68	0xbc20489b	-0.0097829355
69	0x3d7a6d82	0.06113959
70	0xbc1355c6	-0.008992618
71	0xba8e535c	-0.0010858583
72	0xbb79a0e2	-0.0038090278
73	0xbd5fc1bf	-0.05462813
74	0x3daf3dc7	0.08556705
75	0xbccded09	-0.025137441
76	0x3d33151c	0.043721303
77	0x3d8eb4ae	0.06968056
78	0x3cf497d8	0.029857561
79	0x3d79f35a	0.061023094
80	0x3d83b0c7	0.06430202
81	0x3be2184b	0.0068998686
82	0x3d0c5811	0.034263674
83	0xbda4b6d9	-0.08042688
84	0x3d401dc3	0.046903383
85	0x3ca1fc6d	0.019773686
86	0xbd18653b	-0.037205916
87	0xbd86e2e8	-0.06586248
88	0x3dd54d18	0.10415095
89	0xbd3ac2ec	-0.04559605
90	0xbdae459a	-0.08509369
91	0x3bf27850	0.0073995963
92	0x3b10ddbf	0.0022104827
93	0x3d191ef3	0.03738303
94	0x3d7282f3	0.059206914
95	0x3cc0b8c6	0.023525607
96	0xbd82bdc9	-0.06383855
97	0x3ba6037d	0.005066334
98	0x3d900f1c	0.07034132
99	0xbd09f099	-0.033676717
100	0xbd2cd9d7	-0.042199936
101	0xbd443d8e	-0.047910266
102	0xbc576085	-0.013145571
103	0xbd7b1f51	-0.061309163
104	0x3dac9923	0.08427646
105	0x3a90bfff	0.0011043547
106	0x3d063e07	0.032773998
107	0x3d39265f	0.04520261
108	0x3c1bbbe5	0.009505247
109	0xbce26ab9	-0.02763878
110	0xbd4f3f4c	-0.050597474
111	0x3d958cda	0.07302256
112	0xbd0692f3	-0.032854985
113	0xbbc25e5d	-0.005931659
114	0x3ce4a1b4	0.027909137
115	0x3d1f7922	0.03893388
116	0xbda33844	-0.07969716
117	0x3ce74bdb	0.028234413
118	0xbc90d270	-0.01767847
119	0x3c88298e	0.016621377
120	0xbd99fc3b	-0.07518812
121	0xbc6747d1	-0.014116243
122	0x3da686e9	0.08131201
123	0x3d9425f1	0.07233799
124	0x3d541ed5	0.051787216
125	0xbd0e5eb1	-0.034758274
126	0x3cf6f35e	0.030145343
127	0x3d23a9e2	0.039956935
128	0xbdcbbcf1	-0.09948147
129	0xbdc44279	-0.09582991
130	0xbdd6e295	-0.10492436
131	0xbd158976	-0.036508046
132	0x3d760aff	0.06006908
133	0xbc42f79b	-0.011899854
134	0x3a7fe1bf	0.0009761117
135	0xbd8d6bfd	-0.06905363
136	0xbc233e75	-0.009963621
137	0xbd2880f6	-0.04113861
138	0xbda6e6ad	-0.08149467
139	0x3cff13fb	0.031137457
140	0x3d215368	0.039386183
141	0xbd949ba5	-0.07256249
142	0xbc77e6f7	-0.01513075
143	0xbde9c0e1	-0.11413742
144	0xbd8c83bf	-0.06861066
145	0xbd90b119	-0.07065029
146	0xbd6040cb	-0.05474929
147	0xbb91f590	-0.004454322
148	0xbdccd04e	-0.100006685
149	0x3ca46614	0.020068206
150	0xbdf18a07	-0.11793905
151	0x3d1c766e	0.03819888
152	0xbd30b385	-0.043139953
153	0xbcff27dc	-0.031146936
154	0xbc1ff29f	-0.009762435
155	0x3d7e2e7e	0.062056057
156	0xbdd39eae	-0.10333
157	0xbcc722d2	-0.024308596
158	0x3d62ab95	0.055339415
159	0x3ba2f552	0.004973092
160	0xbcc120c1	-0.023575189
161	0xbcdeda59	-0.027203726
162	0xbdf88246	-0.12134223
163	0x3d1fcb2a	0.03901211
164	0xbd928c90	-0.071557164
165	0xbc1acc51	-0.009448127
166	0xbc3661c1	-0.011131705
167	0xbd502cdf	-0.050824042
168	0xbd4185b5	-0.047246654
169	0x3cb625f2	0.02223489
170	0xbda09ef2	-0.078428164
171	0xbd3a7e70	-0.045530736
172	0x3d6c72e2	0.05772675
173	0xbda0a8b5	-0.07844678
174	0xbdacbdd1	-0.08434642
175	0xbbb70398	-0.005585145
176	0x3c0d4840	0.008623183
177	0x3cb4fa7b	0.022092095
178	0x3c29d476	0.010365596
179	0xbd693d97	-0.056943502
180	0x3d50a720	0.050940633
181	0x3bf3b007	0.0074367556
182	0xb9ef00ef	-0.00045586328
183	0xbae5c991	-0.0017531385
184	0xbd11a071	-0.0355534
185	0xbddf24c7	-0.108956866
186	0xbcb9e53e	-0.022692319
187	0xbde9f789	-0.11424167
188	0x3c733b79	0.014845722
189	0xbde1e72c	-0.11030421
190	0x3d1c5711	0.03816897
191	0xbc9636d9	-0.0183367
192	0xbde0feee	-0.10986124
193	0x3b132744	0.0022453824
194	0xbd28d94a	-0.041222848
195	0xbd48c6a1	-0.049017552
196	0x3a83ac13	0.0010045789
197	0xbdf4958b	-0.119425856
198	0xbcab6844	-0.020923741
199	0xbdb71bcd	-0.089408495
200	0xbd7ef5bd	-0.062246073
201	0x3c3b9fd1	0.011451677
202	0xbd5d2f6f	-0.054000314
203	0x3caf9a6b	0.021435937
204	0xbdeb2871	-0.11482323
205	0x3d476b9b	0.048686605
206	0xbdba74fe	-0.09104346
207	0xbdb3f794	-0.08787456
208	0xbda11429	-0.07865173
209	0xbd6ad6b3	-0.05733366
210	0xbdc3b073	-0.095551394
211	0xbd135ed8	-0.035979122
212	0xbdac0868	-0.08400041
213	0xbd8fe752	-0.07026543
214	0xbd6472b4	-0.055773452
215	0x3d0ba8dc	0.034096584
216	0xbdb397e3	-0.087692045
217	0x3cc9840d	0.0245991
218	0x3d854be2	0.06508614
219	0xbdc8895a	-0.09791823
220	0x3d0816ad	0.03322475
221	0x3d5c5fb5	0.05380221
222	0xbd9b81a9	-0.0759309
223	0x3cf7cbac	0.030248486
224	0x3cf7c8bc	0.030247085
225	0xbd433225	-0.047655243
226	0xbc215bb5	-0.009848525
227	0xbc0bd99c	-0.008535769
228	0xbd4adcd1	-0.049526993
229	0x3d2a3c62	0.04156149
230	0xbd83e24e	-0.064396486
231	0xbd2251a1	-0.03962863
232	0xbdba6032	-0.09100379
233	0x3d152959	0.036416385
234	0xbb912fb0	-0.0044307336
235	0xbdea13e8	-0.11429578
236	0xbda798fb	-0.081834756
237	0xbdcce81e	-0.1000521
238	0xbddb643c	-0.107124776
239	0x3d7675e7	0.060171034
240	0x3d5fbeff	0.054625507
241	0x3c6a5dad	0.014304561
242	0xbd9b4bbc	-0.075828046
243	0xbd009d4f	-0.03140002
244	0xbdb7a64e	-0.08967267
245	0xbdb093f4	-0.0862197
246	0xbcda4621	-0.026644768
247	0xbdbc3376	-0.09189503
248	0x3cbf11f5	0.023323992
249	0xbd9ad933	-0.07560959
250	0xbb7234a1	-0.0036957639
251	0x3d21a62f	0.039465126
252	0xbd927f55	-0.07153193
253	0xbd738e09	-0.059461627
254	0xbddc72bb	-0.107640706
255	0xbca1c9a2	-0.019749466

weight f4 [32, 128]
0	0x3c425e17	0.011863253
1	0xbd6d9638	-0.058004588
2	0xbbcc71da	-0.006239158
3	0xbdb41236	-0.08792536
4	0xbda3824a	-0.07983835
5	0x3b71be2a	0.0036887028
6	0xbc00ec38	-0.007868819
7	0x3daf6502	0.085641876
8	0xbb1cddc3	-0.0023935891
9	0xbd13e041	-0.036102537
10	0x3d0bec4d	0.0341609
11	0xbc765be8	-0.015036561
12	0x3d4f0eee	0.050551347
13	0xbd263154	-0.040574387
14	0xbcfcd027	-0.030860974
15	0x3d2d3ba5	0.04229321
16	0x3c731008	0.014835365
17	0xbd3cb539	-0.046071265
18	0xbbb81127	-0.005617279
19	0x3c58a5f8	0.013223164
20	0xbda1a150	-0.07892096
21	0x3b626f3d	0.0034551166
22	0x3ca6816f	0.02032539
23	0xbc073efb	-0.008254762
24	0x3d2aad73	0.04166932
25	0xbd532507	-0.051548984
26	0xbc326089	-0.010887274
27	0x3d8f5348	0.069983065
28	0x3da2bfbb	0.07946726
29	0x3dbd9e0a	0.09258659
30	0xbcdad8f7	-0.026714785
31	0xbdbbb00e	-0.09164439
32	0xbc86772f	-0.016414253
33	0x3dbaf3bb	0.09128519
34	0x3cc2510f	0.023720292
35	0xbb610a7c	-0.0034338525
36	0x3d64e952	0.055886574
37	0x3d29c3fe	0.04144668
38	0xbd42d18b	-0.047563117
39	0x3d2edfdf	0.04269397
40	0x3b38044f	0.002807874
41	0x3d43f154	0.04783757
42	0xbdbfd6bd	-0.0936713
43	0x3dd996f0	0.10624492
44	0xbb987e42	-0.004653723
45	0xbc486e3a	-0.012233311
46	0xbcbd60d2	-0.023117457
47	0x3c4d9980	0.012548804
48	0xbcfce90d	-0.030872846
49	0xbd880456	-0.06641452
50	0xbd547171	-0.051866
51	0xbc9e59b7	-0.019329889
52	0xbd317b24	-0.043330327
53	0xbcb5d3df	-0.022195755
54	0x3c63aaaf	0.013895675
55	0xbdb04de4	-0.086086065
56	0xbd613660	-0.054983497
57	0x3ba3223c	0.0049784463
58	0xbdad8df1	-0.08474339
59	0xbd482180	-0.048860073
60	0xbda02db0	-0.07821214
61	0x3ca54c03	0.020177847
62	0xbdb7228a	-0.08942135
63	0xbb57c118	-0.003292149
64	0xbd7cd16a	-0.06172315
65	0xbcfb2b6c	-0.030660354
66	0x3d09430f	0.033511218
67	0x3d50527e	0.05085992
68	0x3db2b05c	0.08725044
69	0x3d5a90c5	0.05336072
70	0x3c78ecac	0.015193146
71	0x3ce84d00	0.028357029
72	0x3b8e5fc3	0.004344912
73	0xba6b6318	-0.00089793047
74	0xbd108b88	-0.035289317
75	0xbd218cca	-0.039440908
76	0xbd9792d7	-0.07401054
77	0x3d28385d	0.041069377
78	0xbd0f8d54	-0.03504689
79	0x3d813c0b	0.063102804
80	0x3ce5f202	0.0280695
81	0xbbebb9da	-0.007193786
82	0x3cec87d6	0.028873365
83	0x3d36cfd3	0.04463179
84	0x3d3f58b2	0.046715446
85	0xbd28dd37	-0.041226592
86	0xbcdd113e	-0.02698576
87	0xbcaf95cb	-0.021433732
88	0xbc8afc85	-0.016966114
89	0x3d3e7897	0.046501722
90	0x3db46003	0.08807375
91	0xbd236819	-0.039894197
92	0xbdc271e4	-0.09494379
93	0xbaa4d965	-0.0012576996
94	0xbdec27f6	-0.115310594
95	0xbda0bfb1	-0.07849062
96	0xbd6c6b7f	-0.057719704
97	0x3d1896ea	0.037253298
98	0x3cdc1af9	0.02686833
99	0x3d84b4b6	0.064797804
100	0x3b1d7237	0.0024024376
101	0xbd3786cb	-0.044806283
102	0xbcc58b3c	-0.024114244
103	0x3d032c9c	0.032024965
104	0x3cb78f21	0.022407116
105	0xbd39086b	-0.045174044
106	0x3bb4db20	0.005519286
107	0xbced0b80	-0.028936148
108	0xbd4e224e	-0.050325684
109	0xbda8f6c8	-0.08250195
110	0x3aee9877	0.0018203397
111	0xbbecd2d1	-0.0072272797
112	0xbc29bb0d	-0.010359538
113	0xbd3d0080	-0.046143055
114	0x3cf8f5aa	0.03039058
115	0x3dc57833	0.09642067
116	0x3b6ed24d	0.0036441267
117	0x3d3ed19c	0.046586618
118	0x3d7785f8	0.060430497
119	0x3d7cf862	0.061760314
120	0x3d1a616d	0.03769057
121	0xbdade28c	-0.08490476
122	0xbd1f6930	-0.038918674
123	0x3d14a633	0.036291312
124	0xbc91dab7	-0.017804487
125	0xbd63c4c1	-0.05560756
126	0x3d9f55d8	0.07780045
127	0x3d13c30c	0.036074683
128	0xbd7a3557	-0.061086025
129	0xbd88d3c2	-0.066810146
130	0x3b4bcba3	0.0031096719
131	0x3d31d809	0.043418918
132	0x3d81ce98	0.06338233
133	0x3d3cd2b8	0.046099395
134	0xbc8ba900	-0.017048359
135	0x3da84153	0.082155846
136	0x3d84a435	0.064766325
137	0x3b839e90	0.004016705
138	0xbdb12872	-0.086502925
139	0x3d6b15b0	0.05739373
140	0xba04629c	-0.00050500943
141	0xbc784cfc	-0.015155073
142	0xbd525163	-0.051347148
143	0xbc6f0f0b	-0.014590989
144	0xbc909e46	-0.017653596
145	0xbd38120b	-0.044939082
146	0xbcd86d7d	-0.026419396
147	0xbca761b8	-0.020432338
148	0xbdd71d58	-0.10503644
149	0x3b809016	0.0039234264
150	0xbdb283fc	-0.0871658
151	0x3da9b29f	0.082860224
152	0x3ce48557	0.027895613
153	0x3d335e80	0.043791294
154	0xbca12723	-0.019671982
155	0xbd2758db	-0.040856224
156	0xbc5e2bb1	-0.0135602215
157	0x3c33982d	0.0109615745
158	0x3d0bb8c1	0.034111742
159	0xbc2ebd04	-0.010665182
160	0x3d1865f3	0.0372066
161	0x3dd7f9fc	0.105457276
162	0x3ccc9890	0.024975091
163	0x3d4be566	0.04977932
164	0x3d4c1eca	0.04983405
165	0xbca31e12	-0.0199118
166	0xbd01e47f	-0.03171205
167	0xbd89b459	-0.06723852
168	0x3d320868	0.043465048
169	0x3d0f625b	0.03500591
170	0x3ca53733	0.020167923
171	0xbcb7df61	-0.022445383
172	0xbc765c05	-0.015036588
173	0xbc3dd355	-0.01158603
174	0x3ccdd89f	0.025127707
175	0x3b7b5d3d	0.0038355135
176	0xbb36a6c2	-0.0027870391
177	0xbd804ae2	-0.06264283
178	0xbc5bd08f	-0.013416423
179	0xbc7e9e40	-0.015540659
180	0x3cfc108f	0.030769615
181	0xbd3eaf1f	-0.046553727
182	0x3c29c0c9	0.010360905
183	0xbdb9830c	-0.09058198
184	0xbd4849dc	-0.048898563
185	0x3bc6f1d2	0.0060713077
186	0x3d809209	0.06277854
187	0xbd39d2d3	-0.045367073
188	0xbdb998f7	-0.09062379
189	0xbd4fd297	-0.050737944
190	0xbc13f0ef	-0.009029611
191	0x3d83378a	0.064070776
192	0xbd5b6a05	-0.053567905
193	0xbd23e4df	-0.04001319
194	0x3d3156f2	0.043295808
195	0xbd1e7165	-0.03868236
196	0xbc083a61	-0.0083147
197	0x3d0014f2	0.031269975
198	0xbc9fbf4d	-0.019500399
199	0x3c89bef6	0.01681469
200	0x3c596ded	0.013270837
201	0xbd94fe84	-0.072751075
202	0x3b14aadd	0.002268485
203	0xbb7554b6	-0.0037434525
204	0xbd2485c4	-0.04016663
205	0xbda9c46c	-0.082894176
206	0xbdbe8b4b	-0.09303912
207	0xbc9473fb	-0.01812171
208	0xb9a677cb	-0.0003175124
209	0x3d0226d1	0.0317753
210	0xbb54398c	-0.0032382933
211	0xbda03bbb	-0.07823893
212	0x3d5327a0	0.05155146
213	0xbd798832	-0.0609209
214	0xbcf37b1f	-0.029721795
215	0x3cad835e	0.021180805
216	0x3d915a0c	0.07097253
217	0xbd0a802c	-0.03381364
218	0x3db7e65f	0.08979487
219	0x3d5045a5	0.05084767
220	0xbdaa9356	-0.08328883
221	0x3cc307d6	0.023807447
222	0xbd87c643	-0.06629612
223	0xbdb03284	-0.08603385
224	0x3cbcadb3	0.023032045
225	0x3d64b4bf	0.055836435
226	0x3b154126	0.0022774427
227	0x3d9166c7	0.07099681
228	0x3b8fa935	0.0043841847
229	0xbd87d975	-0.066332735
230	0xbc07aed3	-0.008281427
231	0xbd0c14ff	-0.03419971
232	0x3d28493a	0.04108546
233	0xbca74722	-0.020419661
234	0xbc8ca75c	-0.017169647
235	0x3c324a6d	0.010882002
236	0x3d97bd04	0.07409099
237	0x3d0e836b	0.0347933
238	0x3cc6e07d	0.024276966
239	0x3d8eec05	0.06978611
240	0xbd8c665a	-0.068554595
241	0x3d47f47a	0.048817135
242	0x3d961115	0.07327477
243	0xba22dade	-0.00062124233
244	0x3d760d14	0.060071066
245	0xbd785a10	-0.060632765
246	0x3c9f0cc1	0.019415261
247	0x3cc6366e	0.024195876
248	0x3b807e5d	0.0039213137
249	0xbd341fcf	-0.043975648
250	0x3d042e43	0.03227068
251	0x3c51465b	0.012773122
252	0x3d636e81	0.055525307
253	0x3d9230c0	0.071382046
254	0x3d15aeef	0.036543783
255	0x3d5c29d6	0.053750835

bias f4 [32]
0	0x3b4c4434	0.0031168582
1	0xbcf2bfaa	-0.029632408
2	0x3a6d9c87	0.0009064157
3	0xbdab1282	-0.083531395
4	0x3d4cfc38	0.050045222
5	0xbc8e4000	-0.017364502
6	0x3cc94128	0.024567202
7	0x3cd047dd	0.025424892
8	0xbb5ab984	-0.0033374736
9	0x3cc356ee	0.023845162
10	0x3d22f09b	0.03978024
11	0xbb1f1682	-0.002427489
12	0x3d4f101b	0.05055247
13	0xbceebb4f	-0.02914205
14	0x3bd55deb	0.00651144
15	0x3c2e671a	0.0106446985
16	0x3ca7c2a9	0.020478563
17	0xbe4db1ff	-0.20087431
18	0x3d4386dd	0.047736038
19	0x3dce9426	0.10086851
20	0x3cc4cf88	0.02402474
21	0xbc89f665	-0.016841123
22	0xbe4dd4ca	-0.20100704
23	0xbd325e34	-0.04354687
24	0x3c3c66c0	0.011499107
25	0xbdce8db8	-0.100856245
26	0x3db116c3	0.086469196
27	0xbdf73ef7	-0.120725565
28	0x3ded1350	0.11575949
29	0x3d873572	0.06601991
30	0x3b25a99d	0.00252781
31	0xbcbb9915	-0.022900144

weight f4 [1, 32]
0	0x3d8cea60	0.06880641
1	0x3d8feb40	0.07027292
2	0xbd35d194	-0.044389322
3	0xbd767178	-0.060166806
4	0xbd332ece	-0.04374581
5	0x3d7643f6	0.060123406
6	0xbd35007d	-0.04418992
7	0xbd1cb0ba	-0.038254477
8	0xbdaa7d2a	-0.083246544
9	0x3db8d4fd	0.09024999
10	0x3cd07aac	0.02544912
11	0xbd1b7fcf	-0.037963685
12	0x3c421fa0	0.01184836
13	0xbd7df08d	-0.061996985
14	0xbdad556b	-0.08463558
15	0x3db49d08	0.08819014
16	0x3c92de04	0.01792813
17	0xbe0bb7b0	-0.1364429
18	0xbd225e7b	-0.039640885
19	0xbc3b9484	-0.011448983
20	0xbc9779ae	-0.018490639
21	0xbd9e23d4	-0.077216774
22	0x3db1944e	0.08670865
23	0x3dbcfb41	0.092276104
24	0xbd57ce6b	-0.05268709
25	0x3e0a44a8	0.13502753
26	0x3c885bdc	0.016645364
27	0xbdde6e32	-0.10860862
28	0xbc359210	-0.011082187
29	0x3ca99d73	0.02070496
30	0xbd798a48	-0.06092289
31	0x3d7b4fc4	0.061355367
