data/Superior/superior_lstm.pt (torch, 338417 bytes, 7 tensors)

weight_ih_l0 f4 [512, 24]
00000000: 0d0e 5abd f0cb 99bd 04f6 60bd d0bb 94bc
00000010: f21d b03c 740b 803d e7c0 083d 9577 b9bd
00000020: 9e1b 93bd b220 2fbc 59ab 1dbd a473 95bc
00000030: b2db fe39 361f 263d e879 88bd 2e59 0c3d
00000040: 9fb7 b2bd 2740 8cbd 6627 843c 3777 a73b
00000050: ae97 15bd da1e 3b3d 977e 6dbd d45f 34bd
00000060: fef3 0a3d c438 fabc f2cb c5bd b8b6 093d
00000070: da0d 383d 5f7f 68bb b09a 38bd 17d2 b73b
00000080: 7e92 b1bc 662c ccba 629e e8bc e597 113d
00000090: 98e1 883d be5a 84bd 9eec 81bd ae59 e13b
000000a0: 28f8 0a3d 5a08 65bd 0036 ee3c ec5b 62bd
000000b0: 95af 79bd 796a 4c3c b858 8abd cc3d 8f3d
000000c0: 3e1e 28bc d1bf 423d cb3e 5b3d 1829 a33c
000000d0: 5b9c a0bd 6e3f 963c a888 863c 8edc 9f3d
000000e0: 8a4f 70bd fdc1 9c3d 3708 7fbc 8cf6 9a3d
000000f0: e576 a9bd 7967 1abd a17b 023c c685 ac3d
00000100: 6898 a9bc e7db df3c 5c9a e9bc fd33 023b
00000110: ae33 523d 3d58 b8bd ba5c 22bd eb8b a73d
00000120: 1eb9 8dbd 0c5c 1ebd 6c3c 27bd 3fb0 edbc
00000130: 91da 56bc a7b8 f93c a41c 81bd 99a2 1c3d
00000140: b659 52bd 4086 533d 318d 633d cd22 543d
00000150: 1782 5e3d 430a 7e3d 1205 81bd 57b1 113d
00000160: 601a 8ebc 155e 25bd ab1f 75bd 2ec0 b43d
00000170: 1848 3d3d 3b8e 983c 6c60 b43c 3ea8 d6bc
00000180: b9dd 18bc 2887 02bd 1822 26bd 2ed5 8ebd
00000190: 8348 953d ba0a 603d b7a8 5abc 9891 23bd
000001a0: b2f6 9ebd 1134 433d a673 0e3d b796 833a
000001b0: f76f a33b a25e 4fbd 2d7c 65bd 0374 5ebc
000001c0: ead4 9bbc d1bb a5bd 390e 98bb 86d7 58bd
000001d0: 2ced 7abd 89d6 773c 899e d3bc ec9d 65b9
000001e0: 0234 aebc 8a1d 73bd 405f 9ebd 0605 c73d
000001f0: 3c78 a6bb e754 663d ee49 313d cb45 a13c
00000200: 23ca 8fbd 16c0 973c a30f e7bc 6caa 88bd
00000210: 37ad 1cbd f324 d6bc bbcf 343d b15c 52bd
00000220: 2110 833d 4f1b 99bc 4d38 cd3c 0677 59bd
00000230: d18f 9f3d 167e e6bc 90b4 433d f0b4 143b
00000240: 2ec2 89bd c6ba 9cbc 3fd0 1e3d f819 863a
00000250: 92e9 2b3d ada0 743c db92 c93c 7d68 823d
00000260: 4fb2 62bd 7dab 183b 5524 923d 0577 4b3d
00000270: 69d8 aa3a fb48 673d da42 1a3c 6ef2 a63d
00000280: 0c59 5bbd 7918 bfbb ab81 993d 50bb 74bd
00000290: 41d1 8fbc 5d27 b9bc e35c 74bd f435 8f3d
000002a0: c501 b6bd c957 cf3b f2ed 193d 3e4c 073d
000002b0: 0e0b 4cbd 5776 65bd 076b 373d 2422 453d
000002c0: 9794 8b3c 6117 573d 90a4 a1bd b5c8 593d
000002d0: 2005 b0bd 71c4 2fbc db37 a83c ff16 203d
000002e0: 9709 7d3d a796 3fbc 482c 873d 7db5 93bc
000002f0: cd0d e1bb 7527 3bbd f0d9 883d 9948 9ebd
00000300: bba5 b73c 7de0 053d 96c7 a0bd 3adc 353d
00000310: 5a1d c23c 39eb 49bd bd93 4f3d 93a6 523d
00000320: bc66 593d 0cfb b139 4246 8cbd ff9d 73bc
00000330: 3abf 1ebc eb6f 473d 454b ad3b 0ed9 32bc
00000340: c5ed 45bd 1539 c1bd 5867 8abd 74cd 58bd
00000350: 6497 003d 56d6 823d 79a3 a6bd ca2f 61bd
00000360: c3ba 30bd 0942 98bd 6758 5a3c 7fa9 863d
00000370: c995 81bd fed1 87bb 035a 5d3d d65d 5f3d
00000380: 687f 3cbd 4c77 033d dd2f 943d 6e48 5cbd
00000390: 1575 38bb 19e0 86bc 9263 92bd a238 563d
000003a0: c1c1 b3bc 938b 853b f615 27bc aea8 b63d
000003b0: eb5c 513c 147d 3a3d b1a3 56bd 0baf 8abd
000003c0: fd96 acbc 2ff1 80bd 4cd7 c6bc 28d8 083d
000003d0: 9ee0 debc 90d6 c5bc 6cc1 493d b027 83bd
000003e0: aa6a 8b3d a029 7bbd 6d97 7ebd 7415 9ebd
000003f0: bde7 613d 7d57 37bd dcd2 7a3d 48e9 11bb
-0.053236056 -0.07509601 -0.05492212 -0.018155962 0.021498654 0.062521845 0.03338709 -0.090560116
-0.07183002 -0.0106889475 -0.038493488 -0.018243618 0.0004861034 0.04055711 -0.06663877 0.034264736
-0.08726429 -0.068481736 0.016132068 0.005110647 -0.036521606 0.04568372 -0.057982054 -0.0440367
0.033924095 -0.030544646 -0.0965804 0.03362152 0.044935085 -0.003547631 -0.045069396 0.0056097615
-0.021676298 -0.0015577197 -0.028395835 0.03554525 0.066836536 -0.0646262 -0.06343959 0.0068771457
0.033928066 -0.055916168 0.029078484 -0.055263445 -0.060958464 0.012476557 -0.06755203 0.06994209
-0.010261117 0.04754621 0.05352668 0.019917056 -0.078423224 0.018340793 0.016422585 0.07805739
-0.058669604 0.07654188 -0.015565923 0.07566556 -0.082746305 -0.037696335 0.007964046 0.08423953
-0.020702556 0.027326537 -0.028515987 0.0019867413 0.051318817 -0.09001205 -0.039639212 0.08180984
-0.06920074 -0.038662 -0.040829107 -0.029014705 -0.013113634 0.030483557 -0.06304291 0.038241003
-0.051355086 0.051641703 0.055554572 0.051791 0.054323282 0.062021505 -0.06299795 0.035569515
-0.017346561 -0.040372927 -0.059844654 0.08825718 0.046211332 0.018622508 0.022018634 -0.026203271
-0.009330207 -0.031867176 -0.040559858 -0.069742545 0.07289221 0.05469773 -0.013345889 -0.03993377
-0.07761897 0.047657076 0.03477826 0.0010039423 0.0049877125 -0.05062736 -0.056026626 -0.013577464
-0.019022424 -0.08092464 -0.0046403673 -0.052939914 -0.06126134 0.015126833 -0.025832431 -0.00021897972
-0.021265034 -0.059354343 -0.07733011 0.09717755 -0.005080251 0.056233313 0.043283395 0.0196866
-0.070209764 0.01852421 -0.028205698 -0.066731304 -0.038251128 -0.026140666 0.04414342 -0.05135793
0.06399561 -0.01868978 0.02505126 -0.053092025 0.07791103 -0.028136294 0.04777962 0.0022690855
-0.0672649 -0.01913203 0.038772818 0.0010231128 0.041970797 0.014930886 0.024606159 0.06367586
-0.05534583 0.0023295574 0.07135836 0.049674053 0.0013034466 0.056466084 0.009415353 0.081517085
-0.05355172 -0.005831775 0.07495435 -0.059748948 -0.017555835 -0.022601778 -0.059658896 0.069927126
-0.08887056 0.0063276035 0.037580438 0.033031695 -0.04981523 -0.05602106 0.044779804 0.048128262
0.017038627 0.05251253 -0.07892716 0.053169925 -0.085947275 -0.010727988 0.020534446 0.03908443
0.061776724 -0.011693633 0.06600243 -0.018030876 -0.0068681003 -0.045691926 0.06682193 -0.07728691
0.022417894 0.03268479 -0.07850568 0.044399478 0.023695637 -0.04929659 0.050678004 0.05142839
0.05307649 0.00033947115 -0.06849338 -0.014869212 -0.009689147 0.048690718 0.005288514 -0.010916008
-0.048322458 -0.09434716 -0.067579925 -0.05293031 0.031394377 0.063885376 -0.08136649 -0.054977216
-0.04314686 -0.0743447 0.013326741 0.065752976 -0.063273974 -0.004144906 0.05404092 0.05453285
-0.04601994 0.032096192 0.07235692 -0.05378001 -0.0028145958 -0.01646428 -0.07147898 0.052300103
-0.021942975 0.0040754764 -0.010198107 0.08918892 0.012778501 0.04552944 -0.052402202 -0.06771668
-0.02106809 -0.06296002 -0.024272583 0.033409268 -0.027206715 -0.024150163 0.049256727 -0.06404054
0.06807454 -0.061318994 -0.06215613 -0.077189356 0.055152643 -0.04476117 0.061236247 -0.002226429

weight_hh_l0 f4 [512, 128]
00000000: 0d28 09bd f2c6 e7bc 36f6 8a3d b762 e9bc
00000010: 5e4c 293c 5607 d6bd 6051 8abd e070 a03b
00000020: 22e4 39bc de5c 80bb 86a7 91bd 7a6d 823c
00000030: 31b7 713d 3c21 10bd 4d90 463d c66c 5a38
00000040: 6874 593c df39 4fbb 6e76 edbc 5d52 67bd
00000050: 79d9 5bbd 9ad7 40bd e2ce 793d 734d 7fbd
00000060: 571f d53c bd04 b63c 2d2c 883d b2aa 793d
00000070: 64b9 983d 4401 61bd 5dc2 6f3c daa5 683d
00000080: 0b81 a33d d0c9 ccbd 8688 a6bd daa7 b33b
00000090: 4e2c 89bd 2946 c1bd 0af1 61bc 6b10 4a3c
000000a0: 3b1b f4bc 1f95 9abc 02fd e33c efbc 9cbd
000000b0: b943 083b 2e1a 813b 642d 003d b18c 5f3d
000000c0: bee0 de3c b313 033d 2049 cfbd b5ea 023d
000000d0: 3abd 59bd 5da8 a33d c087 953c ee30 31bc
000000e0: 7277 58bd 5127 873d fb5a 01bd 2974 903d
000000f0: f812 203d efaa 303d 338a 8ebd 2091 8cbd
00000100: aa67 febc c988 3ebd 95aa e4bc 0254 46bd
00000110: 6b38 eb3a d952 9d3d fca8 ac3d 1a78 00bd
00000120: 25c5 0dbc d46f edbc 495b 9ebd 778d 373d
00000130: f425 88bd 65a2 a03b 91ce 1abd b006 b73c
00000140: 82b2 ff3c e57a 7ebd d249 3b3d 966c fbba
00000150: e45b a7bd 396b 7d3c c98b 26bd bc0c 243c
00000160: 2803 c03d 3004 88bd 74f6 133d 64f1 383d
00000170: 090f 28bc b1a2 263d f490 563c cdd1 75bb
00000180: 72cd 123c 5e6c 5a3d 74ba 7d3d 6fc2 0cbd
00000190: 1141 81bd 1e3f b8bd 263f 0a3d 986f 8fbb
000001a0: 0544 b3bb a75d cc3d 6233 1dbd 78be 68bd
000001b0: 1700 8fbd e95b a3bd ce3b 16bd 31b4 263d
000001c0: b40c a93c 4966 7ebd 49ae 8ebd aae8 bcbd
000001d0: f10a 673d ab4e 333d 1490 813d 45a0 55bd
000001e0: 8bdb 05bc 8d15 873c c764 b2bc 74ee df3c
000001f0: 0b0e 6fbd 6e7f 52bd 66f2 8fbd c79d ac3c
00000200: 1f48 393d 2141 18bd 8b5b a93c c14c 9fbb
00000210: acfa 02bd aee4 853c bb1f 6a3d 5cb0 463d
00000220: 6c06 9dbd 36dc 45bc c8f8 3c3c fb44 c63a
00000230: 81f0 97bd d725 23ba aac9 b13d c864 a63d
00000240: 9f3e 95bc 105b 96bd 859d 95bc cc6d 783d
00000250: 3da7 aa3d 9c97 78bc 1409 883d 4547 e6bc
00000260: e2a9 8d3d 1493 893b 6336 d63c 1951 333d
00000270: af31 9ebc e9f2 a93d cb98 033d 2a35 9bbd
00000280: b2fe f4bc 618c 7abd eecf 09bc bef3 3f3d
00000290: dde2 a2bd e63c 553d d250 503d 1b42 96bd
000002a0: 97a7 64bc 79f4 483d 612a 44bd c25d 953d
000002b0: d87d ec3c 583a a3bd 4137 d93c 50f4 b93c
000002c0: 6685 3fbc 309c cabc 1a8b d03c 5b19 17b9
000002d0: 89d6 06bd b1a1 91bd 064d cbbc dcfd c03d
000002e0: a1a3 b0bd b4b8 08bd d2f0 883d f722 983d
000002f0: 3c08 8cbc a013 083c 2e33 b93d 2b37 97bd
00000300: c497 9fbb 2e2d b03d f694 cdbc d398 063c
00000310: 5312 a5bd 7cf0 80bc e788 81bd 2c11 9a3d
00000320: 9839 3b3d ea2e d0ba 89d2 443d 7936 94bd
00000330: 1a74 b63c 0b60 843b 9b6f 473c fc6e 7a3c
00000340: 159c 45bb 61c2 69bd 684e aebd 9447 3abd
00000350: 836d a4bd ae2f 6abc 55a5 a9bc ab83 a63c
00000360: f4bd 7b3d 7feb 1d3d 88d0 a0bd fc08 993c
00000370: 3173 4ebc 88e1 8137 eb47 85bd 452c b13d
00000380: 6af9 a7bd 7b13 ef3c ef41 35bc 9c64 373d
00000390: c6ed 953d e1fb ae3c e4a4 5d3d d4d3 b8bc
000003a0: 9997 133a cb6d 18bc 3050 74bd 55ce 8d3d
000003b0: 8089 95bd ca28 a3bd 0140 a9bd 8b70 46bd
000003c0: ddcc 8bbd e857 803d 65c9 95bd d794 5dbd
000003d0: 71ca b13c 0715 483c f23a 993d c6eb 0e3c
000003e0: 59fa 28bd a1c8 653d bfc8 02bb daa9 dfb7
000003f0: e9c5 dbbb 19cb 5ebc 54ce cfbc 4950 a3bb
-0.03348546 -0.028293107 0.06785242 -0.028489454 0.010333149 -0.10450618 -0.06753802 0.0048962682
-0.011345895 -0.0039173206 -0.07112031 0.015921343 0.059012596 -0.035187945 0.04847746 5.2076553e-05
0.013272382 -0.0031620187 -0.028987136 -0.056475032 -0.053674195 -0.047080614 0.060988314 -0.06232972
0.02601592 0.022219056 0.06649051 0.060953803 0.074572355 -0.054932848 0.014633742 0.056798793
0.07983597 -0.0999943 -0.081315085 0.005482656 -0.066979036 -0.0943721 -0.013790378 0.012333016
-0.02979814 -0.018869935 0.027830604 -0.07653224 0.002079232 0.0039398884 0.031293288 0.054577533
0.027206775 0.03200121 -0.10121369 0.031962115 -0.053158976 0.07991097 0.018253207 -0.010814888
-0.052848287 0.06599296 -0.031580906 0.07053406 0.03908059 0.043131765 -0.06959953 -0.06863618
-0.03105529 -0.046517167 -0.027913371 -0.04841996 0.0017945891 0.076818176 0.08430669 -0.031364538
-0.00865296 -0.028983988 -0.07732255 0.044812646 -0.06647864 0.0049021714 -0.037794653 0.022342056
0.031213049 -0.06212892 0.045724697 -0.0019182141 -0.081718236 0.015467458 -0.040660653 0.010012802
0.09375602 -0.06641424 0.036123708 0.045152083 -0.010257491 0.0406825 0.013096083 -0.0037509084
0.008960115 0.053326003 0.061945394 -0.034365114 -0.063112386 -0.08996414 0.03375163 -0.0043773167
-0.005470755 0.099788 -0.03837908 -0.05682227 -0.06982439 -0.07976515 -0.036678128 0.040699188
0.02063594 -0.062109265 -0.06966836 -0.09224065 0.05640692 0.043776195 0.06326309 -0.052154798
-0.008170019 0.016489768 -0.02177657 0.027335383 -0.058363 -0.051391058 -0.07028656 0.021071328
0.045234796 -0.037171487 0.020673534 -0.0048614447 -0.03197734 0.016344395 0.057159167 0.048508033
-0.076672405 -0.012076428 0.011533923 0.0015126759 -0.07418919 -0.0006223595 0.086810425 0.08124691
-0.018218337 -0.073415875 -0.018263588 0.060651585 0.083326794 -0.015172865 0.066423565 -0.028110156
0.06917168 0.0041984413 0.02614898 0.043778513 -0.0193108 0.082982846 0.032128137 -0.075784996
-0.029906604 -0.061169032 -0.008411391 0.04686331 -0.07953427 0.05206003 0.050858326 -0.07336827
-0.013955972 0.049061272 -0.04789198 0.072932735 0.0288686 -0.079701126 0.026515605 0.022699505
-0.0116895195 -0.02473268 0.025456954 -0.00014409928 -0.03291944 -0.07110918 -0.024817001 0.0942342
-0.0862496 -0.03337927 0.06686558 0.07428544 -0.01709377 0.00830546 0.09042965 -0.07383569
-0.004870387 0.08602367 -0.025095444 0.008215147 -0.08060136 -0.015739672 -0.0632494 0.075228065
0.045709223 -0.0015883122 0.048052344 -0.07236952 0.022272158 0.0040397695 0.012172605 0.01528525
-0.0030152847 -0.05707014 -0.085110486 -0.04547842 -0.080287 -0.014293594 -0.02070872 0.020326456
0.06146045 0.038554665 -0.07852274 0.018681042 -0.012600706 1.548302e-05 -0.06507858 0.08651022
-0.08201869 0.029184094 -0.011063083 0.044773683 0.07320742 0.02136034 0.05411233 -0.022561945
0.0005630195 -0.00930352 -0.059646785 0.0692412 -0.07301617 -0.07966764 -0.08264161 -0.048447173
-0.06826184 0.06266767 -0.073138036 -0.054097023 0.021702977 0.012212045 0.07481946 0.008723205
-0.041254375 0.056099538 -0.001995608 -2.6662765e-05 -0.0067069423 -0.013598227 -0.02536694 -0.004983936

bias_ih_l0 f4 [512]
00000000: 0af5 3fbd caaa 5839 df4d 933c 21f9 5b3c
00000010: 7709 be3c 7f2b 31bd eb71 eebb 9f2a a43a
00000020: df00 5e3d 429e 133d 085f ab3c cf73 693d
00000030: e36b 66bd f70b 2dbd ee68 aa3d 766f 68bd
00000040: 31b5 aebd d611 743b 544e d8bc 3685 4a3d
00000050: 4c94 a43c 1de1 ce3a 3d7b e33d 46bc c33d
00000060: 390d 91bd ffbe ec3c 8a6c 37bd 01c9 84bd
00000070: a298 87bd 37ba 7c3c a5cf a3bd d3eb a13d
00000080: 253c 4dbd 6c4d 81bd a5cd c63d 6f26 95bd
00000090: 9d76 ab3d 7d57 5a3c 4f2c 28bd b4e9 c73d
000000a0: cf75 993c 0ad1 d63c c5ca 953d 7928 fe3c
000000b0: 6694 86bd 43f9 3cbd a674 a8bd 23c9 a3bd
000000c0: 8b55 073d 1a7c 993d 65cd 33bd 37a4 823d
000000d0: 3882 a73d f97b 9bbd d65e 2cbd 7188 883c
000000e0: 56ae a63d aa85 38bd a4c6 43bd 88a7 323d
000000f0: 49fb 7abd b886 56bd 48b0 bd3d 7b48 47bd
00000100: 06a3 1d3d 3322 c9bc c02a 943d 71b4 bf3d
00000110: 8184 2f3d 4dec 5d3d 7266 443d f45a 3dbc
00000120: b4dd f4bc 5311 38bd cafe 043d 0cb1 a7bd
00000130: 25d5 8dbd eac8 f33c 9d84 ccbc 95e3 17bc
00000140: 1733 3fba 75d9 cabd 7530 0e3d d727 943d
00000150: 7b5d 7ebb 0070 ec3c 4e74 343d a4fb b43d
00000160: d1aa ccbc 98fd 8d3d 2b7c 5b3c 28ac ca3c
00000170: 3bbe 86bd 8359 e03c 7ab5 f03c 44ba 63bd
00000180: e7c2 a6bc 9d38 613c d705 023d cf34 863c
00000190: 7724 923d 8009 83bb 201d 123d 709a c93d
000001a0: 1bd3 cb3d 25cf 853d 60c6 933d 76b6 713c
000001b0: 0561 85bd 741f 7dbd 224d 243d d8be a7bd
000001c0: 0f5f 8b3d 327d aabc 9075 76bd 6ce4 89bd
000001d0: 9a0d 93bc b53b 86bd 3ef7 bcbd 0c43 0e3d
000001e0: 6102 803d c57e bc3c 471e 063d 15ec 81bd
000001f0: 7e94 99bd d62e 4b3d fa25 073d a393 72bd
00000200: 8c80 40bd 2ba5 96bd 0108 bc3d e387 cabd
00000210: d143 eabc dcf6 5a3d 9c00 90bc 61a9 9abc
00000220: 098a 4fbd c7b5 a6bc 64ec 803d 82a6 603d
00000230: 88a7 bfbd 42aa e1bd 3649 aabc 09e4 bebd
00000240: 6f32 8bbc c1a6 6ebd 4176 07bc 532f 83bd
00000250: e981 313c 5ac0 5dbc d993 003d 4c4b 12bd
00000260: 3ae3 abbd e988 5fbc 4041 c5bc 9bff 123d
00000270: dafd 33bd 8550 c2bd 4196 f7bc 9a0a 053d
00000280: 1eb2 a6bd 3033 3d3d f6d4 debb 87f1 7a3c
00000290: b663 79bd 0501 cabd ca75 aebd 0334 a2bd
000002a0: 291c d9bd 616d 1b3d 5a0b 22bc 2bd2 a1bd
000002b0: 8553 3e3d b6f7 3dbd 3b0c 0cbd 794d fcbc
000002c0: 7c69 64bd 7f0b 6cbd 467d 88bd 700b 923d
000002d0: c798 a4bd 3a52 b4bc 454c 0a3c 42d7 9bbd
000002e0: 887f 1dbc 6a19 ef3c c6fd d2bc ee82 e83c
000002f0: 4786 3bbc 1e79 1f3d c68e 3cbd c4fa 593d
00000300: 6a98 8b3c 0a87 163d 4a8f 2d3d 955c 213d
00000310: 1e29 aa3c d519 9abd cdf0 b03c 27ae 583d
00000320: ab2f 6b3d a0ab ccbd 4ba9 c1bd 4f2e 6a3c
00000330: 5ed2 2cbd 9707 99bd 668a cdbd 960c 85bd
00000340: 0b16 85bc 36f0 813d 3cce 063d 0e35 ea3c
00000350: 253a 2abd f94a 1b3d 663a 18bd 3e44 5abd
00000360: b260 32bd d8de 44bd 60bf dfbc 4452 a93c
00000370: 0c17 b73c 0807 b1bd 33c9 b33c daaa f93c
00000380: 3f76 7abd 63f2 b63c 2d2f 61bd c94c 8bbd
00000390: 1966 5b3c cc37 453b d054 39ba 9ed0 efbc
000003a0: d03f 9cbd e605 65bd 8210 02bd 4a1e 2b3d
000003b0: 7d29 04bb 91ab bdbc 6444 123d 5434 cfbc
000003c0: 32e4 18bd 2bd5 6a3d 1699 57bd 1e47 25bd
000003d0: 1ac8 90bd 127f ab3d 35b8 85bd 509c 483c
000003e0: 88a6 d73c c371 82bd 448f 41bc 70a7 81bd
000003f0: 0810 813d e13b 0039 7322 b9bd 5ddf 0fbd
-0.046864547 0.00020662989 0.017981468 0.013426096 0.023197873 -0.04325437 -0.0072767637 0.0012524909
0.05420005 0.0360396 0.020919338 0.05699521 -0.056255233 -0.04224774 0.08320795 -0.056746922
-0.08530653 0.0037242076 -0.026404537 0.049443446 0.020090245 0.0015783642 0.1110749 0.09557395
-0.070826 0.028899668 -0.044781245 -0.06483651 -0.06620909 0.015425256 -0.079985894 0.07906308
-0.050106186 -0.06313595 0.09707192 -0.07282721 0.08372233 0.013326523 -0.04105788 0.09761372
0.018732933 0.026222724 0.07314066 0.031025158 -0.065712735 -0.046136152 -0.08225374 -0.07997348
0.033040565 0.074943736 -0.04389705 0.06378978 0.08179134 -0.07592005 -0.04208263 0.016666623
0.08138721 -0.045049347 -0.04779686 0.0436168 -0.0612748 -0.05237457 0.092621386 -0.048653107
0.03848555 -0.02455244 0.072347164 0.09360588 0.042850975 0.054180432 0.047949262 -0.011557329
-0.029890873 -0.044938397 0.03246955 -0.08188066 -0.0692542 0.02975889 -0.024965579 -0.009270568
-0.0007293685 -0.09904758 0.03471418 0.07234161 -0.0038813043 0.028862 0.04405623 0.08837059
-0.024983795 0.06933135 0.013396303 0.024740294 -0.06579252 0.027386433 0.02938341 -0.05559756
-0.020356609 0.013746408 0.03174385 0.016382603 0.07135861 -0.003998935 0.035672307 0.0984391
0.099523745 0.0653365 0.072155714 0.014752975 -0.06512646 -0.061797574 0.040112622 -0.081906974
0.0680524 -0.02081165 -0.06017071 -0.06733021 -0.017950822 -0.06554357 -0.09226845 0.03473191
0.06250454 0.023009667 0.03274372 -0.06343857 -0.07499026 0.049605213 0.0329952 -0.05922283
-0.04699759 -0.07355722 0.09181214 -0.098891996 -0.02859679 0.05345808 -0.017578416 -0.018879594
-0.05066875 -0.02035035 0.06295088 0.054846294 -0.09358126 -0.11018802 -0.020786863 -0.09320838
-0.016991822 -0.058264498 -0.00826794 -0.06405511 0.010834196 -0.01353463 0.031391 -0.03571634
-0.083929494 -0.013643482 -0.024078965 0.035888296 -0.043943264 -0.09488014 -0.030223014 0.032480814
-0.08139442 0.046191394 -0.0068002893 0.015316374 -0.060886107 -0.09863476 -0.0851856 -0.07920077
-0.10601074 0.03794611 -0.009890402 -0.079014145 0.04646637 -0.046378814 -0.03419135 -0.03079866
-0.05576466 -0.05762815 -0.06664519 0.07131088 -0.080369525 -0.022011865 0.008441036 -0.076094165
-0.009612925 0.029186923 -0.025755774 0.028382745 -0.011445588 0.038933866 -0.046034597 0.053217664
0.01704045 0.036749877 0.04237298 0.039394934 0.02077156 -0.07524458 0.021599198 0.05290046
0.057418507 -0.09993672 -0.09456118 0.014293267 -0.04219281 -0.07472151 -0.10036163 -0.06496541
-0.016245862 0.06344645 0.032911524 0.028589752 -0.041559357 0.037913296 -0.037165068 -0.053287737
-0.043549247 -0.048064083 -0.027312934 0.02066911 0.022349857 -0.08643919 0.021946525 0.030476976
-0.061147925 0.022332376 -0.05497663 -0.06801755 0.013391041 0.0030093072 -0.0007069828 -0.029274281
-0.07629359 -0.05591383 -0.031754024 0.041776933 -0.002016633 -0.023153098 0.035709754 -0.025293507
-0.037327 0.0573322 -0.05263623 -0.040351026 -0.07069416 0.08373846 -0.06529275 0.012244299
0.026324525 -0.063693546 -0.011813942 -0.06330764 0.06301886 0.00012229338 -0.09039774 -0.035125125

bias_hh_l0 f4 [512]
00000000: c56d 1fbd 8cff 9c3d 3502 983d 112a 16bd
00000010: d0de cebb bc68 2fbc 8788 9c3c e1bb 23bd
00000020: 1a7b 703c 3422 c33b 93c7 04bc 73f1 77bc
00000030: fba9 68bd ab67 9fbc 1a0b e43d d172 80bd
00000040: 5c5d 91bd 62e3 e0bc 4cb8 06bd 39a3 ba3d
00000050: 63b5 83bd 880c 0fbd 9fb1 9fbb e529 8bbd
00000060: 28bf 1fbd 23ee 9b3c 82af 663d c30e 53bd
00000070: 01f7 8dba 9c4c b63b a749 a6bc c745 bebb
00000080: f435 123d 09de 9abd 9942 d0bb 9dd9 34bd
00000090: 1d2e 973d 8b97 11bd 1a08 d3bc 27cb 8bbd
000000a0: be44 81bd 4983 b7bd 37a4 a03c 2809 8dbd
000000b0: 444b b43d 919b e13c 6cf8 5cbc 69cb 82bd
000000c0: 0b8c 4abd 29d6 58bd e769 af3c d3ba 753c
000000d0: f6c1 443d 0213 05bd 43b4 12bd 4ed4 9b3b
000000e0: 72c3 9cbd e459 7ebc 9e7b 993d 6212 63bd
000000f0: ab25 a0ba cb4d d4bc 34fc 08bd 5009 ad3d
00000100: cff2 42bd 0355 f6bc 0774 7fbd ba2a da3d
00000110: bc17 a9bd cdd4 a33a 2eae c3bd 5272 463d
00000120: a0e4 2e3c 0011 83bd 6b24 9a3d 3a70 013d
00000130: 9f0a 9c3c 3215 80bd 7ae3 b6bd dce1 15bc
00000140: 7c69 6d3d 75c1 ce3b 3fb6 773d b68a cbbd
00000150: 4658 543c 6cc9 a03d d5a9 9c3c cf0f 953d
00000160: 7e86 483d 235d 24bd c64d ecbc 6b32 83bc
00000170: d3bf ef3b 4cda 313d 27e9 7c3d 4a65 a83d
00000180: 3f02 85bd 81a4 32ba afa1 bebb 63fb 33bc
00000190: e53b 62bd 5438 f3bc 146e cc3d 0e14 8abc
000001a0: ae52 7b3d 8c9e 2bbd 8264 24bd c34b 833d
000001b0: 2b06 6e3c 1b01 853d bc38 923d 79cc 49bd
000001c0: 40d9 47bd 1094 0d3d f222 3ebd 9b76 323d
000001d0: a370 4dbd c2d1 d9bc 0fca ccbb f0a4 efbc
000001e0: 290c 9fbb 68e7 693d f2b8 68bd 1bb4 b5bc
000001f0: ed01 89bd fbf5 8ebc 70c2 073d bf3f 1eba
00000200: fa04 a8bd 6689 64bd adb8 2cbd 905c 0d3d
00000210: 7d16 043c a0ed 853b fcab 893c f343 b2bc
00000220: 931d 6f3d d54d 533d e382 c6bd 9ea6 d4bd
00000230: 13e9 3abd 7b3b b3bd 49ca 803d e64f 8fbb
00000240: e5fe c4bd 5d59 ab3c 16f1 93bc a89d 97bd
00000250: 8390 48bc 1861 76bd 64d6 0d3d 07e1 7e3c
00000260: d121 c23c 8f6b 41bc c034 7abd f1a5 82bc
00000270: 2e17 253d 5608 a8bd 89b5 433d 92d6 54bd
00000280: 6d10 553d 4cf0 4fbd d8bc 54bd e73b 2e3d
00000290: 78d5 623b 199f bc3c 6742 6a3c 4078 1c3c
000002a0: 109e c5bc 5e12 0abc dee7 bb3b 9f2c 01bd
000002b0: 9ee0 04bd f788 b8bd b992 a0bd 6f4c 90bd
000002c0: 39ca 173c 4158 343d a22a 21bb 6f89 b1bc
000002d0: 6540 aebc 1014 89bd 6c1c 263d 027f 393c
000002e0: 3a90 f93a 3154 8a3d 7aa1 3ebd 4353 91bd
000002f0: 411b 8bbd b321 cabd 90f7 b7bd db15 cbbd
00000300: 9202 6a3c a418 8fbd 138a a0bc d6fa f1bd
00000310: 919b 35bb 6c51 8ebd c253 77bd c241 033c
00000320: c642 2bbd 9232 37bd e483 953d a25d 973b
00000330: e7bb d1bd 48c9 8bbd be79 29bd 6daa 503c
00000340: 4c42 58bc 2a4e 23bd f04b 613c 5255 f1bc
00000350: 383e 1cbd 3154 6cbd 98c8 1b3c 8d28 04bd
00000360: 81ff 323b 53d8 a63b 31d6 1b3c 398f b9bd
00000370: 5e81 b9bd bad0 8dbd 3fbd 22bd 9224 803d
00000380: edfe 223d a527 56bd 1cc2 d9bc 6700 9fbc
00000390: b4c7 073d c626 dc3b 6f8c 613c f5a8 babd
000003a0: 61a4 0abd d0c7 343d 7b4e 9abd de14 c03b
000003b0: 62df bebd 87ae 39bc 560a a9bd ca24 603c
000003c0: 3d67 f2bc 1dc7 99bd aee6 3c3d ce52 8cbd
000003d0: 0667 2f3d 7bbe 0a3d 4cae 0cbd 075b 2b3d
000003e0: 6724 4b3d 5dc4 633d 4df0 903d 5efc 83bd
000003f0: b40c 153d a219 b9bb 00d1 83bd 7db7 5cbd
-0.038923044 0.07665929 0.07422296 -0.03666121 -0.0063131824 -0.010706123 0.01910807 -0.039974097
0.014677787 0.005955005 -0.008104223 -0.01513325 -0.05680273 -0.019458612 0.1113493 -0.062718995
-0.07097885 -0.027452175 -0.032890603 0.091131635 -0.06431081 -0.03492406 -0.004873469 -0.067951
-0.03900066 0.01903445 0.05631972 -0.05152775 -0.0010831059 0.005563332 -0.020298792 -0.005806658
0.035695985 -0.07561881 -0.0063555953 -0.044152845 0.07381842 -0.035544913 -0.025760699 -0.068258576
-0.0631194 -0.089605875 0.019609554 -0.06886512 0.08803418 0.02754 -0.013486963 -0.06386454
-0.04944996 -0.052938614 0.021412803 0.014998156 0.048036538 -0.03248883 -0.035816442 0.0047555333
-0.07654466 -0.015524361 0.07494281 -0.055437453 -0.0012218257 -0.025916 -0.033443645 0.08449042
-0.04759484 -0.030069834 -0.06236651 0.10652681 -0.0825648 0.0012499333 -0.095547065 0.048448868
0.010674626 -0.06399727 0.075264774 0.03160117 0.019048033 -0.06254043 -0.089301065 -0.009148087
0.057961926 0.006309683 0.060476538 -0.099385664 0.012960499 0.07850918 0.019123951 0.07278406
0.048956387 -0.040127885 -0.028845679 -0.016015252 0.0073165684 0.043421075 0.06174579 0.08222444
-0.06494569 -0.0006814674 -0.005817614 -0.010985228 -0.0552329 -0.029689945 0.09981933 -0.016855266
0.061358146 -0.04189925 -0.040134914 0.06410935 0.014527838 0.064943515 0.071397275 -0.049267266
-0.04879117 0.03456503 -0.046420045 0.043570142 -0.050156247 -0.026589278 -0.006249673 -0.029253453
-0.0048537445 0.05710545 -0.056817003 -0.022180608 -0.066898204 -0.017451277 0.033144414 -0.00060367206
-0.08204074 -0.055795096 -0.042168308 0.034512103 0.008062002 0.004087165 0.016805641 -0.021760916
0.058377814 0.0515879 -0.096929334 -0.10383342 -0.045632433 -0.087515794 0.06288583 -0.0043735383
-0.0961893 0.020916635 -0.018059295 -0.074031174 -0.0122414855 -0.06015119 0.034628287 0.01555658
0.023697766 -0.011805429 -0.061085463 -0.015948268 0.04030531 -0.08204715 0.047780547 -0.051962443
0.052017618 -0.050766274 -0.051937908 0.042537596 0.00346121 0.023025082 0.014298058 0.009550154
-0.024123222 -0.008427231 0.005734428 -0.031536695 -0.032440774 -0.09010499 -0.07840485 -0.070458286
0.009264522 0.044029478 -0.0024592062 -0.021671979 -0.02127094 -0.0669328 0.04055445 0.011321785
0.0019040175 0.067543395 -0.046540715 -0.07095959 -0.06792308 -0.09869709 -0.08982766 -0.09916278
0.014282839 -0.06987122 -0.019597089 -0.11815421 -0.0027711133 -0.06949124 -0.060382612 0.008011283
-0.041811727 -0.044725962 0.07300547 0.004619316 -0.10240918 -0.06825501 -0.041375868 0.012735945
-0.0131994 -0.039869465 0.013751015 -0.02945963 -0.038145274 -0.05769748 0.0095082745 -0.032265235
0.0027312937 0.005091706 0.009511516 -0.09060521 -0.09057878 -0.06924577 -0.03973126 0.06256975
0.039793897 -0.0522839 -0.026581816 -0.019409372 0.033149436 0.0067184893 0.013766392 -0.09114257
-0.03384817 0.04413587 -0.075345 0.0058618626 -0.09319951 -0.0113331145 -0.082539245 0.013680646
-0.029590243 -0.07508681 0.04611843 -0.06851731 0.04282286 0.033873063 -0.03434591 0.041834857
0.049595263 0.05560719 0.07077084 -0.064446196 0.036389068 -0.0056488076 -0.06436348 -0.053885926

weight f4 [32, 128]
00000000: 4783 633d 7832 3e3b 0179 e0bd e7d4 10be
00000010: 3ce4 bf3d 6532 ad3c 48e4 bcbd 9184 353d
00000020: fcc1 0cbe 089f 07bc a9fb 253d 9703 b03d
00000030: 778b 26be 7977 963b bb62 fe3d bac0 1b3d
00000040: cede 813d c0e1 3d3d 9bba b9bb 4278 25be
00000050: 16e0 a13d fcec 6fbd 777b 943d bd20 f93d
00000060: a4e9 843c 6e76 dc3d 7d76 71bd 2643 96bd
00000070: 3779 8cbd 6a3a 723b 5b27 07be cced a0bd
00000080: 9dfa dabc ebfc 8e3d c36a ecbc 9fef 6cbd
00000090: 7e0d 3ebd d3f9 abbd c717 fd3c 1576 aabb
000000a0: a373 a5bc 7fd9 213e 1d31 1dbd 9775 80ba
000000b0: a8ed b5bd da6a 133d 48b9 ed3d 254e 853d
000000c0: c418 9d3b 6788 293e 4c0a a73d 782c 86bc
000000d0: fd65 efbd 4038 ad3d 85e5 2f3d ab67 373d
000000e0: bbf9 163e 1754 81bd b7ed 713d 8472 a23d
000000f0: f837 dbbd 35c8 2b3e 5fe2 963c 0779 e33d
00000100: a815 983d 3c76 19be 1d11 0cbe 36a5 1fbd
00000110: 72b5 00be c909 8b3d a3fc afbb 8c4b 70bc
00000120: 91f6 253e 1857 e43d bed2 c83b 20ae 82bb
00000130: bd01 0fbe 8d3e 753c a469 edbd c017 29bd
00000140: 0a97 b0bc 448d f83d 7efd ba3d 963e ce3c
00000150: e08e 9c3d 05b9 d3bc deb7 1b3e 66ee a1bd
00000160: 7c08 c7bc 09c2 88bd 2498 1abe e6fc b0bd
00000170: 99c5 ccbd 5661 28bd ecce c2bc 2563 a73d
00000180: e395 e93d 093b 273e cc66 8b3d b818 bcbd
00000190: b5eb 103e d6b4 1a3e 3669 88bd 66dc 62bd
000001a0: 6636 233e bded 403e 8228 9dbd 9062 73bc
000001b0: 715f b0bd 0299 c8bd c9c3 35be aa04 223d
000001c0: 3392 773c 6769 23be 381d 3dbd 05b2 003b
000001d0: 11ab 9f3d 963d 26bc 9e19 a3bb 7c1f 07be
000001e0: 2596 0fbd 2a3f ae3d cb40 2f3e 7219 85bc
000001f0: 4705 2e3e 2e9b 9b3d 1cb7 2dbe 1afa 97bd
00000200: c5d6 f5bc fffe ad3d c19d 333d dbac f5bc
00000210: db25 bbbc b74c 99bd 418c 8aba 5a05 39bd
00000220: 2903 c5bd 3b30 8a3d a6d5 9fbd d0b0 b83d
00000230: 7207 5f3c 40b6 043c f2c6 01bc e972 15bd
00000240: c659 213d 31f7 53bd 9a91 20bb 6d62 bbbc
00000250: caa8 c03d 631b ed3c 1e10 873c 3d2b 70bc
00000260: 528d 073d a11a 2f3d e9dd 933d 2837 6fbd
00000270: 6323 0e3d 45c4 9e3c 038f b23c e437 50bd
00000280: 008c 49bd 5598 963d f513 1dbd 10d1 033c
00000290: 652f a8bc fdbe b0bd 8097 8dbd 688d d33d
000002a0: 48d8 9b3a c941 573c 88de bebd a468 e2bd
000002b0: d773 d8bc 483a a93d 207f 5b3d f819 6bbd
000002c0: 06cd 9b3a f270 af3d 50fd 4dbd 6927 15bb
000002d0: 0389 6f3d 6d41 5cbd 02dd 8f3d 27c8 013d
000002e0: aeef 823d ffe7 8e3d 5960 82bc c1af 79bd
000002f0: 248f 163d b58b 96bc 896c b13c e4cb 17bc
00000300: 1992 53bd f783 173d fd12 693d d648 bcbd
00000310: 9cc3 4bbd 649a 073d 58a7 a3bc b8cc b03d
00000320: f94f 43bd bc05 d73d dd4a d63d 5041 f83c
00000330: c12f 353d 46a8 163d 493a a3bb 5387 fd3b
00000340: 6aab 5f3d df13 44bd a3a1 73bc c8c0 6c3d
00000350: 0ab4 f53c 93ac cabc 6c58 b03c 9d89 6fbc
00000360: cee8 2ebc e74f b23d e4f2 69bc bec3 73bc
00000370: 0de3 7a3b 2324 413b 6b76 1a3d 5109 b13d
00000380: ab6a 4a3d 3379 fd3a 99bc 9d3c faea 853d
00000390: 2bb8 56bd d532 45bd fc95 393d 9f4e 9fbd
000003a0: 10f2 433d cfe8 a13d e293 2e3c 0fd7 46bd
000003b0: 097c 90bc 738b b6bb 28c9 8bbc b526 5dbd
000003c0: 3bca 6bbd 2619 8e3d 4cf7 893d 7fcc 343d
000003d0: bfe1 023d 63de 8b3c 8887 0e3d a623 b4bb
000003e0: 79a4 b5bd 2895 4c3d 60ee 853d e3af 7bbd
000003f0: 28e5 8d3d f215 1fbd 4855 02bc 14e3 a53d
0.055545118 0.002902178 -0.1096058 -0.14143716 0.09369704 0.021142194 -0.09223229 0.04431588
-0.13745874 -0.008277662 0.040523205 0.08594435 -0.16264139 0.004591879 0.12421175 0.038025595
0.06341325 0.04635787 -0.005667997 -0.16159156 0.07904069 -0.058575615 0.072501116 0.121644475
0.01622469 0.10764776 -0.05895089 -0.07337026 -0.068590574 0.0036961087 -0.13198607 -0.07857856
-0.02673083 0.06981834 -0.028859502 -0.057845708 -0.046399586 -0.083972596 0.030895127 -0.0052020648
-0.020196741 0.15805624 -0.038376916 -0.000980067 -0.0888322 0.035990573 0.11607605 0.065090455
0.004794212 0.1655594 0.08156261 -0.016378626 -0.116893746 0.084579945 0.042943496 0.0447766
0.14743702 -0.06314867 0.059064593 0.07931998 -0.107040346 0.16775592 0.018418489 0.111070685
0.074260056 -0.14986509 -0.13678403 -0.038975917 -0.12569216 0.06788976 -0.005370693 -0.014666449
0.16207339 0.11149424 0.006128638 -0.0039880425 -0.13965507 0.014968527 -0.11592415 -0.041282415
-0.021556396 0.12136319 0.09130381 0.025176328 0.07644439 -0.02584506 0.15206859 -0.07906799
-0.024296038 -0.06677634 -0.150971 -0.086419865 -0.09998626 -0.04110845 -0.023780309 0.08173207
0.11405542 0.16331114 0.06806716 -0.09184402 0.14152415 0.15108046 -0.066606924 -0.05538597
0.1593872 0.1884069 -0.07673742 -0.014855042 -0.08611954 -0.09794809 -0.17750467 0.03955523
0.01511054 -0.15958177 -0.046170443 0.0019637358 0.077963 -0.010146519 -0.004977419 -0.13195604
-0.0350553 0.08508141 0.1711456 -0.016247485 0.169942 0.075979576 -0.16964382 -0.0742075
-0.030009637 0.08495902 0.043851618 -0.02998965 -0.0228452 -0.07485335 -0.0010570363 -0.04517112
-0.096197434 0.067474805 -0.07804422 0.09018099 0.013612615 0.008100092 -0.007920967 -0.03648654
0.039392255 -0.051749412 -0.0024500848 -0.022874082 0.09407194 0.028943723 0.016487177 -0.014658746
0.033093758 0.042750005 0.072200604 -0.05840221 0.034701716 0.019380698 0.021796709 -0.05083455
-0.04920578 0.07353274 -0.03834911 0.00804545 -0.020530412 -0.08630178 -0.06913662 0.103297055
0.0011890018 0.013138243 -0.09319788 -0.11055115 -0.026422424 0.082630694 0.053588033 -0.057397813
0.0011886663 0.085664645 -0.050290406 -0.0022759086 0.058480274 -0.053773332 0.07024576 0.03168502
0.063933715 0.069778435 -0.015915083 -0.060958628 0.036757603 -0.018377164 0.021658199 -0.00926492
-0.051653 0.036991086 0.056902874 -0.0919358 -0.049747095 0.033106223 -0.019977257 0.08632797
-0.04768369 0.104991406 0.10463498 0.03030458 0.044234995 0.03678157 -0.0049813134 0.007737079
0.054606833 -0.047870513 -0.01487008 0.057801038 0.029993076 -0.024740493 0.021526538 -0.014620212
-0.010675622 0.087066464 -0.014279101 -0.014878212 0.0038282305 0.0029471002 0.03771059 0.08644355
0.049418133 0.0019338488 0.01925497 0.06538959 -0.05242173 -0.04814418 0.045309052 -0.07778668
0.04783827 0.07905733 0.010655375 -0.04854494 -0.01763727 -0.005570823 -0.017063692 -0.053991992
-0.05756591 0.069383904 0.06736621 0.044140335 0.03195357 0.017073816 0.03479722 -0.0054974137
-0.08869261 0.049946934 0.06539607 -0.061447036 0.06928474 -0.038839288 -0.007954903 0.08099952

bias f4 [32]
00000000: d5b6 39be 7905 18bc 1d81 053c 2412 f6bb
00000010: 9fa0 393b c39e 9d3c a0a2 813c 6e1d 7c3d
00000020: e8f7 b13c 5e32 0ebd 6efd a23b 9bbc 343c
00000030: f8c0 42bc 688d 6c3c 118e b7bd a591 fcbd
00000040: 94be 1fbd e097 1bbe 9988 5c3d c4a7 a33d
00000050: 8c35 4d3d b95a b538 c6d4 d43c da6a 753d
00000060: 6d14 f93c 3d7e 79bd 5930 85bd 4c22 c43d
00000070: 54fe 31bd 5e6e 823d 62c9 593b 4a20 0cbd
-0.18136151 -0.0092786485 0.008148459 -0.0075094867 0.0028324497 0.019240743 0.015824616 0.061551504
0.021724656 -0.034716003 0.004974059 0.011031295 -0.011886828 0.014438011 -0.08962644 -0.12332467
-0.03900011 -0.15194654 0.053841207 0.07990983 0.050099894 8.647651e-05 0.025980365 0.059916355
0.030405248 -0.060911406 -0.06503362 0.09576854 -0.043455437 0.06368707 0.0033231606 -0.03421048

weight f4 [1, 32]
00000000: da72 05be 21c6 9fbd 4c7f 82bd 4897 2dbd
00000010: 4218 99bd 76cb d63d 75bc 623d 3e29 413d
00000020: af12 123d 3efd bc3d 71e3 f63d 4f98 f8bd
00000030: a3b0 343d e95e 8bbd 51f1 023e d369 f1bd
00000040: dce5 c3bd 329a 15be 4227 8fbc 7d10 803c
00000050: 8962 d8bd 07f8 423d 919b 01bd 5ceb 963c
00000060: 15bf 3c3d 4e53 adbd ed35 9ebd 8f16 7dbc
00000070: 827c 813d b4f9 dc3c 9ff4 1d3d 0f4e 5fbd
-0.13032094 -0.07801462 -0.06371936 -0.0423806 -0.0747533 0.10488026 0.055355508 0.047158472
0.03566235 0.092279896 0.120551 -0.121384256 0.044113766 -0.06805212 0.12787367 -0.117877625
-0.095653266 -0.14609602 -0.017474774 0.015632862 -0.10565669 0.04759982 -0.0316425 0.018422775
0.046080668 -0.08463155 -0.07725129 -0.015447273 0.06322576 0.026974536 0.038563367 -0.0545178
