data/Superior/superior_meta.pt (torch, 338353 bytes, 7 tensors)

weight_ih_l0 f4 [512, 24]
000000 f3 6b a4 bc 68 f4 1a 3d 7a a3 e0 3b a1 45 f6 bc
       -0.020071005 0.03783074 0.0068554254 -0.030062499
000010 89 09 78 3d cd 4a 7a 3d 4b d5 82 bd 30 bc c9 3c
       0.06055597 0.06110649 -0.06388339 0.024625868
000020 c0 96 a1 bd 54 82 ed 3c 2c d4 24 3d d6 73 90 bd
       -0.078900814 0.02899281 0.040241405 -0.07053344
000030 c1 cf d5 bc 25 67 b3 bd 7a e8 61 bd 6c 8f 45 bd
       -0.026100041 -0.08759908 -0.055153348 -0.04823248
000040 c2 5e 17 bd 27 e8 ec bb a1 ac a5 bc 79 09 c4 bb
       -0.036955602 -0.007229823 -0.020223917 -0.0059825745
000050 33 93 b6 3c 53 8f 90 3d e7 55 f3 3c ae 61 63 bd
       0.022286987 0.07058587 0.029704047 -0.055513076
000060 21 c7 5c bd c6 11 87 3d 91 b9 a4 bd ed c5 98 3c
       -0.05390084 0.06595187 -0.080432065 0.018649066
000070 fe 38 d9 3c fb bb 56 bc 7a 7d 95 bd c7 2c f7 bc
       0.026516434 -0.0131063415 -0.072993234 -0.030172719
000080 fa 23 d9 bc 61 a3 c8 bb 43 40 b5 bd ac fa a8 3d
       -0.026506413 -0.006122992 -0.088501476 0.08250937
000090 b3 e1 4f 3d f4 e8 8e 3c b3 4f 1f bd fb df 17 b9
       0.050752353 0.017445065 -0.038894366 -0.00014483921
0000a0 31 ab 18 bb b2 de 83 3d 9a 23 49 3c 96 a7 0f bd
       -0.0023295397 0.0643896 0.0122765545 -0.03507193
0000b0 7a 83 9c 3d 34 b0 04 bd c5 73 5f 3d 83 e4 6a 3d
       0.07642265 -0.032394603 0.054553766 0.057346832
0000c0 02 91 5c 3d 32 4a 89 bd f1 2c 44 bd 2b 73 6b 3d
       0.053849228 -0.06703605 -0.047894422 0.05748288
0000d0 a3 18 80 3d 6f d2 a5 bd 86 f4 83 bd dd 55 67 3d
       0.06254699 -0.08096778 -0.064431235 0.05647837
0000e0 58 85 0f bd 06 1c 5b 3c bc b7 04 3d ff 6c 8b bc
       -0.035039276 0.0133733805 0.032401785 -0.017019747
0000f0 7e 67 18 bd bc c0 09 3c 42 e7 84 3c 75 70 a8 3c
       -0.037208073 0.008407768 0.016223554 0.020561436
000100 d3 2d 8a bc db a3 83 3c 99 67 12 3d 2c 5b 62 3d
       -0.016867554 0.016069343 0.03574333 0.05526273
000110 11 26 10 3d ea 1b f5 3c 0d bd 56 3d a7 2a 93 3d
       0.035192553 0.029920537 0.052426387 0.0718587
000120 bd 32 2d 3d a7 82 bf 3c 14 96 ad 3d 65 8e 02 bc
       0.042284716 0.02337773 0.08475891 -0.00796852
000130 38 27 aa 3d 4a 9d 9f bd f8 bb a0 3c 94 2b 85 bd
       0.08308262 -0.077936724 0.01962088 -0.065024525
000140 ab 2c 00 3c 85 77 7f bc 18 23 66 3d 6a df 91 3d
       0.00782315 -0.0155924605 0.05618581 0.07122691
000150 45 44 a8 3d 97 72 a9 3b 82 3d 80 3d cb dc 6c bc
       0.082161464 0.005171131 0.06261732 -0.014456938
000160 c2 2d a9 bb ed 13 ac bc 79 20 39 3d 0a 55 7a 3c
       -0.0051629255 -0.021005595 0.045196984 0.015279064
000170 ba 73 bf 3c e3 0f ad 3d 97 5a 88 3d de 8c 52 bd
       0.023370612 0.08450296 0.06657904 -0.051403873
000180 5d af 97 3d 55 af 80 bc 8a 87 48 3c aa 17 96 bd
       0.07406495 -0.015708605 0.012239346 -0.07328732
000190 bf 16 82 3c 6a b2 0f bb d9 ba 5e bd 2c bc 48 3d
       0.015879987 -0.0021926411 -0.05437741 0.04900758
0001a0 03 96 2a 3d c4 b2 54 bc 66 6e 21 bd 44 d1 56 bd
       0.04164697 -0.012982074 -0.039411925 -0.052445665
0001b0 bc 2f 90 bd ae cd 28 3d 8b ec 61 3d b2 ce 47 3d
       -0.070403546 0.041211776 0.055157226 0.048781104
0001c0 be 29 79 bd e7 ec 10 bd 21 43 82 3d d4 bb 9a 3c
       -0.060830824 -0.035382178 0.0636046 0.018888392
0001d0 32 47 4c 3d 47 ba 8d bd 51 ba a9 bd be 32 6a bd
       0.049872585 -0.06920295 -0.0828749 -0.057177298
0001e0 e6 f4 e2 bc bf fa e8 bc f3 bb 88 bd f0 33 5b 3d
       -0.027704667 -0.028439878 -0.066764735 0.05351633
0001f0 df 8d c6 bc f3 29 bb 3d 32 c0 cd 3c ec a3 d3 3c
       -0.024237571 0.091388606 0.02511606 0.025835
000200 6a fa 40 bd 65 b7 80 3d ea fd c4 3d 1c 06 64 bd
       -0.047113813 0.0628498 0.09618743 -0.05566989
000210 70 f8 71 3c 06 be c4 3d 44 39 49 3d e9 07 d9 3c
       0.014768705 0.096065566 0.04912688 0.02649303
000220 b4 ce 96 bd d2 48 8f bd a6 09 8e 3c e1 78 98 3c
       -0.07363644 -0.06996311 0.017338585 0.018612327
000230 2b 88 18 3d e6 29 48 3d f4 43 6f 3d 9b f3 e4 bb
       0.037239235 0.048868082 0.058414415 -0.006987048
000240 f2 bd 44 3d 0b 71 57 3d 80 dc ee 3b 67 00 98 3d
       0.04803271 0.05259804 0.0072894692 0.07421952
000250 24 a7 7a 3c da e9 9b bd 6c db 50 3c 14 58 82 3d
       0.0152986385 -0.07612963 0.012747627 0.06364456
000260 66 5c d3 3b 9f d2 dc 3c cb 23 7d bc a2 dd 7a bd
       0.0064502237 0.0269559 -0.015450428 -0.06124652
000270 b0 9b 52 bd 54 3f a5 bc aa 8e d9 3c 65 9d 19 3d
       -0.051418006 -0.020171799 0.026557285 0.03750362
000280 f0 79 ae bd 47 65 ae 3d 0c fb 82 bd 37 d4 c7 3a
       -0.085193515 0.08515411 -0.0639554 0.001524574
000290 1c 89 81 bd 85 47 ad bc 49 c2 68 bd ed 35 01 bd
       -0.0632498 -0.021152267 -0.05682591 -0.03154557
0002a0 30 46 98 3d b1 38 c5 3c f4 77 9c bd f4 21 9c bd
       0.07435262 0.024074884 -0.07640067 -0.076236635
0002b0 f8 71 a7 3d 6f ca 00 bc dc c3 97 bd 0c 4f 4b 3d
       0.08176035 -0.007860764 -0.07410404 0.04963593
0002c0 0a 84 6e 3d a9 74 83 bd b7 3d 09 3d 8c 29 63 3d
       0.05823139 -0.064187355 0.03350612 0.055459544
0002d0 77 3c 24 bc ee c8 29 bd 7d d2 55 3d 03 e7 13 3b
       -0.010024182 -0.041451387 0.05220269 0.0022568114
0002e0 7a e6 0e bd a3 b9 70 3d 4d 80 d2 3c 25 b3 36 3d
       -0.03488777 0.058770787 0.025695944 0.04460444
0002f0 ac 4d 3c bd 90 74 0f bd 00 e4 02 bd a3 dd 41 3d
       -0.04597251 -0.035023272 -0.03195572 0.04733051
000300 e7 49 93 3d ce 93 16 bd 56 6e 41 3d c9 99 b0 3c
       0.0719183 -0.03676205 0.047224365 0.021557705
000310 72 e8 38 3c 05 b6 ea 3c 16 62 c6 3d cb f2 06 3d
       0.011285888 0.028651247 0.09686677 0.03294639
000320 f5 cd c4 3d b0 26 c2 3d a1 7f c7 3c 9f cb 80 3c
       0.09609596 0.09480035 0.02435285 0.015722094
000330 0b 6e 2c 3d c0 3f 9c 3d 99 ca 81 bd 6f f1 42 3d
       0.042097133 0.07629347 -0.063374706 0.04759353
000340 90 15 10 bd e2 17 d9 bb e4 e4 86 3d 53 70 a2 3d
       -0.035176814 -0.0066251615 0.06586626 0.079315804
000350 0f b3 43 bc e2 6b d0 3d 78 f5 ce 3d 8f 26 48 bd
       -0.011944546 0.10176827 0.10105413 -0.048864897
000360 d8 26 8a 3d 42 e0 95 3d fc d8 58 bd d2 a5 2d bd
       0.0674569 0.073181644 -0.052941307 -0.042394467
000370 eb 8f 2b 3d 28 83 9c bd 1a 37 00 bd a1 ff 7b 3c
       0.041885298 -0.076422036 -0.03130255 0.015380771
000380 d7 82 27 3d 5d 4c 5c 3c a7 75 64 bd 09 f2 5b 3d
       0.040896263 0.013445941 -0.055776265 0.05369762
000390 1d 7e 24 bc 3e 56 2f bd 8f 71 ac bd 92 1f 86 3d
       -0.010039833 -0.042806856 -0.08420097 0.0654899
0003a0 4b d7 ec 3c 1a c9 84 3d 54 ef 1a 3d 6e c5 0d 3d
       0.028911253 0.064836696 0.037825897 0.03461211
0003b0 04 37 59 3d fb 8c b0 bd db c3 93 bd 56 fa 88 3d
       0.053030983 -0.0862064 -0.07215091 0.06688373
0003c0 15 e7 90 3d 59 a2 8d bd 83 64 a6 3d ff 73 e3 bc
       0.070753254 -0.06915731 0.0812464 -0.027765272
0003d0 24 db 89 3d 36 99 d6 bc 9d 35 05 3d 70 81 3e bc
       0.06731251 -0.026196104 0.032521833 -0.01162754
0003e0 01 ed 5b bd d1 12 eb bc 9f e1 73 3d 11 d7 e0 3c
       -0.05369282 -0.028695496 0.05954134 0.027446302
0003f0 3c 25 80 bd b1 0f 71 bc 3a 6b 82 3b ee 44 5f 3d
       -0.06257102 -0.014713214 0.0039800676 0.054509096

weight_hh_l0 f4 [512, 128]
000000 55 eb 34 3d 4d 91 8f 3d 2e f1 a1 bd 64 f0 01 3d
       0.044169743 0.07010136 -0.079073295 0.031723395
000010 0a 6a a2 3d 12 d7 27 3d 62 f4 a1 bb 8c 66 08 bd
       0.079303816 0.04097659 -0.004942463 -0.03330092
000020 58 2e 4f bd 9f 5a ba 3d 1f 53 75 bd 4d f6 1a bd
       -0.050581306 0.09099316 -0.059893724 -0.037832547
000030 c2 f7 85 3d f7 b0 aa 3d c0 5c 44 bd 0b 66 01 3c
       0.06541397 0.083345346 -0.047940016 0.007897864
000040 66 c6 54 3d db 24 19 bd 65 33 01 bc 81 25 50 bc
       0.05194702 -0.037388664 -0.007885789 -0.012704254
000050 f9 05 c6 bc 88 48 4b 3d 97 e9 7e 3d 6c 4a ab 38
       -0.02417277 0.049629718 0.062234487 8.1677776e-05
000060 eb 2f 41 3d 24 1e eb 3c e1 09 7b 3c bf 8e 91 3c
       0.04716484 0.028700896 0.0153221795 0.017768262
000070 bc 19 a2 3d 99 22 4d bd 1a 57 31 bb 98 fb c8 3c
       0.07915065 -0.050081823 -0.0027059973 0.024534032
000080 5d e5 40 3d 67 1b 18 bd 75 fa 81 bd 0e 77 26 3d
       0.047093738 -0.037135508 -0.06346599 0.040640883
000090 72 48 d5 3c 72 e6 a5 bd 87 e9 47 bd e1 ef 92 3d
       0.026035521 -0.081005946 -0.048806693 0.071746595
0000a0 ad f7 c7 bb 65 8f 73 3d bf 58 2f 3c cb e9 04 3d
       -0.0061025233 0.059462924 0.010702311 0.032449525
0000b0 35 51 04 3d 21 e9 89 bd a4 76 3d bd 08 9e 2c bd
       0.032304008 -0.06733919 -0.046255723 -0.042142898
0000c0 b2 5b 77 3c 94 a3 14 bd 42 37 9c 3d d3 c5 57 bc
       0.015097545 -0.036288813 0.07627727 -0.013169724
0000d0 37 a4 68 3d a3 73 61 bd bf 0f 15 bd 6a 66 8e bc
       0.056797232 -0.05504192 -0.03639197 -0.01738282
0000e0 75 df 16 bd 81 56 90 3d 58 29 c3 3c 3a bc 1f bd
       -0.0368342 0.07047749 0.023823425 -0.038997866
0000f0 51 3a 27 bd af 61 8e 3c fe 0f 54 bd 45 1c b0 3b
       -0.0408271 0.017380564 -0.051773064 0.0053744637
000100 06 82 01 3d c7 16 84 bd 1c 05 9c 3d 7c b4 29 3d
       0.03161814 -0.06449657 0.07618162 0.04143189
000110 13 45 a0 bd e4 fd dd bc 45 07 8d bd 14 b9 8e bd
       -0.07825675 -0.027098604 -0.06886152 -0.069688946
000120 d5 34 7e bd 8d af b2 3d 6a 72 63 3b fa ab 8f bd
       -0.062062103 0.0872489 0.0034705647 -0.07015224
000130 a0 3a b0 bd fe 92 fd 3c 86 d5 95 bd 25 e4 41 bd
       -0.08604932 0.03095388 -0.07316117 -0.047336716
000140 e2 35 1c bd 05 40 2d bd 54 57 21 bc 53 45 1a bd
       -0.038137324 -0.042297382 -0.009847481 -0.03766377
000150 35 b5 ae 3b bf bc 4f 3d b7 4d 42 bd 09 f5 c1 3c
       0.00533166 0.05071711 -0.047437396 0.023676412
000160 39 be 1d bd 26 8e 30 bd 3b 76 5d bd 19 96 3a 3d
       -0.03851149 -0.043104313 -0.05406783 0.0455533
000170 d9 b4 d2 3d b9 37 90 3d 1c bc a8 bd ab 70 af bd
       0.102884 0.07041878 -0.08239004 -0.085664116
000180 95 75 92 bd d9 76 6f 3d d3 71 66 3d 8f 95 4e 3c
       -0.07151333 0.05846295 0.056260895 0.0126089
000190 07 e2 49 3c 24 58 46 3d 03 36 00 bc 83 dd 84 bd
       0.0123219555 0.0484239 -0.007825377 -0.064875625
0001a0 0f 2c 01 3d ec 93 a6 3d e5 d1 e5 bc cb 90 06 bd
       0.03153616 0.081336826 -0.028054187 -0.03285293
0001b0 10 60 bf bd 12 f8 a0 3c 6d af 8f 3d 2b fc 01 bd
       -0.09344494 0.01964954 0.07015882 -0.031734627
0001c0 e4 4d 7e bc 58 04 00 3d f3 06 90 bd 01 0d 89 3d
       -0.0155215 0.031254143 -0.070325755 0.066919334
0001d0 7f 8a 2c bd e7 5d 27 3d dc 69 a0 bd 09 d7 34 3c
       -0.042124268 0.040861037 -0.07832691 0.0110375965
0001e0 27 d8 37 3d d1 52 e7 3b 87 22 43 3d 34 ef 34 bd
       0.044883873 0.007059433 0.04764035 -0.044173434
0001f0 1b a3 01 bd 97 89 fe b9 15 74 7a 3d 06 cc 8b 3c
       -0.03164969 -0.00048549168 0.06114586 0.01706506
000200 7d b4 5e 3c bf c7 b4 3d 4d 06 03 bd 0d 0d af bc
       0.013592836 0.08827161 -0.03198843 -0.021368528
000210 e6 77 22 bd 35 7a 93 bd ce ae 80 3d 94 f8 ab 3c
       -0.039665125 -0.072010435 0.06283341 0.020992555
000220 17 fe 84 3c 9c ba bb bc c5 81 8a 3d 0a ea 4b 3d
       0.01623444 -0.02291613 0.06763033 0.049783744
000230 eb e1 c6 bd 01 79 32 3c b7 50 ac 3d 0d cc 54 3c
       -0.09711059 0.010893107 0.08413833 0.012988103
000240 e6 fd d0 bc 1c e6 15 bd d1 05 93 3d 93 28 76 bd
       -0.025511693 -0.036596403 0.07178844 -0.06009729
000250 27 40 a6 bb 0f bf ba 3d 95 7c 6a 3d c9 ce 2a 3d
       -0.0050735655 0.09118473 0.057247717 0.041701112
000260 eb 3c 9a bc f6 e2 94 bd 59 a4 6c 3d e7 1c 83 3d
       -0.018827876 -0.07269852 0.05777392 0.06401997
000270 a4 b5 80 3d 4f 2e 98 bc fd 9d bf bd c2 01 82 3b
       0.06284645 -0.01857677 -0.09356306 0.0039674947
000280 57 64 5d 3d e9 d8 4f 3c be 8b 86 bd a7 e5 6a 3d
       0.05405077 0.012685993 -0.065696225 0.05734792
000290 30 ae 09 bd b3 46 b5 3b 04 98 aa bd 8f d8 58 bd
       -0.033613384 0.0055321096 -0.08329776 -0.0529409
0002a0 67 6f 75 39 39 38 80 3d 1c 5e 8d bb 3f 51 6d bd
       0.00023406521 0.062607236 -0.004314197 -0.05793881
0002b0 e0 34 85 bd 1b 79 89 bb 45 ee 1f 3d 48 df 95 3c
       -0.06504226 -0.004195345 0.03904559 0.018294945
0002c0 ef 4e 54 3d a8 89 7a 3d 39 95 69 3d 5d 76 14 bd
       0.05183309 0.061166435 0.057027075 -0.036245693
0002d0 34 fb 07 bb c2 d0 19 bc 9d c1 1b 3d ff 7e f6 3d
       -0.0020749094 -0.009388151 0.03802644 0.12035941
0002e0 65 64 5a 3d 75 8c 22 3d 97 fb ee bc 2b 02 21 bc
       0.0533184 0.03968473 -0.029172702 -0.009827177
0002f0 bb 17 bd 3d f9 12 67 bb d7 a6 d5 bd 5a df cb bd
       0.09233042 -0.0035259111 -0.10432213 -0.0995471
000300 d8 bf 94 bc 7e a6 a3 3d 0c 0c 8a bd 1e d5 1b bb
       -0.018157884 0.0799074 -0.06740579 -0.002377815
000310 74 1a 8d bd a4 54 67 bc 7e eb b7 3d 77 c4 5a 3c
       -0.06889811 -0.014119301 0.089804634 0.013352505
000320 2b 2c f4 3c 93 e9 f4 bc 6c ce b0 bc 43 b2 94 bc
       0.029806217 -0.029896533 -0.021582805 -0.018151408
000330 45 0d 35 bd 7e ad 10 bb 13 54 8c 3d c0 0c 94 3d
       -0.044202108 -0.0022076066 0.068519734 0.07228994
000340 2a bb 02 3d 1b 10 2c bd 91 27 98 3c 74 4b 81 3b
       0.031916775 -0.042007547 0.018573554 0.0039457623
000350 f6 49 7d bc 4d 71 e1 3b f6 92 b5 3d 97 fb 41 3d
       -0.015459528 0.0068799616 0.08865921 0.047359075
000360 d6 e9 31 3d 27 2d b3 bb 2e 11 46 bd c8 29 8f 3c
       0.043435894 -0.005468029 -0.048356228 0.017475978
000370 88 4d 5c bd 5c b4 32 3d a2 5f 6a bb 65 aa 25 3d
       -0.053784877 0.043629035 -0.0035762568 0.040445704
000380 d2 70 cd bd c2 47 48 bd 8d bb 0b 3c 75 2d 47 3d
       -0.100312844 -0.04889656 0.008528602 0.048627336
000390 50 31 5e bd c8 46 1a bd 83 47 12 3c ec eb d1 bd
       -0.054246247 -0.03766516 0.008928183 -0.10250077
0003a0 64 1d ea bc eb 7b 85 bc 1b fa ef 3c 89 6b 1b 3d
       -0.028578468 -0.01629444 0.029294064 0.03794435
0003b0 c9 b4 14 bd 56 78 ff bc ed 70 c6 bd 2c 3c db bc
       -0.036305223 -0.03118531 -0.09689508 -0.02676209
0003c0 61 1f eb 3c 7c e2 0b 3d 38 6b 68 3d 18 0f 32 3c
       0.028701486 0.03415154 0.056742877 0.010867856
0003d0 89 c2 05 3d df 8c 24 bc cc 27 8d bc 3c d8 8b bc
       0.032656226 -0.010043352 -0.01723089 -0.017070882
0003e0 ae a7 91 3b 81 e1 55 bd d7 1f 56 bd 55 87 3c bc
       0.004445038 -0.05221701 -0.05227646 -0.011506875
0003f0 9f a9 03 3d 74 be 3f bb 04 68 c4 bd 6d 17 84 bd
       0.032144185 -0.0029257806 -0.09590152 -0.064497806

bias_ih_l0 f4 [512]
000000 57 19 96 bd 31 01 cb 3d e1 3e 42 bd 05 a1 21 bc
       -0.07329052 0.099123366 -0.047423247 -0.00986505
000010 58 a3 e1 bb 9f 74 cb 3d 75 cc 3e bd 25 4f 57 3d
       -0.006885927 0.09934353 -0.046581704 0.052565712
000020 7d 24 a9 bb 8a 29 73 bd da 00 6e 3c e1 5b 80 bd
       -0.0051618204 -0.059365787 0.01452657 -0.062675245
000030 df 15 60 3c 17 c5 de 3c af a8 ab 3b 7f 6a 84 bc
       0.0136770895 0.02719359 0.0052386145 -0.016164063
000040 81 1b 3a 3c 1d 34 b1 3d 3f f7 5f bd 90 6c 55 bd
       0.0113590965 0.08652518 -0.05467915 -0.052105486
000050 23 c5 64 3d b6 8f 7b bd 89 3f 95 3d f8 40 e9 bc
       0.055852067 -0.06141635 0.07287509 -0.028473362
000060 91 db 09 3d 56 ff 13 3d 2b 6d dc bc 9c bb 83 3d
       0.03365666 0.03613218 -0.026907524 0.06432268
000070 97 df c2 bc cc 02 38 bd 63 a2 07 3d d9 d3 d7 bc
       -0.023788257 -0.044924542 0.03311385 -0.026346134
000080 9a 7d b7 3d 1d a6 d7 bc 44 c7 8c bd d4 3b 71 bd
       0.089595035 -0.026324326 -0.068739444 -0.058894947
000090 83 d2 e0 3b e1 ad 72 bd 33 33 e3 bc 31 c4 07 3d
       0.0068610325 -0.059247855 -0.027734375 0.033146087
0000a0 26 b3 6b bc ca 98 26 3d 07 a8 98 3c 92 be 90 3c
       -0.014385974 0.040673055 0.01863481 0.017668996
0000b0 48 a8 60 3d 30 71 4b 3c 6a 76 9f 3d 38 9c 24 3d
       0.054847986 0.012417123 0.077862576 0.040188044
0000c0 ba c3 28 bd ab 8a 52 3d 22 a9 85 bc 03 f3 fa 3d
       -0.041202284 0.051401775 -0.016316 0.12253382
0000d0 d2 92 62 bc e2 58 63 bd 16 ca bf 3b 31 e2 ad bb
       -0.01382895 -0.055504687 0.005852948 -0.005306505
0000e0 22 bf 1d bc 29 37 13 bd 2e 08 8f 3d 9b 26 33 3c
       -0.009628089 -0.035941277 0.06983982 0.010934497
0000f0 44 2e 33 3d ad 26 49 3d 0c ce d0 bc 85 a0 9d 3d
       0.043745294 0.04910915 -0.025488876 0.07696632
000100 a2 b3 ce 3c 77 91 9f bc 50 91 eb 3d 4b e8 b2 bd
       0.02523214 -0.019478543 0.115023255 -0.087357126
000110 3b c4 05 3c 0f 04 88 3d fa 0d 90 bd 77 91 2e bd
       0.008164461 0.06641399 -0.07033916 -0.042619195
000120 cb 19 c1 3d f4 26 80 3d 62 d4 07 bc f5 64 65 3d
       0.09428748 0.0625743 -0.008290382 0.056004483
000130 0a e4 14 bd 7d 24 44 bc ab 23 a0 bb a0 d5 4c bd
       -0.036350287 -0.01197159 -0.0048870645 -0.050008416
000140 ed 1d 5f bd 90 27 1d bd df 0f 5c bd d4 8f d7 3d
       -0.0544719 -0.038367808 -0.053726073 0.1052548
000150 3c 6e d7 bc 1d 19 c1 bd 9b 66 9c 3d 68 ba 3d 3d
       -0.026297681 -0.09428618 0.07636758 0.04632035
000160 4d bf 95 3d 83 8f 84 bd 23 c4 06 3d 0a 9f ee 3c
       0.07311878 -0.06472685 0.032901894 0.02912857
000170 01 27 a7 3d d9 1d c9 3d 8c f6 c0 3d ec e9 96 3d
       0.08161736 0.09820146 0.09422025 0.07368836
000180 01 3f ba 3d 3b 39 7f bc 73 78 3b 3d d6 2e 5e 3d
       0.09094048 -0.01557761 0.045769166 0.054243885
000190 e2 ad 56 bd e2 24 5c 3c d8 7f a5 3d ee e4 86 3d
       -0.05241192 0.013436528 0.08081025 0.065866336
0001a0 ce 88 80 bd 71 ff c1 bc 4e da 83 bd 59 14 21 3d
       -0.062760934 -0.023681374 -0.06438123 0.039326046
0001b0 5f ee a5 3c a7 13 2e 3d c3 93 09 3d 2f 59 5c 3d
       0.020255266 0.04249921 0.033588182 0.05379599
0001c0 6e cf 49 3d a0 71 db 3c dc eb 56 3d b8 b4 6a 3d
       0.049270086 0.026787579 0.052471027 0.057301253
0001d0 4b 42 8a 3d 72 a4 83 3d 20 59 da 3d 40 83 5c 3d
       0.06750926 0.0642785 0.106615305 0.053836107
0001e0 75 c5 70 3d 42 54 37 3d 3f 0a 26 3d 0d f5 63 bd
       0.05878206 0.04475809 0.040537115 -0.05565362
0001f0 0b a4 54 bd 45 e7 b4 3c 4c 76 cf bc 28 e0 dd bc
       -0.051914256 0.022082934 -0.025324963 -0.027084425
000200 cd 9a 13 bd a7 c3 73 bc ff 1e ae bd 95 05 c8 bd
       -0.0360363 -0.01487819 -0.08502006 -0.0976669
000210 d7 ce 98 3c eb 24 ae bd 3b 18 1c 3c 24 d5 32 bd
       0.018653316 -0.08503135 0.009527261 -0.043660298
000220 4e 2a 79 3d 8c 13 7a bd 61 9e da bc 3f e2 76 3d
       0.06083136 -0.061053798 -0.02668685 0.06027436
000230 5b 5e 8f bd 1e b7 84 bd cc 98 fd 3c 56 97 d3 bc
       -0.07000419 -0.06480239 0.030956648 -0.025828999
000240 75 b6 5c bd 04 e7 d5 3c 12 02 37 bc 90 64 46 3d
       -0.053884942 0.026111133 -0.011169927 0.048435748
000250 0d 2a 19 bc 3e cf 83 bd f5 8d b4 bd a3 d1 08 3d
       -0.009348405 -0.06436013 -0.08816139 0.03340305
000260 fb 5a 26 bd 57 c4 a8 bd 8f fd b5 bd 2a fe d2 bd
       -0.04061411 -0.08240574 -0.08886253 -0.10302384
000270 2d 2b c2 bd 4e e7 8c bd 89 5d c4 bd 1d 70 51 bd
       -0.094808914 -0.06880055 -0.09588153 -0.05113231
000280 c0 b6 4a 3c a8 88 12 bd 9f a9 86 3d b6 7c fb bc
       0.012372673 -0.035774857 0.065753214 -0.030699115
000290 cc 46 ac bd fd 13 34 3d 68 33 df bd d2 3b 56 3d
       -0.08411941 0.043964375 -0.10898477 0.052303143
0002a0 da e5 17 3d 78 76 44 bd 1f 3a 21 3d 1b 0f 4c 3d
       0.037084438 -0.047964543 0.03936207 0.049819093
0002b0 53 e6 56 3d 2a 6b 6d 3d 5f 2d 3e bc 5a 8b 37 3c
       0.052465748 0.057963528 -0.011607497 0.011202658
0002c0 12 6d ab bc d9 10 55 bd c1 ac 0e 3d bf 65 ea ba
       -0.020926032 -0.05201802 0.03483272 -0.0017883106
0002d0 95 56 82 bd 63 1b cd bc 97 7b 15 bd aa 1f 3a bd
       -0.063641705 -0.025037473 -0.036494818 -0.045440353
0002e0 ba 24 81 3c f1 86 89 3d 28 67 8f 3c cd 87 e5 bc
       0.015764583 0.06715191 0.017505243 -0.028018856
0002f0 d0 17 68 3d 16 49 89 3d 7d 4b 94 bb 5f 0c ac 3c
       0.056663334 0.06703393 -0.0045256005 0.021001993
000300 b2 0d 5a bc c5 1c 0a 3d 9e 10 d1 bd aa 4b 0f 3d
       -0.013308929 0.033718843 -0.102082476 0.03498427
000310 39 13 f0 bd 31 1c 65 bc 28 a4 35 bc 66 4e 4d bd
       -0.117224164 -0.013983772 -0.011086501 -0.050123595
000320 a0 78 cd bc d6 e4 c7 bd 9e 89 af bd f5 e0 b8 3c
       -0.025081933 -0.09760444 -0.0857117 0.022568205
000330 c8 3f ed 3c d0 c6 c2 3a 7e 54 bd bd c7 7e 1f 3d
       0.028961077 0.0014860276 -0.09244631 0.038939264
000340 21 cc d4 3c 22 02 d2 3c ce a6 36 3c 1c 84 8f bd
       0.025976242 0.025635783 0.011148168 -0.0700762
000350 ec 32 96 bd 74 95 5c 3d af 94 5b 3d da 02 4d 3d
       -0.07333931 0.053853467 0.053608593 0.050051548
000360 34 55 0a bd a5 af bb 3b 3f 64 69 3d 7e 27 e5 3b
       -0.033772662 0.0057277256 0.056980368 0.006993233
000370 0d 46 a3 3d e9 8b 29 3c c8 d5 88 bd 06 4f 89 bd
       0.079723455 0.010348299 -0.066814005 -0.06704526
000380 7b bc c7 3b d5 4e ab bd 9d 8c df 3a 46 ff f2 3c
       0.0060954667 -0.083646454 0.0017055456 0.02966274
000390 1c f0 9a bd 30 7c 55 bd a7 4e ce 3b b4 a7 79 3d
       -0.075653285 -0.052120388 0.006295997 0.06095095
0003a0 81 e1 5c 3d 7c fd 79 bd ba c0 dc 3c d0 94 f5 3c
       0.053925995 -0.061032757 0.026947368 0.029978186
0003b0 79 db 4c 3d a5 dd 76 bc 84 0e 66 3c 2e fb 66 3d
       0.050013993 -0.015067493 0.014041547 0.056391887
0003c0 8e a1 92 3c 83 69 32 bc fe 9c b9 bd 98 35 ba bd
       0.0178993 -0.010889414 -0.09063147 -0.090922534
0003d0 35 39 b8 bc d0 1a 9f bb 25 fa ac bd b8 b9 c1 bd
       -0.022488216 -0.004855491 -0.08446149 -0.09459251
0003e0 c6 d8 80 bd 2c 72 f4 bc e5 2c 37 bd 62 b8 aa 3b
       -0.06291346 -0.029839598 -0.04472055 0.0052099684
0003f0 54 c8 3e bd 94 58 e6 bc 64 ec 04 be 4e 21 b3 3b
       -0.046577767 -0.02811841 -0.12980801 0.0054666167

bias_hh_l0 f4 [512]
000000 4d 60 f5 b9 b4 a2 3c 3c 1c 81 cb 3d 75 32 67 3c
       -0.0004680179 0.011513401 0.09936735 0.014111151
000010 41 d0 87 bb 25 6e 3a bd ca ba 39 bc 79 c3 77 3d
       -0.004144699 -0.0455152 -0.011336038 0.06048915
000020 3d 9c d6 bd da 87 60 3d ca 20 3a bd 2b 42 b2 bd
       -0.10479019 0.05481706 -0.045441426 -0.08704027
000030 c7 3c 97 bd ba 6b 26 3d e5 be a4 bb 54 af 20 bd
       -0.07384639 0.04063008 -0.005027639 -0.039229706
000040 04 c0 9d 39 76 54 7c bc c1 44 e1 3d ac e5 c9 3c
       0.00030088436 -0.015400996 0.10999442 0.024645649
000050 5c 68 a3 bd 6b 21 97 bd 19 b3 93 bd dc 97 cc bb
       -0.07978889 -0.07379421 -0.072118945 -0.006243689
000060 22 cc 9c 3c 8c 2d 64 3c 8a dc 0b bd f0 aa 31 3d
       0.019140307 0.013926875 -0.03414587 0.04337591
000070 f5 dc a8 3d 3b fc 97 3d 90 ac 93 3d 36 3b 86 3d
       0.08245269 0.07421156 0.07210648 0.06554262
000080 d5 24 b5 bc 6d b0 68 3b d6 39 4a bb 66 46 8a 3d
       -0.02211229 0.0035505549 -0.0030857227 0.06751709
000090 28 55 52 3d e0 ce a2 3c 8e 4d 92 3d e0 5e 29 bd
       0.051350743 0.019874036 0.07143699 -0.041350245
0000a0 ce 2b 49 3d c8 26 4d bd bd 05 37 bd 44 88 32 3d
       0.04911404 -0.050085813 -0.044683207 0.043586984
0000b0 50 85 39 3d 8a 19 7a bd 20 2a 6a 3d 78 0c 89 bd
       0.045293152 -0.061059512 0.05716908 -0.06691831
0000c0 6f 02 96 bd 54 75 96 3d fa 04 0e bc 5e eb fb 3c
       -0.07324683 0.07346597 -0.008668179 0.03075188
0000d0 fe 45 10 3d d4 cb a8 bc 80 0a 46 bd 3a 6d 47 bd
       0.035223 -0.020605005 -0.048349857 -0.04868815
0000e0 e2 e9 b1 3d 54 d1 bf bb fd 71 88 bd 9a 6c fa bc
       0.08687188 -0.0058538113 -0.066623665 -0.030569363
0000f0 e1 bd 42 3c 3e bc b1 bd b2 7d 82 3b a8 64 3d 3c
       0.011886091 -0.086784825 0.003982269 0.011559643
000100 d6 e8 d7 3c 24 50 5c bd f2 d3 a2 3d 8a ac 7f 3c
       0.026356142 -0.053787366 0.079505816 0.015605101
000110 ef e6 7e bd 2a 42 7c 3d ec b6 13 3d 4c ca 31 bc
       -0.062231954 0.061586536 0.03606312 -0.010851454
000120 3e d5 c1 b9 e2 dc bb bd 59 ee aa bc 74 64 a8 bc
       -0.00036970706 -0.091729894 -0.020865606 -0.020555712
000130 a9 8a 12 3d 36 c7 01 bd 15 f7 c5 3d 8c 6b 1b bc
       0.035776768 -0.031684123 0.09666268 -0.00948609
000140 4c be 5b bd b8 68 e7 3c 0b 75 3f bd f5 42 f8 3c
       -0.053648278 0.028248176 -0.04674248 0.030305365
000150 64 a7 3d bd dd 50 ad bc 8c 62 93 3c a9 d2 b8 bc
       -0.046302214 -0.021156723 0.017991327 -0.022561388
000160 81 9c a5 3c d8 dd b8 3d 91 38 c0 3b 19 0e 71 bd
       0.020216228 0.09026688 0.0058661182 -0.058851335
000170 df 2b ec 3d 6d 96 8f 3d ac 7b af 3d ee 35 4d bc
       0.11531805 0.07011113 0.085685104 -0.012525065
000180 f4 5c ae 3d 2c fe b1 3b 37 98 4e bd 67 0f a3 3d
       0.08513823 0.005431911 -0.050438132 0.07961922
000190 1f 4c da 3b 5a 4d 46 3d d2 4a 48 bd a2 87 9b bd
       0.0066619064 0.048413612 -0.04889948 -0.07594229
0001a0 39 14 5e bd 88 55 16 3d af 33 3d 3d bb 1b 60 3d
       -0.054218505 0.036702663 0.046191867 0.054713946
0001b0 ce 5c 40 bd b1 0f 29 bd dc 5e fe bc 68 1f a7 bd
       -0.046963505 -0.04127473 -0.031051092 -0.08160287
0001c0 2e 63 c6 3d 48 0f ad 3d 61 77 16 bd 30 26 ca 3d
       0.09686886 0.0845018 -0.036734942 0.09870565
0001d0 dd dd 54 3d ba e5 5f bd 80 de fa 3d eb 76 b1 bd
       0.051969398 -0.054662444 0.1224947 -0.0866526
0001e0 0c 97 6d 3d 65 6f 49 3d 04 ab 99 3d 0e cf 32 3d
       0.058005378 0.0491785 0.07503322 0.043654494
0001f0 f1 de a7 3d 8a 90 9f 3d d3 f4 d6 3d f2 b4 71 3c
       0.081968196 0.077912405 0.10495915 0.014752613
000200 94 f1 d6 bc 4b 2f ab bd 2c 0b d8 bd 34 79 ef bc
       -0.02623824 -0.0835863 -0.10549006 -0.029232599
000210 8d 2b 39 bd 78 2f 52 bd e8 35 f0 3c 0b 8e a1 bd
       -0.04520755 -0.0513148 0.02932258 -0.07888421
000220 c1 e7 1c 3c 54 5e 9b 3c 1c b7 7c 3d ac fd 13 3d
       0.009576739 0.018965878 0.061698064 0.036130592
000230 8f 20 c9 bd c5 95 09 3d 61 94 34 bd ec 81 4c bd
       -0.09820663 0.033590097 -0.044086818 -0.04992859
000240 bd 72 38 3c 3a e9 97 3d 94 e9 c8 bd 11 6c 0d 3c
       0.0112578245 0.07417531 -0.098101765 0.008631722
000250 66 f0 3f 3c 71 c1 1d bd e7 00 c4 bd 0b 6e a1 3c
       0.01171503 -0.03851456 -0.095704846 0.019705793
000260 4e bc ca bd 1e de 88 3c b8 fd 03 3d f1 fd de bd
       -0.098991975 0.016707476 0.032224387 -0.10888279
000270 93 df 3c bc 4b 2b 1b 3c f4 19 0c 3d 0e 47 03 3d
       -0.011527914 0.009470771 0.03420444 0.032050185
000280 85 9e db bd f3 46 87 ba 5d f3 0f 3c ce 75 81 3b
       -0.107235946 -0.0010320827 0.00878605 0.003950811
000290 0e 9e aa bd 3f 88 7b 3c ba 9d d4 bd 01 da af bc
       -0.08330928 0.015352308 -0.103816465 -0.021466257
0002a0 10 96 75 bd 52 95 7d bd ea 40 af bd c5 0f 66 3d
       -0.059957564 -0.06190998 -0.08557303 0.056167383
0002b0 46 64 c1 bc 13 61 53 bd 6a c8 2a bb e5 68 c5 bd
       -0.023607384 -0.05160625 -0.0026059397 -0.09639148
0002c0 9c 7b 77 3d a6 6d 3f bd ba ef a9 bd e3 a3 82 bd
       0.060420617 -0.04673543 -0.08297677 -0.06378915
0002d0 9e 89 d0 bd 04 e0 0f 3d 1d e2 e4 bd 90 74 8a 3d
       -0.101824984 0.035125747 -0.1117594 0.06760514
0002e0 93 e1 b6 bd 02 c5 8e 3d 18 32 8d 3d c4 74 66 bc
       -0.089297436 0.0697117 0.0689432 -0.014065925
0002f0 15 0a 3c 3c ad 29 6c 3c 59 fb e4 ba 89 1d 95 bd
       0.011477013 0.014414233 -0.0017469927 -0.07281024
000300 3f 09 1f 3d c0 07 41 3c 7c 1e 96 3c 69 93 97 bc
       0.038827177 0.011781633 0.018325083 -0.018502908
000310 4d e8 2d 3d c3 f7 be bc 28 53 37 bd c1 75 0e 3d
       0.042457867 -0.023311501 -0.04475704 0.034780268
000320 75 de 03 3d 94 3a 46 bd 0f 3f 97 bd 5d 4c d7 3c
       0.032194573 -0.04839571 -0.07385074 0.02628153
000330 77 e3 8f bd ee 78 39 3c e0 6e 5e 3d 83 4f 6c 3d
       -0.07025807 0.011320336 0.054304957 0.057693016
000340 7f df 44 bd 20 22 e8 bd f0 a4 72 bc 9a 26 70 3d
       -0.048064705 -0.11334634 -0.014809832 0.058630563
000350 86 00 f0 bc a0 f1 96 bc 37 ce 62 bd 36 a2 6a 3d
       -0.029297125 -0.018425763 -0.055372443 0.057283603
000360 82 2b 58 bd 06 8d 37 bd a5 95 7c 3d d7 9d 41 3c
       -0.052775867 -0.044812225 0.06166615 0.011817417
000370 ad f2 fc bb fe 1f 71 bd 20 9b aa bd 6c 41 78 bd
       -0.007719359 -0.0588684 -0.08330369 -0.060609266
000380 1d 08 9e 3d 89 3e 54 3d df 65 e3 bc 21 21 d4 3b
       0.07716391 0.05181745 -0.027758537 0.006473676
000390 8e 29 49 bd a4 77 be 3c 51 01 c8 bd b7 8d 86 3d
       -0.049111895 0.023250408 -0.09765876 0.06569999
0003a0 e9 49 ef 3a d2 b8 cd 3a d7 7d 27 bd 89 c5 3f bc
       0.001825628 0.001569534 -0.040891495 -0.011704811
0003b0 30 02 67 3c 0b 88 d1 bb 3d 8f b6 bd 72 97 79 3d
       0.014099643 -0.0063943914 -0.08914039 0.060935445
0003c0 e0 d6 42 bd 90 c9 91 bc b0 66 bd bd ee 9b 8e bd
       -0.047568202 -0.017796308 -0.09248102 -0.06963335
0003d0 18 7d 36 bd a7 83 ac 3c 4c a2 51 bd b0 60 2d bb
       -0.044552892 0.02105887 -0.05118017 -0.0026455335
0003e0 92 6f 8e 3d 1d e2 76 bd 32 f5 17 3c af 7d a7 bc
       0.06954874 -0.060274232 0.009274768 -0.020445673
0003f0 19 9f 0f 3d ca 75 8b bc 9e 7f 25 bd 0a 41 6c bd
       0.035063837 -0.01702394 -0.04040491 -0.057679214

weight f4 [32, 128]
000000 55 36 a0 bc 39 3c c6 bd de 22 ff 3c db 83 80 bd
       -0.019557158 -0.09679455 0.031144556 -0.062751494
000010 1e 25 0e bd b3 74 6d 3c 7b 4e b3 3d 52 e3 23 bd
       -0.034703366 0.014493155 0.08755203 -0.04001171
000020 42 a6 96 3d b4 57 41 bd 0d 3d 45 3d 96 e4 d0 bc
       0.0735593 -0.04720278 0.048153926 -0.025499623
000030 a3 7d c5 3d fb 44 fb bc b6 4e f0 bb 4d d7 cf 3c
       0.09643104 -0.03067254 -0.007333602 0.025371218
000040 49 3a 30 bd 26 e0 71 bc b4 b5 a3 3d 67 22 5e 3d
       -0.043024335 -0.014762914 0.079936415 0.054232027
000050 53 8e 5a 3c b6 d3 05 3d f1 09 52 3d ab 6b 04 bd
       0.013339597 0.032672606 0.051279012 -0.032329243
000060 5e b9 a2 bc 08 32 98 3d 63 4b 87 3a 3f 62 db 3d
       -0.01986378 0.07431418 0.001032215 0.10712098
000070 d0 f0 6a 3d f7 35 8f 3c d7 ee 26 bd d9 15 0d bd
       0.057358563 0.017481787 -0.04075512 -0.034444664
000080 14 eb 01 bd 2a c6 aa bd 25 f0 60 bc 2f f4 12 bd
       -0.03171833 -0.08338578 -0.01372913 -0.035877403
000090 97 b3 e5 bc 94 19 8a bd 45 e1 72 bd 22 5e 46 3d
       -0.028039737 -0.0674316 -0.059296865 0.048429616
0000a0 85 e4 11 3d f1 c3 86 3b e8 bd f1 bc a4 e0 b1 3d
       0.035618324 0.0041127135 -0.0295095 0.08685425
0000b0 31 ed 85 bd 4f 40 df 3c 02 d0 65 bd 4a 58 62 ba
       -0.06539381 0.027252344 -0.056106575 -0.0008634372
0000c0 68 2c d9 bc 18 54 74 3d cc 97 33 bd e1 7a 66 bb
       -0.026510432 0.05965051 -0.043845937 -0.0035168456
0000d0 80 e3 b2 3a e5 97 6f 3c b5 c8 42 bd f3 b8 14 bd
       0.0013648123 0.014623617 -0.04755469 -0.036309194
0000e0 6c 26 af 3d 1c 57 37 bb 9c a2 ff 3c 55 f1 ac 3d
       0.0855225 -0.0027975505 0.031205468 0.08444468
0000f0 b9 fa a7 ba 3c 41 69 bc fa ec 6d bb cc 8a 70 3d
       -0.001281581 -0.0142367445 -0.003630458 0.058726117
000100 e4 13 7f 3d 66 7f 65 3d db 2a 20 bd 63 df 74 bd
       0.06227483 0.0560297 -0.03910337 -0.05978335
000110 45 d0 36 3d 94 19 3e bc f9 98 7c 3d 41 37 9e 3c
       0.044632215 -0.011602778 0.061669324 0.019313456
000120 d5 45 c9 bd 06 0c 75 3d 3b 48 53 3c 05 4e 4e 3c
       -0.098277725 0.05982592 0.012895639 0.0125918435
000130 4f 9e 00 3b 37 94 cb bd 28 4c a8 3d ba f1 c9 bd
       0.001962561 -0.09940379 0.08217651 -0.09860559
000140 54 ae 08 3c d7 d1 15 3c 1a 29 c1 3b b0 05 0d 3d
       0.008342344 0.009144268 0.0058947923 0.034429252
000150 d5 52 7b 3c fe dc 61 bb 59 05 30 3d 6b 7f ac bd
       0.015339573 -0.0034463997 0.04297385 -0.084227405
000160 0d 79 a4 bc 39 e3 61 3b 6a 6e 8b bd 15 7a ed bd
       -0.020077253 0.003446771 -0.06808169 -0.11595551
000170 86 ab 8b bd bd be 23 bc 09 07 bc 3b fe b8 74 3c
       -0.06819825 -0.009994206 0.0057381433 0.014936684
000180 7d e6 be 3c 58 4f 11 3c 2c 51 67 bd ec 6f 20 bd
       0.023303265 0.008869015 -0.056473896 -0.039169237
000190 72 98 c9 3d 53 fa 66 3d e7 2f 2c bd d9 5b f0 3c
       0.0984353 0.05639107 -0.04203787 0.029340671
0001a0 a5 2d 5a 3d 91 f7 2b 3c 9d 3f 98 bd 16 7e 59 3d
       0.053266186 0.010496036 -0.07434008 0.05309876
0001b0 51 e0 c1 3c b3 d9 95 3c e3 d2 7d bd d6 39 81 bc
       0.023666533 0.018292284 -0.061968695 -0.015774649
0001c0 2c 46 c3 3d 2d c2 c6 3d e1 8e 71 bd b2 22 bf bd
       0.095348686 0.09705005 -0.05897415 -0.093327895
0001d0 06 6c 77 bd 9f 37 f5 3c 18 be b3 bc 50 4f 63 bd
       -0.060405754 0.029933749 -0.02194123 -0.05549556
0001e0 ba 76 a2 3b ff 58 3f bd 8c 9a 9b 3c f2 25 50 3d
       0.004958001 -0.046715733 0.018994592 0.050817437
0001f0 78 22 bd 3b 92 0b ac bc 93 ed 3f 3d 68 8b 39 3d
       0.0057719313 -0.02100161 0.046857428 0.045298964
000200 bf e2 34 bb 4d ec df bc 8d 96 59 bd 7d 47 a6 3d
       -0.0027600972 -0.027334357 -0.053122092 0.08119104
000210 a0 90 77 bd a6 0d 5f bd 86 0e bb 3b 47 3d bc bd
       -0.06044066 -0.054456376 0.0057085184 -0.09191375
000220 13 1a cc 3d c7 7f c3 3b 19 37 8b bd be 6e 4d 3d
       0.09965911 0.00596616 -0.067976184 0.05015444
000230 fd d9 3c 3c cd 48 93 bd e5 06 91 bc 27 ef eb 3c
       0.011526582 -0.0719162 -0.017703483 0.02880056
000240 b2 d9 8d bc b4 63 d2 3d eb 07 c9 3d 82 a9 90 bd
       -0.01731572 0.10272923 0.09815963 -0.07063581
000250 92 7f 0f bd a3 6d 2d bc fe 5a b2 3a 30 62 42 3d
       -0.03503377 -0.010585221 0.001360744 0.04745692
000260 1a 25 95 3c 41 9c a7 3c 2b a4 ed 3b 3c 25 da 3d
       0.018206168 0.02046025 0.0072522364 0.10651633
000270 e9 09 4c bd 38 27 ae bc 9b 0c af bd 2c ca 66 3d
       -0.04981414 -0.021258935 -0.08547326 0.05634515
000280 3b 8c c2 3c 01 0d 96 bd 97 de c7 bc 43 d4 ab 3b
       0.023748508 -0.07326699 -0.024398131 0.0052438094
000290 30 8a 9b 3c 01 9b 53 3d e2 73 ad 3c fb 65 9f 3c
       0.018986791 0.051661495 0.021173421 0.019457808
0002a0 98 a7 e6 bd 9a 83 1b be e2 9b e9 3d 29 29 c3 bd
       -0.11262435 -0.15186921 0.114066854 -0.09529335
0002b0 c5 39 cd bd e5 11 a2 3d 24 23 81 bd 03 85 02 3d
       -0.10020784 0.07913569 -0.06305531 0.03186513
0002c0 04 59 ba 3a 39 d5 88 3d 39 aa 58 bd 91 f2 0f 3e
       0.0014217203 0.06681294 -0.052896712 0.14057375
0002d0 c9 7b ed 3c b6 1f 25 bd 59 e2 0a 3d 44 c5 86 bd
       0.02898969 -0.040313445 0.03390727 -0.06580594
0002e0 20 a2 89 3d 73 48 2a 3d 5e 79 7a 3b 4c d7 62 3c
       0.06720376 0.041573 0.0038219313 0.013845276
0002f0 fa 51 92 bd 7d 10 c2 3d 36 da 79 bd c8 8f 2e bd
       -0.07144542 0.09475801 -0.060999118 -0.04261759
000300 58 9d ae 3b 4e 7f 31 3c c3 b3 cb 3c aa 4d 52 bd
       0.0053288154 0.010833574 0.02486599 -0.051343597
000310 65 ad 05 be bb 4f 03 be fa cc 9f 3d eb 2d 29 3d
       -0.13054426 -0.12823384 0.07802768 0.041303556
000320 60 2e d4 bd 3a 1b 06 3d f8 87 d8 3b 42 a6 9e bc
       -0.10360408 0.03274081 0.0066080056 -0.019366387
000330 7b 1f 0a 3d 71 ef e4 bd d1 f6 af 39 e2 cb 38 bd
       0.03372143 -0.11178482 0.00033562494 -0.045116313
000340 45 91 8d bb 4d a2 44 3b d9 19 bf bd e0 aa 53 bd
       -0.004320296 0.0030003965 -0.09331102 -0.05167663
000350 78 b8 0e bc ee 55 da bc 18 a5 17 3b 46 77 02 bd
       -0.008710973 -0.026652303 0.0023139175 -0.03185203
000360 4f 4b 4b 3c d8 97 e5 bd 45 1d f1 bd 8d bd 6b bc
       0.012408092 -0.112106025 -0.11773161 -0.014388454
000370 ac af aa bd f3 b1 27 bc e7 e4 12 bd 56 45 f1 3c
       -0.08334288 -0.0102352975 -0.03586283 0.029452007
000380 dd 24 1d 3b a3 0c 66 3d 66 c4 b0 3b 1c 31 ad bb
       0.002397827 0.056164395 0.0053945063 -0.0052853953
000390 56 fa 6c 3d 3c 73 c1 3b 4f ac ca bc ba 11 59 3d
       0.057855926 0.0059036296 -0.024740366 0.05299542
0003a0 e2 d3 80 3c b6 a6 2c 3d 7a 53 0c 3d e0 07 21 bc
       0.015726034 0.042151175 0.034259297 -0.009828538
0003b0 84 95 aa 3d 32 51 95 3b 3e 98 36 3d 76 6d 9c 3c
       0.08329299 0.0045567984 0.044578783 0.019095164
0003c0 a5 9a 2d bc ce 1f 8b 3b 8f 2f 50 bd 15 28 1b be
       -0.010595952 0.004245735 -0.050826605 -0.15152009
0003d0 d7 cc 42 bd b8 fd 6f 3d ca 41 52 3d 29 31 05 3d
       -0.04755863 0.058591574 0.051332273 0.032517586
0003e0 7c af 50 bd 3f b1 21 bd b2 65 74 3d 0b df 80 bd
       -0.050948605 -0.039475676 0.059667297 -0.06292542
0003f0 a6 9f a8 3c b3 d8 a0 3d 4b b8 ed 3c 85 b4 09 3d
       0.020583939 0.07853832 0.029018542 0.033619422

bias f4 [32]
000000 2e 0d 45 bc 8d e2 56 bc 6f c9 7b bd 78 db 50 bb
       -0.012027068 -0.013115537 -0.0614714 -0.0031869095
000010 22 fb 09 3d 9f d3 ba bc b4 c6 bc 3a 1c 76 bf 3d
       0.033686765 -0.022805987 0.001440248 0.093486995
000020 8d f3 32 bc 53 a3 d6 bc 3b 74 92 bb f5 81 b3 bd
       -0.010922325 -0.026200926 -0.004469422 -0.08765022
000030 cb 87 af 3c fe f1 14 3d 30 7d 69 bc 0d 65 37 bd
       0.021427056 0.036363594 -0.014251038 -0.044774104
000040 f0 7e 2d 3d 13 f0 6b bb 34 c6 b6 3c f1 dd 9f bc
       0.042357385 -0.003600125 0.022311307 -0.01951501
000050 df 8e c8 3c fc 7d 1c bd 3c da 08 3d 6b dc 05 3d
       0.024482189 -0.038206086 0.03341125 0.03268091
000060 a1 17 f6 3c 2f bb 4d 3c 52 86 30 be 8a 05 69 3b
       0.030040564 0.012556835 -0.17238739 0.003555628
000070 ac 5e e0 3c b1 21 42 be 69 79 30 bd 81 11 ae 3c
       0.027388893 -0.18958165 -0.043084536 0.02124858

weight f4 [1, 32]
000000 ee de da 3d f1 b5 32 3d 04 94 0c bd b4 7c d6 3d
       0.10687052 0.043630544 -0.034320846 0.10473004
000010 6c f6 85 bd 97 12 71 3d d9 43 0b bd 9a 7d 46 3c
       -0.06541142 0.05885562 -0.03400025 0.012114907
000020 c4 66 a1 3d 4d 10 40 bd b5 22 2e bd c1 24 e9 bc
       0.07880929 -0.046890546 -0.042513568 -0.028459908
000030 b2 64 ad bd 66 62 08 3d eb 67 93 3d 5a 19 2c bd
       -0.08466472 0.033296965 0.07197555 -0.042016365
000040 fe 8c bb bd c7 47 a3 bd 1e 5f fc bc cd 84 a8 3d
       -0.091577515 -0.07972675 -0.030807074 0.08228455
000050 c1 bf 5f 3c 84 f6 0c bd bf d0 7d bd 15 ed ab 3d
       0.013656558 -0.034414783 -0.061966654 0.08394829
000060 8a 84 22 3d 75 ad 10 bd ad 89 89 bc 07 2e 8b bd
       0.03967718 -0.03532167 -0.016789282 -0.067958884
000070 80 39 01 bd 94 9e 35 3d ba 35 ef bd 9f b5 dd bc
       -0.031548977 0.044340685 -0.116801694 -0.027064143
